model/lstm_model_bm.pth (torch, 121700 bytes, 18 tensors)

lstm.weight_ih_l0 f4 [120, 19]
000000 15 24 d5 3d 50 68 81 bd 0e a8 cb bc 95 4e 0c be
       0.10407273 -0.06318724 -0.024860408 -0.13701852
000010 ba 89 37 3d d3 28 01 be 89 09 b2 3b 69 9b 53 3d
       0.04480908 -0.1261323 0.0054332656 0.051661883
000020 82 43 f2 bd 0d 19 d3 bd 8c ce ae bd 22 09 ca 3c
       -0.11829282 -0.103075124 -0.085354894 0.024662558
000030 06 ce 37 3c dc 46 a0 bd 13 60 f6 bd 3d 60 b8 bd
       0.011218553 -0.07826015 -0.120300435 -0.09002731
000040 a6 03 28 be aa 54 19 3e ca 7b 72 bc a8 44 12 bd
       -0.16407642 0.14973703 -0.014800021 -0.035710007
000050 22 d1 0c bd 7d ee 1a be 8b 0e 15 be 66 c2 36 3d
       -0.034379132 -0.15130039 -0.14556329 0.044618987
000060 95 26 e5 3d a0 73 51 bc ef 7f 31 be 72 9c 0c 3e
       0.111889996 -0.012783915 -0.17333959 0.13731554
000070 7d ce 5f 3c 86 06 d5 bd f4 44 6b bd 39 a5 a9 3d
       0.0136600705 -0.10401635 -0.057438806 0.08283467
000080 df 07 27 be f7 4a 4b bd 70 86 21 be 7c d4 36 be
       -0.16311596 -0.04963204 -0.1577394 -0.17854494
000090 62 f6 2e 3d 86 31 b8 bd ff 76 63 bd 46 41 eb 3d
       0.042715438 -0.08993821 -0.055533405 0.11487059
0000a0 8d 40 e7 bc 74 2a fa bc f9 69 24 be 1c 81 5c bd
       -0.028229022 -0.030537821 -0.1605605 -0.053834066
0000b0 34 f4 14 3e 43 ac 56 3d 9b 7f 04 3e 6f df ab 3d
       0.14546281 0.052410375 0.12939303 0.08392226
0000c0 65 84 f8 bc 1f f9 24 3e 70 20 1b 3d 35 bf 36 3d
       -0.030336568 0.16110657 0.03787273 0.044615943
0000d0 d2 db 30 bd 4e 8f 64 bc 23 7d 32 be 15 49 fa 3d
       -0.043178387 -0.013950182 -0.17430548 0.122209705
0000e0 ec cd cf bd ce c7 d8 3c 62 32 07 be 9c 65 b1 3d
       -0.10146698 0.026462462 -0.13202813 0.086619586
0000f0 a2 12 02 3d 10 47 19 3e 72 68 cc 3d 9a 37 83 3d
       0.03175605 0.14968514 0.09980859 0.064070895
000100 be c5 9f 3d 98 e1 d5 3d a9 71 3d 3d 5c 6c 88 bd
       0.07801388 0.10443419 0.046250973 -0.06661293
000110 a8 25 84 3c db 7f 02 3e b8 bd 9b bd 8b 84 c5 3c
       0.016131237 0.12744085 -0.07604545 0.024111053
000120 c1 57 0b be 7b 6b 1a be 6d af b1 3d e1 21 05 be
       -0.13607694 -0.15080063 0.08676038 -0.13001205
000130 29 54 e5 bd 5a b0 1b 3e 88 0f 25 3b d9 a8 3d bd
       -0.11197693 0.15203992 0.002518626 -0.046303604
000140 c2 29 00 3e 15 2c 2a 3e a8 bb ea 3d be fc e3 3d
       0.1251593 0.16618378 0.11461574 0.11132191
000150 bf df 46 3d db 6f d2 bd e9 3f ca bd 0e a3 15 be
       0.048553225 -0.10275241 -0.09875471 -0.14612982
000160 97 8a fe bd 65 3b a2 bc e7 97 19 be 29 28 21 3e
       -0.12428778 -0.019803712 -0.14999352 0.15737976
000170 91 fa 47 bd c5 78 63 bd 58 2c e7 3d 6e 07 21 3e
       -0.048822943 -0.055535097 0.11287755 0.1572549
000180 f0 2d 15 be 02 03 d4 bd 4f d3 bd bd 09 1b 01 3e
       -0.14568305 -0.10352136 -0.092688195 0.1260797
000190 39 31 bc bd 03 a9 d8 bd d8 f1 4a bc 34 b6 9b 3d
       -0.09189076 -0.105791114 -0.012386762 0.07603112
0001a0 f9 43 85 bd 0b dc f6 bc 68 4d d3 3d f7 f1 2c bd
       -0.065071054 -0.030134222 0.103174984 -0.042222943
0001b0 c3 fe 48 3e 5b 84 3d 3d fa 5b d4 3d 3a 6e ae 3d
       0.19628434 0.046268802 0.10369106 0.08517118
0001c0 69 06 9e bd 69 a6 5e bd f5 2e 30 bc a2 7c ec bd
       -0.077160664 -0.05435792 -0.010753383 -0.11547209
0001d0 70 cf 16 3d 37 ff 98 bd 2d ba 06 be af ab ee bc
       0.03681892 -0.07470553 -0.13156958 -0.0291346
0001e0 07 a0 69 3c b7 7a a3 3d 62 a4 aa bc 02 9b 0b 3e
       0.014259345 0.079823904 -0.020830337 0.1363335
0001f0 5c 86 f3 3d 1d 10 28 be 79 59 be bd de ab 11 bd
       0.118908614 -0.16412397 -0.09294409 -0.035564296
000200 31 3d 28 3c 58 4c ed 3b 24 e4 0d 3d 28 0e 5a bd
       0.010268495 0.007241767 0.0346414 -0.053236157
000210 69 00 0b be 7e 99 49 be 87 b6 86 bd 1e bc c5 3d
       -0.13574375 -0.19687459 -0.06577783 0.09655021
000220 a5 5d a3 3d 8b 1c bc bd f0 77 27 3d ef b6 a8 3d
       0.07976846 -0.09185132 0.040885866 0.08238017
000230 19 21 27 be 3c 3a af bd e3 df ba bc 7f e0 72 bd
       -0.1632122 -0.08556029 -0.022811836 -0.059296127
000240 fc c2 26 3e 2a f4 87 bd 71 d5 29 3e 2e 32 d2 3d
       0.16285318 -0.066383675 0.16585328 0.10263477
000250 b2 13 b5 3c 2e 3a f5 3d fa e0 19 3e 2b 42 fc 3d
       0.022104118 0.119739875 0.15027228 0.12317308
000260 a2 e5 b2 bc 2d d6 d0 3d 07 60 df bd 53 f2 bd bd
       -0.021838013 0.10197101 -0.10906988 -0.09274735
000270 1c 15 20 be cf 43 1b be 38 0c e9 bd f2 d9 8e bd
       -0.15633053 -0.15162586 -0.11379284 -0.069751635
000280 1e c5 cd 3d 7a 43 30 bd e5 e0 a4 bd 0b f6 88 3d
       0.10047363 -0.0430331 -0.08050708 0.06687554
000290 1b 7e d5 3d 9f 84 1e bc 2d 64 cf bd be 5b 16 be
       0.10424443 -0.009675174 -0.10126529 -0.14683434
0002a0 0c e3 fb bd 26 3f 69 bd 8c eb ea bc db 84 26 3e
       -0.12299165 -0.05694499 -0.02867677 0.16261618
0002b0 31 10 23 be 3a 44 94 3b 68 a8 82 bd 80 c2 46 be
       -0.15924145 0.004524735 -0.06379777 -0.19410133
0002c0 59 4e de 3a f4 99 77 bc bd 25 35 3d 7f 72 31 3e
       0.0016960605 -0.015112389 0.044225443 0.17328833
0002d0 87 37 0f be 0d f5 32 3d 91 49 25 be ea f5 70 3d
       -0.13986026 0.04369073 -0.16141345 0.058828272
0002e0 6d 80 1b 3e 56 fa 9d bd 40 a1 f1 3d 4a 2a eb bd
       0.1518571 -0.077137634 0.11798334 -0.114826754
0002f0 42 bb 28 be 9c e4 93 3c bb b3 da 3d 01 5b 98 3c
       -0.16477683 0.018053345 0.10678812 0.018598082
000300 26 6e d5 3b 80 cf e7 3d 71 d4 3e bd 2d e7 1e 3e
       0.006513375 0.11318874 -0.04658932 0.15517874
000310 bd b5 2e be a4 fb 99 3d 90 5f 1a be ca 45 65 bd
       -0.17061515 0.075187 -0.15075517 -0.05597476
000320 03 45 d9 3d 41 57 02 3d 2c b3 88 bd 2a 44 26 be
       0.10608866 0.031821493 -0.06674799 -0.1623694
000330 86 f7 9b 3d 7b ef 2f bc 67 ab 0b 3b da 1c aa 3d
       0.07615571 -0.010738249 0.002131188 0.08306284
000340 5a 6f ec bd 55 ed ad 3d 5c 0e 3b 3c ce 1d 07 3e
       -0.11544676 0.08492533 0.011416998 0.13194963
000350 80 e5 86 bd 90 df 12 3d e5 2c 2d bd 91 5a ef 3d
       -0.065867424 0.035857737 -0.042279143 0.11687196
000360 0b 69 e7 3d ff 7b d5 bd c9 67 fa bb 72 2e de ba
       0.11299332 -0.10424041 -0.0076417667 -0.0016951098
000370 6f 67 35 3e 0f d9 07 3e d4 9c d0 bd 41 85 1a 3e
       0.17715238 0.13266395 -0.101861626 0.15089895
000380 25 fb 3d 3c 78 ca 4d bd c4 41 e5 3d 2d 67 82 3c
       0.011595522 -0.050241917 0.111941844 0.015918339
000390 53 d1 24 be b0 c5 2b bd f9 6d 04 be ae 0b 20 3e
       -0.16095476 -0.041936576 -0.12932576 0.15629455
0003a0 53 3e ce bd ff 17 14 3e eb ae 17 3d 56 4a 53 bd
       -0.10070481 0.14462279 0.03703205 -0.051584564
0003b0 17 eb b8 bd eb 98 4a 3d 9d d2 04 3c 85 f1 2d 3d
       -0.09029215 0.04946224 0.008106855 0.04246666
0003c0 f3 df c9 bc fd a8 00 be 15 54 c7 bd ec 0f 54 3d
       -0.02464292 -0.12564464 -0.09732834 0.051772997
0003d0 9e 9b 23 bd e3 ff 5f 3b 1c 5f 93 3c b6 7d 10 be
       -0.03994333 0.003417962 0.017989688 -0.14110455
0003e0 73 33 dc bc b8 3f af bd cf 8e 07 be ef bd c1 3d
       -0.026880002 -0.08557075 -0.13238071 0.09460055
0003f0 05 b5 08 be b8 d4 4b 3c 5e dc c4 bd ab 1f 2a 3d
       -0.13350303 0.012440853 -0.09612344 0.041534107

lstm.weight_hh_l0 f4 [120, 30]
000000 a4 06 29 be 1b ba 6d 3d 66 ca b3 3c df 9a 0c 3e
       -0.1650644 0.058038812 0.021947097 0.13730954
000010 2a 1c 77 3d a3 d8 db 3c 2a b2 1f 3e 62 a5 23 be
       0.060329594 0.026836699 0.15595308 -0.15981057
000020 2d 60 0b be 83 37 b1 bd 88 61 c6 bd ce 81 26 be
       -0.13610907 -0.08653166 -0.09686571 -0.16260454
000030 8e 6d dd 3d 01 7a c5 3d cf c2 f3 3d 02 95 29 be
       0.108119115 0.09642411 0.11902391 -0.16560748
000040 13 40 db bd fe 26 13 bd 01 8f 35 3e cf ba 29 be
       -0.107055806 -0.035925858 0.17730333 -0.16575168
000050 9f 15 23 be 07 71 0c 3e 96 09 13 be 9c 2a 95 bc
       -0.15926217 0.13714992 -0.14359125 -0.018208794
000060 27 6f 2f bc b3 2a 19 bd 4b 7d 30 3e 9f ed 26 3e
       -0.010707653 -0.037394237 0.17235295 0.16301583
000070 64 31 7a 3d 8d 6f f9 bd e0 64 7f 3d d3 39 86 3d
       0.06108226 -0.1217948 0.06235206 0.06553998
000080 2c 64 46 3b 75 59 12 3d 62 80 bf bd a7 b6 a0 bd
       0.003027211 0.035729844 -0.09350659 -0.07847338
000090 cd 3f bd 3d e3 86 7b bd 71 54 c5 3d 7d 9c f5 bd
       0.09240685 -0.061407935 0.096352465 -0.119927384
0000a0 e7 94 b5 bd 1e 62 a7 bd a8 4f ea bd 3e 12 a3 b9
       -0.088662915 -0.08173011 -0.114409745 -0.00031103374
0000b0 52 ea f7 3d 7d 7c bd bd 8d 8e 13 3d 96 df f2 bd
       0.1210524 -0.0925226 0.03602462 -0.11859052
0000c0 5b 70 6d bc 33 00 da bd 6b 12 26 bc e6 cb 30 be
       -0.01449212 -0.10644569 -0.010136227 -0.17265281
0000d0 6c 1c 15 be 53 1e df 3d 9c 9a db bd 30 de 1b be
       -0.14561623 0.10894456 -0.10722849 -0.15221477
0000e0 86 da b7 3b 76 b8 89 3d 1d b3 ed bc c8 bb e9 3d
       0.005610767 0.06724636 -0.029016072 0.114127696
0000f0 6e fb 10 3e 2d cf 9e 3d 59 b1 96 3d c7 d5 2e be
       0.14158413 0.077543594 0.07358045 -0.17073737
000100 27 93 73 bd 9f d3 55 bd 1c a0 9e bd 55 62 8a bd
       -0.059466507 -0.05220377 -0.07745382 -0.067570366
000110 d5 c3 0e 3e 10 39 83 3c 1d 47 dc bd e0 0d 22 3e
       0.13941891 0.01601842 -0.10755751 0.15825605
000120 aa 94 31 3e 29 ec 37 be c1 78 29 be cb ab 16 be
       0.17341867 -0.17961182 -0.1654997 -0.14713971
000130 31 d1 ec 3d 8a 88 76 3d 63 f8 c0 bd cf 7a 05 be
       0.115633376 0.060188808 -0.09422376 -0.13035129
000140 1e 4b 9c 3d 21 f3 1d be be d5 ed 3d 3f fa 29 3e
       0.07631515 -0.15424778 0.11613034 0.16599368
000150 cb cf 21 3e f8 e7 a7 bd 4a 2d 81 3d fe c0 af 3d
       0.15801923 -0.081985414 0.06307466 0.08581732
000160 51 59 07 be 17 da 87 bd e6 f5 04 be 7c 8c c7 bd
       -0.13217665 -0.06633394 -0.12984428 -0.09743592
000170 38 a3 bc 3d 7b f2 20 3d 7b bc ed 3c 91 d8 2f be
       0.09210819 0.039293747 0.029020539 -0.17172457
000180 90 dc 35 3e f8 44 00 3c 01 ac 6c bd 6e b2 43 bc
       0.17759919 0.007828943 -0.057781223 -0.011944396
000190 df b5 97 bc 90 43 73 3d 68 0a d0 bd bf a0 20 bd
       -0.01851934 0.059390604 -0.10158235 -0.0392158
0001a0 8b f5 2a 3e 9a 89 11 be b2 4f 31 3e 17 7a 33 3e
       0.1669523 -0.14212647 0.17315558 0.17527042
0001b0 59 cf b2 3c 69 e2 2d bd eb 0f 25 3e 44 78 14 3e
       0.021827387 -0.04245225 0.16119353 0.14499003
0001c0 dd 89 47 bd 74 fa 25 3e 59 25 b0 3d 98 59 d6 bc
       -0.04871546 0.16208822 0.086008735 -0.026165769
0001d0 55 9d 10 be de 3a 02 3e 34 c6 b9 bd 60 62 52 bd
       -0.14122517 0.12717769 -0.09071007 -0.05136335
0001e0 d2 0e 3a be 02 a3 60 bd 4a 77 9f bd 5e b1 30 3b
       -0.18169716 -0.054842956 -0.077864245 0.0026961188
0001f0 c0 74 c0 bd f0 0b 04 3e 59 b9 3f 3e 07 ae ff bc
       -0.09397268 0.12895179 0.18723048 -0.031210912
000200 ab cb 1d 3e 8b 53 87 bd b5 2c e5 bb 69 6e 32 bd
       0.15409724 -0.066077314 -0.006993855 -0.043562327
000210 06 1a 27 bb 34 49 19 be 90 af 20 be 9b 45 1c 3e
       -0.002549769 -0.14969331 -0.15691972 0.15260927
000220 ec b8 08 3e c0 27 3c 3d af 42 da bd af ff fd bd
       0.13351792 0.045936346 -0.1065725 -0.124022834
000230 b4 f3 71 3c 8d e8 fe 3d 22 fc 5f bd e6 bb af 3d
       0.014767576 0.12446699 -0.054683812 0.08580761
000240 b3 74 e5 3d c4 74 2b be c2 58 79 bd bb 30 eb bd
       0.11203899 -0.16743761 -0.06087566 -0.11483904
000250 84 07 27 3e ab 1c 2b be 72 af ac 3d b6 18 1a be
       0.1631146 -0.16710155 0.08431901 -0.15048489
000260 8a 77 bc 3d 9c e9 e4 bd 9a 4e 1b 3e 16 76 aa 3d
       0.09202488 -0.1117737 0.15166703 0.08323304
000270 9e 79 8e 3c d0 8d 95 3d 9f 2e 0a 3e b0 a9 6e 3d
       0.017391976 0.07302439 0.13494347 0.058267295
000280 b7 db 46 be 6c 2d f1 3c 07 30 0d 3d 67 d5 03 3e
       -0.19419752 0.029440604 0.03446963 0.12874375
000290 c6 63 73 bd 35 87 95 bd a3 56 4b be 4a 49 2e 3d
       -0.059421323 -0.07301179 -0.19857268 0.042550363
0002a0 4c 43 0e 3e e6 83 1d 3c c8 48 38 39 18 70 ab 3c
       0.13892859 0.009613967 0.0001757472 0.020927474
0002b0 e7 4c 1f 3e ec f4 8b bd 7f 79 9a bd 46 17 3b 3e
       0.1555668 -0.068338245 -0.07542705 0.18270597
0002c0 ea 77 47 3e 9a db 20 be db 52 0a 3e eb 91 1f bc
       0.19479337 -0.15708771 0.1350817 -0.009739379
0002d0 ce b8 01 3e 59 c1 24 3e 12 e4 01 bc 36 38 ef 3d
       0.12668154 0.16089381 -0.007927911 0.11680643
0002e0 ca 70 f7 bd 7e d5 fa bd c4 1c 4e 3c f8 d5 11 3e
       -0.1208206 -0.12247752 0.0125801 0.14241779
0002f0 a2 07 00 3e a4 72 df 3d b4 9a 6f bd 4e 27 d0 bd
       0.12502912 0.10910538 -0.058497146 -0.10163747
000300 89 b8 4f 3c 24 f6 35 3d 54 61 4d 3c 3d e8 f2 3d
       0.012678274 0.04442419 0.012535412 0.11860702
000310 14 ff 1a 3e bb 1e 1d 3e be 6f f6 3d e3 93 43 3d
       0.15136367 0.15343754 0.12033032 0.047748458
000320 89 44 ad bd 06 5b df 3d 41 31 3a be 10 31 cd bb
       -0.08460338 0.10906033 -0.18182851 -0.006261952
000330 56 d2 16 3e 08 4f ea bc 05 9a 38 bd 8d 6e 0a 3e
       0.14728674 -0.028602138 -0.04506876 0.13518734
000340 a7 db 60 bd f6 21 19 3e 6e 82 c2 bd a8 05 16 3e
       -0.054896977 0.14954361 -0.09497534 0.14650595
000350 2c 53 50 bd b9 b0 1e 3e 4d d0 56 3c 5f a1 14 bc
       -0.05086057 0.15497102 0.013111186 -0.009071677
000360 ab d0 14 3e c4 33 1b be dd 6d 67 3d d1 66 b2 bd
       0.14532726 -0.15156466 0.05650126 -0.08711017
000370 37 ae c1 3d 92 05 06 bb 18 53 38 be d6 49 27 be
       0.09457057 -0.0020450098 -0.18000448 -0.1633676
000380 c0 51 04 3e 97 a2 ff bd e9 5a 83 3d 89 83 ed bd
       0.1292181 -0.124821834 0.06413824 -0.11597354
000390 c8 37 4e bd eb e8 dc bd b2 6b 94 3d 0f bc ed 3d
       -0.050346166 -0.10786613 0.07247104 0.11608135
0003a0 0f 98 a2 3d 42 6c 36 3e cc 67 16 3e 33 59 67 bc
       0.07939159 0.17814735 0.14688033 -0.014120388
0003b0 0f e7 17 3e 72 33 13 be 18 b1 15 3e 17 ee c8 bd
       0.14834236 -0.14375094 0.14618337 -0.09811037
0003c0 89 70 07 3e b2 25 20 be b2 ed cf 3d c2 38 cd bd
       0.13226523 -0.1563938 0.10152759 -0.10020591
0003d0 82 24 ae 3d d7 b2 3b bd cd fc 8d 3d f9 82 91 bd
       0.08503057 -0.04582485 0.069329835 -0.07105059
0003e0 78 a9 04 be 84 dc cf 3d 51 c5 22 be f4 32 64 3d
       -0.12955272 0.10149482 -0.15895583 0.055712655
0003f0 96 b1 11 3e 1f e9 7f 3d d0 f9 c5 bd a2 e0 3c 3e
       0.142279 0.06247818 -0.096667886 0.18445066

lstm.bias_ih_l0 f4 [120]
000000 41 36 90 bd 75 db f4 bd 06 38 ce bd f7 ed 0f 3e
       -0.07041598 -0.119559206 -0.100692794 0.1405562
000010 2d 2f 0c 3d cf 60 40 3e 50 31 9e 3d 2e 4f ea 3d
       0.034224678 0.1878693 0.07724249 0.114408836
000020 46 9d e2 3d 3c 1e 0f bb 1f 67 0e be b7 8a ea bc
       0.11065154 -0.002183809 -0.13906525 -0.028630598
000030 c9 a0 8b bd 72 eb 2f 3e d2 69 1a 3e 51 e8 03 3e
       -0.06817777 0.17179659 0.1507943 0.1288159
000040 0a 11 18 3e b5 17 d0 bd be 4b 9b 3d f8 c6 26 bc
       0.1485025 -0.10160772 0.07582806 -0.010179274
000050 4d 4b fc bd 48 e5 88 3d b4 12 2d 3e 52 33 08 bc
       -0.1231905 0.06684357 0.16901666 -0.008313017
000060 4a a4 45 3e 7e cc e9 bd ec c6 9b 3d 0b 62 7d bd
       0.19300953 -0.11415957 0.07606301 -0.06186108
000070 a8 70 41 be ad 20 f5 3d b5 63 53 bd 50 ca cb 3d
       -0.18890631 0.11969123 -0.05160876 0.099506974
000080 fb 24 8b bd dc 1d 8a 3d 12 fc b2 3d 67 24 9e 3d
       -0.06794163 0.067439765 0.08739485 0.07721787
000090 45 b4 f0 3c 48 aa da 3d 5c 59 37 bd d0 11 e5 bc
       0.029382834 0.1067701 -0.044762954 -0.027962595
0000a0 b3 38 96 bd 60 29 47 3e e2 33 32 bc c2 27 09 3e
       -0.07335033 0.19449377 -0.010876628 0.13394073
0000b0 cd 56 4c 3d 3a 89 32 3e 15 f8 ad bd 7d 8c 35 3e
       0.049887467 0.1743516 -0.084945835 0.17729373
0000c0 55 ce 3a 3e 2a e2 ac bc 2c 70 00 be e7 f2 cf 3d
       0.18242772 -0.021103937 -0.1254279 0.10153752
0000d0 7f 0e bb 3d aa 71 35 3e db 49 fb 3d e0 03 83 3d
       0.09133624 0.1771914 0.12269946 0.063972235
0000e0 9d fc b5 bc f8 27 9d 3d 4d c2 ac 3d 08 6b df bd
       -0.022215182 0.07673639 0.084354974 -0.109090865
0000f0 da 0d 4a be 1e e6 df bc c8 19 15 be 5e d4 fe 3b
       -0.19731846 -0.027331408 -0.14560616 0.007776781
000100 c6 9f 29 3e 10 78 47 3e 14 9c e6 bd f8 9d 6b 3d
       0.16564855 0.19479394 -0.11260238 0.057523698
000110 9d e7 35 3e ef b3 ff bc 43 cd 93 bd 52 64 b9 bd
       0.17764135 -0.031213729 -0.07216885 -0.09052338
000120 01 09 a6 bd 48 d2 c4 bd 6d c0 83 bd b1 dc bf 3d
       -0.08107186 -0.096104205 -0.06433187 0.093682654
000130 44 ec 3f be 0a 66 d1 3a f6 e2 41 3d 9b ad 9c 3d
       -0.18742472 0.0015975845 0.047335587 0.076503
000140 c7 4a 39 3e 36 d8 de bd ec d8 20 3e 64 7d df bd
       0.18094932 -0.10881083 0.15707749 -0.10912588
000150 34 9e 51 3e d2 4b 36 3d 4e f2 0b 3e 96 98 e6 3b
       0.20470506 0.0445059 0.1366665 0.0070372326
000160 f5 20 cc 3b a2 3a 04 3e 35 e0 17 be 8a 68 c1 3c
       0.0062295147 0.12912992 -0.14831622 0.023609418
000170 de a6 20 bd 94 3e 3d bd c7 8a 35 3e c2 03 c7 3d
       -0.039221637 -0.046202257 0.1772872 0.097175136
000180 fb 32 0e 3e a1 09 19 be 50 36 1d 3e 28 92 2b be
       0.13886635 -0.1494508 0.1535275 -0.16754973
000190 fb 8d 1a 3e 44 d3 09 be 9e 69 95 bd 38 d1 05 be
       0.15093224 -0.13459498 -0.072955355 -0.13068092
0001a0 43 f8 8a 3d e4 12 23 3e 87 8d 0e 3e 34 16 49 3d
       0.067856334 0.15925175 0.13921176 0.04909344
0001b0 3d b7 5d 3d 3b 18 0e 3d ed fe 58 bd 71 73 e6 bd
       0.054129828 0.034691077 -0.05297749 -0.112524875
0001c0 a5 74 d4 bc 2e c7 46 3d c4 21 96 3d 9c 63 e8 bd
       -0.025934527 0.048529796 0.07330659 -0.11347124
0001d0 a0 f3 8f ba d3 23 3b 3e 43 82 a8 3d 14 de 8a bd
       -0.001098264 0.18275385 0.082279705 -0.06780639

lstm.bias_hh_l0 f4 [120]
000000 6b 95 42 3d e6 72 0e 3d 56 f7 22 3c c7 e1 5b bd
       0.047505777 0.034777544 0.009946665 -0.053682115
000010 4a cc 0c 3e 59 3b 1b 3d 3c e4 f4 bc e8 3d 0d 3e
       0.13749805 0.037898395 -0.029893987 0.13793147
000020 59 25 bd ba f2 76 18 be ad f2 06 be e1 ad ca bd
       -0.0014430686 -0.14889124 -0.13178511 -0.09896446
000030 39 e5 1a be ae 87 1c 3e a8 2c a7 3d de d0 0a 3d
       -0.15126504 0.15286133 0.081628144 0.033890598
000040 3f 6c 13 be 94 30 03 3e 67 e3 8a 3d d6 dd 00 be
       -0.14396761 0.128115 0.06781655 -0.12584624
000050 14 54 21 3e 49 96 83 ba 56 a6 02 be 57 c4 5b 3c
       0.1575473 -0.0010039295 -0.12758765 0.01341351
000060 b9 0d 8b bd bc 1d fa 3c 5b 5b 1a 3e de 54 16 be
       -0.06789727 0.030531757 0.15073912 -0.14680812
000070 f3 59 c4 bd ef 49 24 3e ae b2 a0 3d 3c 34 e7 3d
       -0.09587469 0.16043828 0.078465804 0.1128926
000080 cf eb f2 bd 15 eb f6 bb 66 0c e1 bc 58 87 25 bd
       -0.11861383 -0.007535348 -0.027471732 -0.040412277
000090 5a ff 8f 3d c4 0c 86 3d 58 83 45 3e f2 9b 0f 3e
       0.07031126 0.065454036 0.19288385 0.14024332
0000a0 27 9b 30 be f6 16 e8 3d f3 aa 27 3c be 14 22 bc
       -0.17246686 0.113325045 0.010233629 -0.009892641
0000b0 7f 53 37 3c da 40 20 3e 93 8a fd 3d 77 a2 0e 3e
       0.011189341 0.15649739 0.123799466 0.13929163
0000c0 28 98 04 3e 9a 8c 60 3c 56 ae fa 3d a8 fe 8b bd
       0.12948668 0.013705397 0.12240283 -0.06835681
0000d0 87 e4 83 bd f4 c8 f1 bd 7b 32 13 be 66 ec ed 3d
       -0.064400725 -0.11805907 -0.14374726 0.11617355
0000e0 9d 13 b2 bd 33 9e 2f 3e c1 3b 39 be d8 58 bb 3d
       -0.08695147 0.17150192 -0.180892 0.09147805
0000f0 ca dd 31 bd c9 b6 08 3d 65 15 9d 3c 30 cb 01 be
       -0.043424405 0.033377443 0.01917524 -0.12675166
000100 ae f6 14 3e 4a 87 11 3d fa 16 3b 3d 4e cb 1f be
       0.14547226 0.035529412 0.04567621 -0.15604898
000110 70 e0 4b bd 19 45 e4 ba 49 f3 97 ba 56 de 2b 3e
       -0.049774587 -0.0017415612 -0.001159289 0.16784033
000120 a8 1c 1f 3c ab c9 9c 3d a7 25 c2 bd e4 f3 8e bc
       0.009711422 0.076556526 -0.09479838 -0.01745028
000130 9b f8 98 3c 31 59 b0 bd 50 94 c5 3d c3 7b 3e be
       0.018673232 -0.08610762 0.09647429 -0.18601899
000140 76 f0 07 3e 28 80 e6 bd ed 67 20 3a fa 80 2f 3e
       0.13275322 -0.112549126 0.0006119002 0.17139044
000150 7c d5 74 3d 61 3a 87 bc 16 7e 45 bd 0b d3 12 3e
       0.059773907 -0.01650733 -0.048215948 0.14338319
000160 96 24 94 3d d8 9b 5d 3e 1f fe 25 3e e1 8d 08 be
       0.07233541 0.21641481 0.16210221 -0.13335373
000170 66 dc 2f be ad dd e7 bd 3c ca 9a bd 86 d9 05 be
       -0.17173919 -0.11321578 -0.075581044 -0.1307126
000180 fb 11 1c 3e 5a 0e 82 bd ad 98 19 bb dc 5a 09 3d
       0.15241234 -0.063503936 -0.002343695 0.033533916
000190 f7 31 12 be 76 db 0a 3d e0 16 9d bc b5 64 1f be
       -0.14276873 0.0339007 -0.019175947 -0.1556576
0001a0 2d ab e2 bc bc 59 ea 3d b7 fa e9 bd fb bf 41 3e
       -0.027669514 0.11442897 -0.11424773 0.18920891
0001b0 e9 3a 4f 3d 52 9e 22 be a9 0c 68 bd e1 4f 9d 3d
       0.05059329 -0.15880707 -0.0566527 0.07681251
0001c0 05 f1 db bd d2 78 0b 3e 3e ae e7 3d a9 aa 15 3d
       -0.1073933 0.13620308 0.11312531 0.036539707
0001d0 1c 51 9d 3c f4 b7 ff bc 78 a4 48 bd c0 de 3e 3e
       0.019203715 -0.031215645 -0.048984975 0.1863966

lstm.weight_ih_l1 f4 [120, 30]
000000 a0 72 a2 bd 22 a1 2f be da 80 61 3d 38 92 e3 3d
       -0.07932019 -0.17151311 0.055054523 0.111118734
000010 22 95 50 3e 4f 9d 87 bc 54 48 dc 3c f5 35 ea bd
       0.2036939 -0.016554503 0.026889957 -0.11436073
000020 8e 54 2c bc f9 f0 de bc 77 11 e3 bd 8a fc 28 be
       -0.010518206 -0.027214514 -0.110873155 -0.16502586
000030 a1 ef 32 3e a4 fc 28 3e 5b c4 6e bd 40 0e 26 3e
       0.17474224 0.16502625 -0.058292728 0.16216373
000040 8b 67 f7 bd a9 29 16 ba 20 d7 bb bd 12 c9 b2 3c
       -0.12080296 -0.0005728254 -0.09171891 0.021824393
000050 93 0c 37 3e 1a cc 1f be d7 8d bc 3d 2c 6a 2e 3d
       0.1787589 -0.15605202 0.09206741 0.042581722
000060 33 46 a4 3c 59 d6 a6 bd d3 8a ce bc 7b 8d c0 bc
       0.020053005 -0.08146352 -0.02521268 -0.023504963
000070 41 2e 1d bd 16 7d 69 bc 78 a3 03 3e b5 51 13 be
       -0.03837419 -0.014251014 0.12855327 -0.14386638
000080 0a c2 1c 3e f0 3e 01 3d 9f 60 06 be cd 98 d8 bc
       0.15308395 0.031554163 -0.13122796 -0.026440049
000090 e2 a5 ff bc c0 f8 ce 3d 30 64 ad 3d 8f 89 7c bd
       -0.031207029 0.10106039 0.08466375 -0.061654624
0000a0 42 ac 1f 3d cd fd 36 bd f4 69 37 be 34 a5 7b bc
       0.038982637 -0.044675637 -0.17911512 -0.015359212
0000b0 0e a2 13 3d 4b e3 cf 3c e0 dd 36 be b1 a0 2b 3e
       0.03604322 0.025376936 -0.17858076 0.16760518
0000c0 8e 80 1c be ae a2 44 be 6c cd b1 3c 1a 79 b5 3c
       -0.15283415 -0.19202682 0.021704398 0.022152472
0000d0 9a ff 08 3d b3 6b 4f bc 17 53 d9 bc df 7f 31 3c
       0.033446886 -0.012659955 -0.026528878 0.0108337095
0000e0 4e 09 fe 3d ed 35 d3 bd 9b 52 15 3e 9b e9 ce bd
       0.124041185 -0.1031302 0.14582293 -0.101031505
0000f0 17 99 fb 3d 8a 53 97 3d 66 29 1b 3e cb 82 b2 bd
       0.12285059 0.07388981 0.15152511 -0.08716353
000100 63 f0 00 3d 38 81 1d 3d d4 55 82 bd 37 60 d6 bd
       0.03147925 0.03845331 -0.06364027 -0.1046757
000110 56 74 57 3d a3 68 6c 3d da 50 04 be 1f 47 15 bd
       0.05260118 0.057716977 -0.12921467 -0.03644478
000120 75 4a 2e be 86 40 04 3e 68 ec 82 3d cf ca 54 3d
       -0.1702059 0.12915239 0.06392747 0.051951226
000130 aa e2 da bc 95 d4 6d bd a4 ef 3c bd b9 40 32 bd
       -0.02671941 -0.058064062 -0.046126977 -0.043518756
000140 9d c9 21 be 27 13 2a bd d0 e1 aa 3d 96 dd 97 3d
       -0.15799566 -0.04152217 0.083438516 0.07415311
000150 0f 2d 28 3d 42 ea b6 3d 38 53 23 3a a2 0c d8 3d
       0.041058596 0.089314 0.0006230357 0.105492845
000160 7f f2 e8 3d ca c3 76 3c 2d 6a fe bd e6 21 cd 3d
       0.113743775 0.015061328 -0.12422595 0.10016231
000170 c7 74 87 3d 28 a5 0d 3e d7 4d b0 3d f0 fa 24 bd
       0.066140704 0.13832533 0.08608597 -0.040278375
000180 17 e0 09 be 7d c6 8a bd 3d ed 29 be f1 b3 42 3e
       -0.1346439 -0.0677614 -0.16594405 0.19013955
000190 5a 39 97 bc ea 2a 0e bd ab f7 3e be 44 10 bf 3c
       -0.018459965 -0.034708895 -0.18649165 0.023323186
0001a0 04 a1 ed 3d 79 cf 1c be c5 bb f1 3d df 2d 3b 3e
       0.11602977 -0.1531352 0.11803392 0.18279217
0001b0 ae 16 08 be 50 dd 24 be d7 de 8f bd 0e 63 b1 3d
       -0.13289902 -0.16100049 -0.07024925 0.08661471
0001c0 c0 32 2c 3e 8a 05 3b 3e f4 ec 96 bd d0 43 c7 bd
       0.16816235 0.18263832 -0.07369414 -0.09729731
0001d0 ae 7d c1 bd 08 b6 c1 bd 90 e6 6f bd 16 ba 03 3e
       -0.094477996 -0.09458548 -0.05856949 0.12863955
0001e0 de 07 2e 3d 2e c8 29 3e c4 b3 03 3e 5c 0a c4 bd
       0.04248797 0.16580269 0.12861544 -0.095722884
0001f0 c6 64 50 bd 0e a0 55 3d cb 39 02 be af 2d 5d bc
       -0.050877355 0.052154593 -0.12717359 -0.013499661
000200 18 85 33 3e 80 da bf 3d f1 91 d9 3d 54 4f 53 bd
       0.1753124 0.093678474 0.10623539 -0.051589325
000210 94 43 17 3e 1a 87 a5 bd 81 e1 2a 3a 3c 0b cc bd
       0.14771873 -0.08082409 0.0006518588 -0.0996308
000220 d8 22 de 3d 11 ed 87 3d 02 2b 2e 3d 72 aa ee 3c
       0.1084649 0.06637014 0.042521484 0.029134009
000230 e4 53 4f 3e 32 d5 0e be 18 e6 5e bd b7 fa a0 3d
       0.20246845 -0.13948515 -0.054418653 0.0786032
000240 ca 32 1a be 7f 05 47 3e 18 7e 5f 3d 5a 0a 12 be
       -0.15058437 0.1943569 0.05456361 -0.14261761
000250 74 5d b6 bd ef 59 af 3d 91 92 a2 bc 11 fc 8f 3c
       -0.089045435 0.08562075 -0.019845279 0.01757625
000260 dd 93 08 be d1 e7 04 bd 73 83 2f be 1e 5b 77 3b
       -0.13337655 -0.03244764 -0.17139988 0.003774352
000270 b7 88 fd bd 1a fb 03 be e3 88 e5 3d e7 3b c3 3d
       -0.12379592 -0.12888756 0.1120775 0.0953291
000280 4e 34 21 3e 68 51 cd 3d 8b 00 57 3d 89 46 df 3d
       0.15742609 0.10025293 0.052490752 0.109021254
000290 d9 2e 25 3e d0 dc 0b 3e ac a9 e7 3d 7a 53 6c ba
       0.16131152 0.13658452 0.11311659 -0.00090151245
0002a0 d8 14 12 3e 70 6c 93 3d 1a 5f ef 3c 45 f6 96 3c
       0.14265764 0.07198417 0.029220153 0.018427977
0002b0 0e d4 f0 bd f9 25 1a 3e db bd 03 be 19 1c 16 3e
       -0.11759196 0.15053548 -0.12865393 0.14659156
0002c0 99 50 1a be 72 ee 5c 3d 9b a7 8d bd 73 60 29 be
       -0.15069808 0.053938337 -0.06916734 -0.16540699
0002d0 b4 ce d8 3d 05 9a fc 3d 31 1d a9 3d a1 bb 35 be
       0.105863005 0.123340644 0.08257521 -0.17747356
0002e0 53 47 5f bd f3 61 38 3d a2 b5 39 be 98 7f 2a bc
       -0.05451138 0.045015287 -0.18135694 -0.010406397
0002f0 95 d8 64 bd ed e2 0a be 70 26 65 bc 95 18 49 bd
       -0.05587061 -0.13563128 -0.013986215 -0.04909571
000300 41 44 20 bc f9 7d dd bb 9f 28 1f be 02 5f 14 be
       -0.009781898 -0.006759402 -0.1554284 -0.14489368
000310 e9 5d 9d bb 20 6f 58 ba 6e 3e 27 3e f4 b6 c3 3d
       -0.0048024547 -0.0008256305 0.16332409 0.0955638
000320 27 3d a4 bd 17 a3 00 3e e6 bd 27 3d c4 0e 0d 3e
       -0.080194764 0.12562214 0.040952586 0.13775164
000330 8e e2 bc bc 65 6e 13 3e 3e 2a bf 3d c9 fa 3c 3e
       -0.023057248 0.14397581 0.09334229 0.18455042
000340 0e 4e f6 3b 9c 61 35 3e fd 08 da bd 82 79 05 be
       0.007516629 0.17713016 -0.10646246 -0.13034633
000350 4b 49 1e be 7b ab 9d 3d 32 3a 0b bd 3e 16 ef bd
       -0.15457647 0.07698723 -0.033991046 -0.11674164
000360 cd 3a 00 3e 88 fe 00 be 67 98 10 bc a4 b5 d5 bd
       0.1252243 -0.12597096 -0.008825398 -0.10435036
000370 e0 63 1f 3d 4d 57 c4 3d ed f1 2a 3e 89 40 0f be
       0.038913608 0.09586964 0.1669385 -0.13989462
000380 11 f5 18 be f5 f5 22 be 5d cd 6e 3d 34 80 08 3e
       -0.14937235 -0.15914138 0.05830132 0.13330156
000390 98 2c 1a be f5 0a 37 be cd d6 2d bb d0 88 ef bd
       -0.15056074 -0.17875274 -0.0026525736 -0.11696017
0003a0 66 ab 85 bd 08 77 0f be 38 f6 46 bc c5 70 07 bd
       -0.06526832 -0.1401025 -0.012143664 -0.03306653
0003b0 32 3d 0f bc 36 7f bc 3d 61 29 9a 3d a0 5a 1e 3e
       -0.008742617 0.09203951 0.07527424 0.15464258
0003c0 45 5c 0a be 6b 96 0f be ac 8a 27 bc c7 c5 5e bd
       -0.1351176 -0.14022224 -0.010225933 -0.054387834
0003d0 e5 3a 1e bd b6 83 2c 3d e8 3d b8 3d 93 8c 09 be
       -0.038630385 0.042117797 0.08996183 -0.13432531
0003e0 8b 16 0f 3d 02 be 16 be d4 9b 04 be ca eb a0 3d
       0.034933608 -0.1472092 -0.12950069 0.07857473
0003f0 28 69 2c 3e 79 66 1e be 84 84 96 3d 03 bb 2e 3e
       0.16836989 -0.15468778 0.07349494 0.17063527

lstm.weight_hh_l1 f4 [120, 30]
000000 f5 e7 ae 3c 59 00 b3 bd 1e 78 de bd d6 9e 57 bd
       0.02135084 -0.08740301 -0.10862754 -0.052641712
000010 01 7c 89 3d 37 a5 11 3e 12 2d 18 3c c7 f4 c5 bd
       0.06713105 0.1422318 0.009288089 -0.09665828
000020 09 80 85 bc 0c 47 a8 3d bb b3 a4 3d a0 45 ce 3c
       -0.016296403 0.08216676 0.08042093 0.025179684
000030 ee 86 47 3e af e6 3f 3e 06 a3 c6 bd d1 21 15 3c
       0.19485065 0.18740343 -0.09699063 0.009102301
000040 07 55 da 3d a3 74 c2 3b 56 ad ba bd 21 53 4d bd
       0.10660749 0.0059343143 -0.091150925 -0.050128106
000050 14 c0 2a 3e 8a 36 2e be 38 ba cf 3c 0f 07 92 bd
       0.16674834 -0.17012993 0.02535735 -0.071302526
000060 5c b2 3c 3c f1 69 25 3d 36 e8 93 3d 70 f7 a7 3c
       0.011517134 0.040384237 0.07222025 0.02050373
000070 c2 1b 93 bd 3b ce fa 3d f7 d4 81 3c e1 3c 88 3c
       -0.07183029 0.122463666 0.01584862 0.016630592
000080 e9 7e 5a 3d e0 b8 30 3e 6a 27 70 3d db 84 88 bc
       0.053343687 0.17258024 0.05863134 -0.016664913
000090 c8 b3 ad 3d 33 6b aa bc 78 ef 58 bb 80 a5 ed 3d
       0.08481556 -0.02080307 -0.003310172 0.11603832
0000a0 d2 1e f2 3d 75 a1 f1 3d a8 88 17 3e 75 f3 9a bd
       0.11822285 0.117983736 0.14798224 -0.07565967
0000b0 1e fe d8 bc 1a fb fc bc 0d f0 32 3e 65 9d 01 be
       -0.02648836 -0.030881453 0.17474385 -0.12657697
0000c0 3a ee ff bd 07 55 00 3d a4 46 56 3d 6e 24 bc bd
       -0.1249661 0.03133109 0.052313462 -0.09186636
0000d0 eb bb 04 be 14 38 c3 3d 7b 96 23 ba 8a 1b 79 bd
       -0.1296231 0.095321804 -0.000624038 -0.06081728
0000e0 97 4d e0 bd 58 a3 36 bc b6 93 f5 bd 33 51 fb 3d
       -0.10952299 -0.011147343 -0.11991064 0.12271347
0000f0 52 ea 57 3c 1a a9 33 be 4a fd 01 3d dc 05 44 bc
       0.013178425 -0.17544976 0.031735696 -0.011964288
000100 c9 07 0c be 32 f5 8a bc 0d d0 2e 3d ab 5b b7 bc
       -0.13674845 -0.016962621 0.04267888 -0.022382578
000110 d7 94 21 be cb e5 d1 3d 48 a6 b2 3c b8 86 0c be
       -0.15779434 0.10248908 0.021807805 -0.13723266
000120 e9 f9 f1 3d a3 27 bf bd 26 d9 87 bb 43 8f 23 3d
       0.11815245 -0.09333732 -0.004145759 0.039931547
000130 74 4f 68 3d 56 23 27 3e 11 6c 01 be e4 e7 15 bc
       0.056716397 0.16322073 -0.1263888 -0.009149525
000140 7d ed 70 bd 7c 6b 2a 3e 86 a2 1f 3e 8c fc 04 3d
       -0.058820236 0.16642565 0.15589342 0.03246741
000150 e9 a5 42 3d f5 0d ce 3d 0e cd 2c 3e 21 86 49 bd
       0.047521506 0.10061256 0.16875097 -0.04920018
000160 b8 df 36 bd 48 8a 91 3d 8e 78 01 be 45 3c 1e 3d
       -0.04464695 0.07106453 -0.12643644 0.038631696
000170 59 18 3c 3d 57 51 9a bd 95 ec a7 bc c9 94 1c 3e
       0.045921657 -0.075350456 -0.020498553 0.15291132
000180 45 0b b7 3d 88 c2 80 3b 48 ec 2b 3e e3 07 28 3e
       0.08937696 0.00392944 0.16789353 0.16409259
000190 05 02 b1 3d 38 e4 8b 3d f1 67 23 3e 97 e6 0d 3e
       0.08642963 0.06830639 0.15957619 0.13857494
0001a0 24 18 92 3b a2 af e5 bd 8f dd 4d be 7c 1b 3e be
       0.004458444 -0.1121514 -0.20104049 -0.18565172
0001b0 fb 5a 2b 3e be cc c6 bd f2 cd 7d 3d ae 8e ec 3d
       0.16733925 -0.0970702 0.061963983 0.115506515
0001c0 84 67 6c 3b 5e 73 ab 3a a0 e2 d1 bc 41 34 57 ba
       0.0036072442 0.0013080647 -0.025620759 -0.00082093856
0001d0 a7 73 bd bd be 4f 9a bd 40 3e c6 bc b8 fe ff bd
       -0.092505746 -0.07534741 -0.024199605 -0.124997556
0001e0 ca f9 41 be 56 c9 44 be 64 39 f2 3a 0f 1e d5 bd
       -0.18942943 -0.19217429 0.0018480239 -0.10406124
0001f0 06 29 ad bc 08 50 33 3e 83 f8 ba 3d aa f5 fc 3d
       -0.021137726 0.17510998 0.09129431 0.12351544
000200 31 82 33 3e f1 b1 19 3e ce 76 18 be 3c 01 fa 3d
       0.17530133 0.15009286 -0.1488907 0.12207267
000210 de 03 08 be 89 be 06 be 25 df 33 bc 95 b9 73 3c
       -0.13282725 -0.13158621 -0.010978495 0.014875789
000220 48 ea 86 bd 99 74 03 3e b0 b6 ce bd df 5c 74 3c
       -0.06587654 0.12837447 -0.100934386 0.01491472
000230 1c 48 d3 bd 01 ab 10 3e 94 e7 5d 3d 3f c1 b2 3c
       -0.10316488 0.14127733 0.05417593 0.021820663
000240 56 98 5e 3d 60 19 8e 3d 88 04 38 3e f5 bd 2a be
       0.054344498 0.06938434 0.17970479 -0.16674025
000250 8e 76 54 be 25 d0 27 3e 0e cf b2 bd 87 47 36 3d
       -0.2074835 0.16387995 -0.08730899 0.044501808
000260 8e 48 12 be 2f cd d0 bd 59 25 6b bd e1 68 1f be
       -0.1428549 -0.10195386 -0.057408664 -0.15567352
000270 f9 53 e5 bd 62 cc 19 3d 7d de b5 3d 3a bf 12 be
       -0.11197657 0.03754843 0.08880327 -0.1433076
000280 3d ac 1c 3d 4f cc 60 bd 2b b5 16 bc 5e 4e 15 be
       0.038250197 -0.054882344 -0.009198467 -0.14580676
000290 79 ef 12 be 11 62 9b bd 5e c5 b6 bd 8d 67 c4 3c
       -0.14349164 -0.07587064 -0.089243636 0.023975158
0002a0 f4 c4 5c bd b0 e3 07 3d 89 5e af bd c2 0f 1e 3e
       -0.053898767 0.033176124 -0.08562953 0.15435699
0002b0 53 b9 17 be 96 0c 27 be fd fe 47 be 0a 66 4d 3e
       -0.1481679 -0.16313395 -0.19530864 0.20058456
0002c0 9f 70 4f bc a6 ca 02 3e 55 07 8c 3d 62 66 9b bd
       -0.012661128 0.12772617 0.06837336 -0.07587887
0002d0 94 f3 d5 3d 2f 1c 70 3d 58 8f 9f bd be c5 8b 3d
       0.104468495 0.058620628 -0.077910125 0.06824826
0002e0 06 3c 0f 3e 60 5b 01 3e 47 b2 d7 3d a3 6e f7 bd
       0.13987741 0.12632513 0.105320506 -0.12081649
0002f0 a7 9a 3a 3e 00 0c 13 bd 52 f5 01 3e 4f f4 4b 3d
       0.18223058 -0.035900116 0.12691239 0.049793538
000300 e1 f4 cc bd 74 a8 fd 3c 36 de 28 3e 4d c6 64 bd
       -0.100076444 0.030964114 0.16491017 -0.055853177
000310 1f 4f 32 be 9d 96 32 3c 42 dd e7 bd 83 f9 c0 bd
       -0.17412995 0.010900167 -0.113214985 -0.094225906
000320 31 2e ba bd 50 df 03 3e 60 9a 8b bd a5 28 fd bd
       -0.090908416 0.12878156 -0.06816554 -0.12361268
000330 6e a3 20 be cb 0a 30 3e e2 c2 3d 3d 04 39 08 3e
       -0.15687343 0.17191617 0.046328433 0.13303
000340 56 2f 91 3c d9 68 9b 3d 09 31 18 3e 30 c0 d8 bc
       0.017722767 0.075883575 0.14862455 -0.02645883
000350 ba bb 04 be f1 62 3d bd b4 c7 ae 3d 40 48 ce 3d
       -0.12962237 -0.046236936 0.08534184 0.10072374
000360 b6 9e 28 be 92 f0 24 3e 96 b5 f0 bd ba af 03 3c
       -0.16466793 0.16107395 -0.11753385 0.008037502
000370 1a be ce bd c0 3d 1d 3e 17 8b 83 3d 04 60 27 be
       -0.10094853 0.15355587 0.06423014 -0.16345221
000380 8c 9c 92 bd 6e 01 dc 3d b3 30 22 bc ec 09 19 be
       -0.07158765 0.1074246 -0.009899306 -0.14945191
000390 de 9d 7f bb 00 7d cf bd b3 28 34 3e 60 77 3b 3e
       -0.0039004008 -0.10131264 0.1759365 0.18307257
0003a0 35 e4 16 3e 85 49 f1 bd ce 3d a9 bc 40 68 1e 3d
       0.14735492 -0.11781601 -0.020659354 0.03867364
0003b0 e2 50 25 be 4d fd 47 3c a9 4b 32 be 5e 28 19 3e
       -0.16144136 0.012206388 -0.17411675 0.14956805
0003c0 0c 7c d6 bd 00 c0 64 3d 69 23 3d be af e8 0d be
       -0.10472879 0.055847168 -0.18470539 -0.13858293
0003d0 d0 cf d0 bd ce 9f ab 3d 79 8d 84 3c 68 c7 0d be
       -0.10195887 0.0838009 0.01618074 -0.13845599
0003e0 a5 bf 3f ba 16 6c 72 3c a6 1c 1c be 46 2d c9 bd
       -0.0007314629 0.0147962775 -0.15245304 -0.09823088
0003f0 1d dc 9c 3c ed fa 47 bd fc a0 1c be a8 73 12 b8
       0.019147927 -0.048823286 -0.15295786 -3.4916826e-05

lstm.bias_ih_l1 f4 [120]
000000 16 76 38 3e 39 f8 58 3d 0e 0b c7 bd ef dc 95 3d
       0.18013796 0.0529711 -0.097189054 0.0731753
000010 71 78 c6 bd 04 2f 7c 3d 77 20 bc 3d 94 5a a1 bd
       -0.09690941 0.061568275 0.0918588 -0.078786045
000020 38 3a 10 be 26 74 c6 3d c3 30 c1 3d 06 d2 45 3e
       -0.14084709 0.09690122 0.09433129 0.19318399
000030 04 3b 4b bd 1c c5 19 3e db 57 b5 bd 1b 32 21 be
       -0.04961683 0.15016598 -0.08854648 -0.1574177
000040 0e 86 dc bd 4c 38 01 3e 43 bf e9 3c 4e 5d 13 be
       -0.107677564 0.12619132 0.028533584 -0.14391062
000050 dc 5a 38 3e fb 1c 0c 3e 3d 2d 01 3d 78 23 17 be
       0.1800341 0.1368293 0.031537283 -0.14759624
000060 ef 98 c8 bd 53 49 ec 3d e4 0e ff bd db a1 37 3e
       -0.09794795 0.11537423 -0.12454012 0.17932837
000070 be d9 80 3d 81 ac 19 3e 8e 95 61 3d 4c f2 19 3e
       0.06291531 0.15007211 0.055074267 0.15033835
000080 e5 a5 ca 3d 44 a3 4f 3b f9 f3 3b 3e 9e 0c c4 3d
       0.09894923 0.0031683007 0.18354787 0.09572719
000090 a1 ab 51 bc 78 34 08 3d 3d da 7b bd fa f2 a5 3d
       -0.012797267 0.033253163 -0.061487425 0.08102985
0000a0 a8 74 da 3d c5 f6 ca bc 3e 97 07 3e 42 b2 08 be
       0.10666782 -0.024775872 0.13241288 -0.1334925
0000b0 c7 a6 c8 bd 23 35 23 3d 56 cb 48 3e e4 97 bf 3d
       -0.09797435 0.039845597 0.19608817 0.09355143
0000c0 9c 2f bf 3d 0b a5 fa 3d 87 2e 13 3e 13 9a 02 3e
       0.09335253 0.12238511 0.14373218 0.12754087
0000d0 87 fd e9 3d 14 6e 29 3e 3d e4 95 3c f3 3a 17 3e
       0.1142531 0.16545898 0.018297309 0.14768581
0000e0 59 e9 03 3e ed ef 19 3e 1e 1a 41 bb c9 a9 67 bd
       0.12881984 0.1503293 -0.002946503 -0.056558404
0000f0 6b cb 1a be e7 af 21 bd 1e 94 80 3c 4f 7d 37 be
       -0.1511666 -0.039474394 0.015695628 -0.17918895
000100 3f 3b 41 bd ff 10 92 bb e9 02 3c be a2 1e 2d 3e
       -0.047175642 -0.0044575925 -0.18360485 0.16906217
000110 6c 5d ca bd 7c 20 1a b8 e4 b0 2f 3d 11 a8 0c be
       -0.098811 -3.6746715e-05 0.042893305 -0.13735987
000120 e9 3e 30 3e 47 66 31 3e 48 33 d6 bd 2c 8c 60 3d
       0.17211498 0.17324172 -0.10459 0.05482118
000130 b0 ee c9 3d 82 39 1a be 23 23 51 bd cb 46 96 bd
       0.09859979 -0.15061 -0.0510589 -0.073377214
000140 01 a5 4e 3e d6 01 66 3d a8 ad 26 3e 3e d3 cb bd
       0.20180131 0.056154095 0.16277182 -0.099524006
000150 e8 63 e3 39 2d d2 31 3a e1 58 3d 3e be fa bb bd
       0.0004337125 0.0006783333 0.18490936 -0.09178685
000160 b1 31 35 be 93 1e a3 bd a7 d3 68 bd f8 bb b0 bd
       -0.17694737 -0.07964816 -0.056842472 -0.08629602
000170 56 da a2 3c 60 f5 fe bc 84 b1 ed 3d 09 5c 08 3e
       0.019879501 -0.031122863 0.11606124 0.13316359
000180 11 b7 18 bd 66 08 ba bd 92 38 57 3e 26 fd 39 bc
       -0.03728396 -0.09083633 0.21017674 -0.011351859
000190 27 e1 87 bd 3f c4 3e 3b e1 ec 7d 3d 57 23 51 3d
       -0.06634741 0.002910867 0.061993483 0.051059093
0001a0 f8 c0 b2 3b 14 ae 18 be 4c 11 51 3e 60 99 9b bd
       0.0054551326 -0.14910156 0.20416754 -0.07597613
0001b0 e5 c5 cd bd 36 1f 19 3e 42 f5 52 bc d7 79 ee bd
       -0.10047511 0.14953312 -0.012875857 -0.11644333
0001c0 85 36 54 3e 4a e5 ef 3b 3b 07 b9 bc 0b 7a 04 3d
       0.20723923 0.0073210346 -0.022586456 0.03234295
0001d0 58 6f a2 3d 5d d9 0f be 7d 8c 70 bd 12 28 a5 bc
       0.079313934 -0.14047761 -0.05872773 -0.020160709

lstm.bias_hh_l1 f4 [120]
000000 ce cd 91 bc c5 74 12 3d a0 3e 41 3e 56 f7 f1 bd
       -0.01779833 0.03575589 0.18871546 -0.11814754
000010 a5 fc 1f 3e 2d 67 23 3e 3e de af bd f6 96 31 3e
       0.1562372 0.15957327 -0.08587311 0.17342743
000020 ab 37 9f 3d 92 3b d0 3d 6f b4 68 3b 48 93 54 3e
       0.0777429 0.10167612 0.0035507937 0.20759308
000030 40 9c fc bc 16 77 be 3d 46 98 14 3e a1 ae 00 be
       -0.030836225 0.093000576 0.14511213 -0.12566616
000040 cf 8a f5 bd ea b7 4a 3e 31 0f 04 be 80 20 22 bd
       -0.11989366 0.1979672 -0.1289642 -0.039581776
000050 e7 13 28 bd 40 99 c6 3c ce 61 24 3e f7 57 35 3e
       -0.041034605 0.024242997 0.16052935 0.17709337
000060 a6 bd 07 3e 19 ea 84 bd 85 6f 13 3e 53 03 12 3d
       0.13255939 -0.06489963 0.1439801 0.0356477
000070 b1 02 2f 3e 0d 3c 77 bd 86 ac ad 3d 60 16 2f 3e
       0.1709087 -0.060360003 0.08480172 0.17098379
000080 ae c9 16 be 4a d0 9e 3d bb 0d 43 3e 1b 3b 97 3c
       -0.14725372 0.07754572 0.19048207 0.0184608
000090 a0 ac d0 bd 24 f5 2b 3e 2b 94 02 be 27 ab 57 bd
       -0.101891756 0.16792732 -0.12751834 -0.052653458
0000a0 1e d1 84 ba 90 6d 0b be 27 72 90 3d 88 51 83 3c
       -0.0010133123 -0.13616014 0.07053023 0.016030088
0000b0 9c b7 8e 3d d4 cd 3d 3e 81 11 e3 bd 34 a5 63 3d
       0.069686145 0.18535548 -0.11087323 0.05557747
0000c0 73 27 d9 3d 40 a0 ec bd ef 71 1e 3e b7 04 1e be
       0.106032275 -0.11554003 0.1547315 -0.15431486
0000d0 69 56 66 bd e8 21 a2 3d 2a e8 b7 bd 11 9b 96 3c
       -0.05623475 0.07916623 -0.08979829 0.018384488
0000e0 5a 05 0c 3e b5 de f2 bd 96 f9 cb 3d 5b cb f0 3c
       0.13673916 -0.11858884 0.09959714 0.029393842
0000f0 7b 66 d0 3d cc 33 1b be 1c 3d e6 bd 27 5a 03 be
       0.101757966 -0.15156478 -0.112421244 -0.12827359
000100 00 62 ed 3a 4c 1f 1c 3e 35 83 2c 3e 6f 72 22 be
       0.0018110871 0.15246314 0.16846927 -0.15863965
000110 16 2a 5c 3e 51 24 a6 bd 80 3e 7d bc ee 88 1c bc
       0.2150043 -0.081123956 -0.015456796 -0.009554131
000120 8b 30 78 3d bb 5c fa 3d 7d 8e 04 be 60 b7 37 be
       0.06059317 0.12224718 -0.1294498 -0.17941046
000130 1b 55 9d bd 21 e0 a6 3d 3c 0e 17 3e d5 07 b9 bc
       -0.07682248 0.08148218 0.14751524 -0.022586742
000140 b4 70 75 bd 65 bb 3a be 89 78 75 3d d5 39 3a 3d
       -0.059921935 -0.18235548 0.059929404 0.04546531
000150 0c bf 8f bd 7f 42 3f 3e 41 62 ba 3c 2a d3 21 3e
       -0.07018861 0.1867771 0.02275193 0.15803209
000160 3b c1 45 be 85 56 86 3d 7e 47 4b 3e 03 c5 c0 3c
       -0.19311993 0.06559471 0.19851491 0.023531443
000170 6c a3 21 be b1 15 d9 bd 00 24 e8 3d 5b 3d 2c 3e
       -0.15784997 -0.105998404 0.113349915 0.1682028
000180 5e 28 40 3e 4b 7d dd 3d c6 17 03 3e 66 68 13 be
       0.18765399 0.10814913 0.12802038 -0.14395294
000190 88 c7 10 3e 8b 8f 28 3e 14 89 64 bd 07 c5 a8 3d
       0.14138615 0.16461007 -0.05579479 0.08240705
0001a0 6a 8b 02 3e 00 37 05 be c0 6c 3d 3e 80 d4 a0 3c
       0.12748495 -0.13009262 0.18498516 0.019632578
0001b0 4f c5 38 3e ea 5a 65 bc a0 c9 83 3d fd e4 0b 3d
       0.18044017 -0.013998726 0.06434941 0.034153927
0001c0 f0 75 05 3e 2f 4e 28 be 1d 9c 6a 3d f4 75 06 3e
       0.13033271 -0.16436075 0.057277787 0.13130933
0001d0 b5 fa 07 3e 5b 01 f2 bd f6 88 11 3e 99 5d 87 bb
       0.13279231 -0.11816665 0.14212403 -0.0041310308

lstm.weight_ih_l2 f4 [120, 30]
000000 9a b0 14 3e 8d ec 1a be 9e 32 a0 3d 41 81 5c bd
       0.14520493 -0.151293 0.078221545 -0.053834204
000010 e0 23 0b bd ec 81 d0 3d 46 98 97 3d ea 86 c1 3d
       -0.03396976 0.10181031 0.07402091 0.09449561
000020 12 13 0e bd a2 b6 08 3d d4 cc cb 3d 21 2d 63 bc
       -0.034686156 0.033377297 0.09951177 -0.01386574
000030 dc cc 9a 3d 33 d1 b9 bd 1b 37 d1 bc 51 b5 f5 bc
       0.07558605 -0.09073105 -0.025538972 -0.029993685
000040 e5 7c b1 3d ad 2e bf 3d 8d b7 b3 bc fa 38 2c be
       0.086664 0.093350746 -0.02193811 -0.1681861
000050 2f 53 c0 bd e8 ef 69 3d 1a 8e 0f be 26 87 98 3d
       -0.09390866 0.057113558 -0.14019051 0.074476525
000060 68 ae ef 3d e3 45 e5 bc ab f7 e3 bc 1a 6d 18 3e
       0.11703187 -0.027987426 -0.027828058 0.14885369
000070 a3 bd 95 3d c6 04 c6 bd 6d 74 db 3d 60 a6 23 3e
       0.07311561 -0.09668879 0.10715566 0.15981436
000080 23 6d 93 3c 30 fa 9d 3d b9 eb 87 bd 51 dc 0a 3e
       0.017996376 0.07713735 -0.066367574 0.13560607
000090 df 17 34 be a8 3c e1 bc 08 fc 35 bd 99 41 fb bd
       -0.17587231 -0.027494743 -0.04442981 -0.12268371
0000a0 a7 97 29 3e 42 ad c1 3d 9f 41 03 3c 67 27 31 bd
       0.16561757 0.094568744 0.008011251 -0.043250468
0000b0 da 51 d4 3d 64 4c 2d be 34 52 1b bb 55 d2 a0 bd
       0.103671744 -0.16923672 -0.002370012 -0.07852618
0000c0 42 26 82 3d d7 98 59 3c 98 77 1e bd 23 61 1c be
       0.06354953 0.013281069 -0.038688272 -0.1527143
0000d0 86 dc cc 3d d2 b7 02 be 50 02 99 3d a4 c9 f3 bd
       0.10002999 -0.12765434 0.07471144 -0.11903694
0000e0 1d 03 ce ba 9e 80 6d bb 63 9a 28 3d db ba 19 3e
       -0.001571748 -0.0036239992 0.04116286 0.15012686
0000f0 24 b2 f1 3d 6c e6 84 3d db e8 18 3e f7 af 48 bd
       0.11801556 0.06489262 0.14932577 -0.04899594
000100 9d ca c5 bc 80 54 ce bd 9d 63 80 3d e2 3f 27 bd
       -0.024144465 -0.10074711 0.06269 -0.040832408
000110 fa 18 ff bd 2a ec 37 3c 0c f8 b0 3d 2e 8a 1b 3e
       -0.12455936 0.0112257395 0.08641061 0.1518943
000120 ab f4 86 bd 0f 1c 08 be bb 93 d4 3d a6 44 50 3c
       -0.065896355 -0.13291954 0.1037974 0.01271168
000130 f0 76 dd 3d 3f dd 6f bd 40 5f 1b be c0 a2 21 3e
       0.10813701 -0.058560606 -0.15173054 0.1578474
000140 6a 60 ab bd 7a 14 ed 3c e4 38 a3 3b 1c a3 09 be
       -0.08367999 0.028940428 0.004981147 -0.13441128
000150 ea c3 31 bd 51 fb 99 3c 2e 14 bd bd 5f 18 3a bd
       -0.04339973 0.018796595 -0.092323646 -0.0454334
000160 e1 09 2e b8 e2 93 1a be 99 16 36 bd a7 bc ea bc
       -4.1494033e-05 -0.15095475 -0.044455145 -0.02865441
000170 57 c6 e2 3d d7 e6 fc bc 16 27 4c bb 08 68 55 3e
       0.110729866 -0.030871792 -0.0031151227 0.20840466
000180 b2 f7 ca 3b c3 2b b1 3d b1 b0 4b 3e a8 e7 d5 3d
       0.0061940784 0.08650925 0.19891621 0.104445755
000190 92 e9 cf 3d 8e 98 a4 3d 5f 59 24 3e 79 49 e0 3d
       0.10151972 0.0803691 0.16049717 0.10951514
0001a0 42 dd 0d be 71 8f 14 3e 1f 70 e7 3d 36 06 a4 bd
       -0.13853934 0.14507844 0.11300682 -0.08008997
0001b0 23 f3 14 3e 48 de 93 3d a8 2c c5 3d a1 84 cc 3d
       0.14545874 0.07220131 0.09627658 0.099862345
0001c0 bf 5f 39 3d f7 ae dd ba 30 12 20 be 2a d2 20 be
       0.045257326 -0.0016913106 -0.15631938 -0.15705171
0001d0 48 03 e4 3b c2 f8 13 3e be 3c f5 bd 70 0b 20 3e
       0.006958399 0.14450362 -0.11974476 0.15629363
0001e0 c1 88 6e 3d 27 05 5e 3d f4 2d eb bd 8d fa 86 bd
       0.058235887 0.054204132 -0.11483374 -0.065907575
0001f0 90 66 fc bd 13 50 e1 3d 86 3e b6 bb a2 93 0e be
       -0.1232425 0.11001601 -0.0055616526 -0.13923505
000200 34 9d 26 3d 07 6b 88 3d b7 d3 55 3c c1 b6 c5 3d
       0.040677264 0.06661039 0.013050965 0.09653998
000210 63 37 36 3d 75 36 2e 3e e3 87 25 3e cf 21 76 bc
       0.044486415 0.17012961 0.16165118 -0.015022709
000220 8f 6e 02 be 4a 1f b4 bc f2 c2 eb 3d 2c 6f 52 3d
       -0.12737487 -0.021987576 0.11511792 0.051375553
000230 ac 4d 92 3d e0 5b aa bd 12 25 56 bc d6 82 2f be
       0.07143721 -0.08318305 -0.013070362 -0.17139754
000240 00 24 26 be 57 d3 ca 3c a9 16 c3 bd 0d 3e 17 be
       -0.1622467 0.024758978 -0.095258065 -0.14769764
000250 51 5c 7e 3d ef d5 a9 3d a9 05 2e 3d f8 ea 2a 3e
       0.06209976 0.08292758 0.042485867 0.16691196
000260 7c 49 e5 bd a2 99 0f 3e 6c 67 90 3d b7 da 16 be
       -0.11195657 0.1402345 0.07050976 -0.1473187
000270 77 63 bb 3d a2 0a a2 bd a6 95 92 bd a4 25 39 3d
       0.09149831 -0.07912184 -0.071574494 0.045201913
000280 fe b4 18 be f4 0d 1b 3e f0 95 06 3e 36 83 09 3e
       -0.14912793 0.15142041 0.13143134 0.13428959
000290 5e 76 c3 3d 52 1f 09 3e 6b 17 25 3e 37 fa b3 3d
       0.09544061 0.13390854 0.16122214 0.08787959
0002a0 64 cf 1f be c3 c4 d3 3d 3b dd c3 bd a0 e8 97 bc
       -0.15606457 0.10340264 -0.09563681 -0.018543541
0002b0 46 b3 21 be 2c d3 f1 3d 23 0e 0a 3e df ac 5c 3d
       -0.15791044 0.11807856 0.13481955 0.0538758
0002c0 cb b2 d2 3d 2d 95 94 3d ec c0 a0 bd df 2f 9e 3c
       0.10288008 0.072550155 -0.07849297 0.019309936
0002d0 d8 0e 08 bd 51 b0 fc bd 02 db 86 3d 66 61 b9 3d
       -0.03321728 -0.12338317 0.06584741 0.090517804
0002e0 11 fc fd bd d9 86 58 3e e2 cd 10 be ea f1 ad 3d
       -0.124015935 0.2114519 -0.14141038 0.08493407
0002f0 29 b2 34 3e d7 fc 80 bd 76 53 89 3d d7 c0 13 3e
       0.17646088 -0.062982254 0.06705372 0.14429031
000300 de 5e 19 3e 30 a6 03 be bb 1d 29 3d ff 00 14 3c
       0.14977595 -0.12856364 0.04128812 0.009033441
000310 71 3e 15 be 9d 4a 23 3d 8a 5e 2f 3e 8c 12 d9 bc
       -0.14574601 0.03986608 0.17125908 -0.026498102
000320 25 9a 5a bd 3a 7c a9 3d a8 2a e9 3d 1f 53 e5 bc
       -0.05336966 0.082756475 0.11385089 -0.027993737
000330 83 31 60 bd 77 7b 51 3e c4 66 84 3d d9 f5 25 3e
       -0.054734718 0.20457254 0.064649135 0.16207065
000340 5e 16 f7 3d 47 17 b5 bd 81 e9 53 be cd 7f cd bd
       0.12064813 -0.088423304 -0.20694543 -0.10034142
000350 05 98 7a bd a6 2d 68 3c d7 10 19 3d 4a 10 01 3e
       -0.061180133 0.01417104 0.037369575 0.1260387
000360 59 98 fd 3d 33 d5 2a 3c 61 87 1d bc b3 a6 fc 3d
       0.12382574 0.010426807 -0.009614796 0.12336483
000370 bc 19 12 be 6b 86 5d 3d 00 2a 07 be 6c 48 a2 3d
       -0.1426763 0.05408327 -0.13199615 0.079239696
000380 d7 c6 19 bd 50 c8 26 bd 97 05 13 be 15 fc 04 3e
       -0.037543144 -0.040718377 -0.14357601 0.12986787
000390 de 13 65 3d 3d c3 33 be d2 39 fd bd f6 48 e2 bc
       0.05592715 -0.17554946 -0.12364544 -0.027622681
0003a0 3d 43 47 3e a5 ef 59 3d 1a a0 a7 bd 4f 72 fb 3c
       0.19459243 0.05320706 -0.08184834 0.030694155
0003b0 dd 35 e3 3d d7 6b 00 be ba 68 52 be dc 90 fa 3c
       0.11094258 -0.12541138 -0.20547763 0.030586652
0003c0 27 1d 64 3d 64 db 29 3e d2 ad 5f bd ee 16 75 3d
       0.055691864 0.16587597 -0.054609127 0.05983632
0003d0 a9 aa 2b be 6a 0b be bc 2b 1a c5 bd 4e 21 a1 3d
       -0.1676432 -0.023198802 -0.09624132 0.078676805
0003e0 5a 7a f3 bd 68 c3 35 3d 2b 02 81 bd d8 57 2e 3d
       -0.11888571 0.044375807 -0.06299242 0.042564243
0003f0 47 a9 c8 3d 0f d4 12 be d1 63 a0 3d c2 3c fb bc
       0.09797912 -0.14338706 0.078315385 -0.03066862
