model/lstm_model.pth (torch, 228834 bytes, 10 tensors)

lstm.weight_ih_l0 f4 [256, 19]
00000000: 4f59 2ebd 746e 143d 60cc 51bc 023b 93bd
00000010: fb3a a8bd 9a37 853c aa9a 24bd d7ca c3bc
00000020: b59f 0bbd c405 863c e389 8cbc 478a 88bb
00000030: 2cb1 40bd 2563 08be f918 3f3d 05f6 07be
00000040: 7e53 853d d658 03be 47b4 e1bc d4e6 10be
00000050: d24a 0abe 4a88 203d 4772 04be c3e2 08be
00000060: 5162 74bd f944 eabc 30a5 e43c 96f7 3fbd
00000070: 6eb3 58bd 5f45 cb3c cb56 483d 1361 9dbd
00000080: 325d 943c 6bb4 b33d 9d23 7a3d f969 dc3d
00000090: 2060 59bd 37bf 9abb f68c f2bc 0920 073d
000000a0: 528a 76bc 1d89 09be 5e06 5dbd 7c5c c93d
000000b0: 159c 9c3d ae71 063d dca7 993d ceaf eebd
000000c0: ec47 b23c ce16 1dbd f1c4 ea3d 0ba6 403d
000000d0: eb41 bd3d 2259 033d 92be 77bd f05f bfbd
000000e0: 72c7 14be 7af5 2c3d e783 db3d d61c c33d
000000f0: 8230 513c 0da5 87bd 1c42 4dbc 4415 10be
00000100: 6ca0 e83c 848f bb3a fd23 fabd 3047 bfbc
00000110: b4ca 0c3d 96bb 813c d2a6 bdbd 72ce 8dbc
00000120: 9e2e 223d 241a 103d 0639 013e 7d67 903d
00000130: e47e fdbd 945e a33c 92a6 6cbd 51a2 8e3c
00000140: 285d 113d 4a7a d6bd c734 203d 3d36 923d
00000150: 8cdd 0ebe c611 47bd 6479 9fbd 4eb4 873d
00000160: 9769 ae3d 1e32 f3bb dff5 cabd df48 0abe
00000170: d506 00be a17e 12bd 00de 4e3d c1d9 15be
00000180: 8f6f 6f3c e541 223d a617 a1bd 8699 fb3d
00000190: c7bc ecbd 1166 e13d c434 69ba b732 933d
000001a0: adc3 1f3c 4034 d93b 7178 04bc 1090 0abd
000001b0: 0ce4 04be a70e a53a 2ee5 d13d 1cb4 45bb
000001c0: 923b ff3d b693 a63d 0d38 5dbd 0f12 1a3d
000001d0: 9fb6 673d 0039 993d 6394 a8bd 283c 46bc
000001e0: 9e89 d8bb b58c 47bd 3ba2 903d 1be7 14be
000001f0: af8e 0fbe 896a dfbc 7b35 cc3d ae28 e8bc
00000200: 6c4b 9fbd 046f c1bc 371c 0cbd bef9 acbd
00000210: 6534 84bd 24f3 88bc e886 10bc 1b5a cdbc
00000220: fe96 d73d ee34 21bd 7d0a f13c d44f 8d3d
00000230: d7cd 173e 4089 aebd 2b54 cd3d b914 853d
00000240: 91dc fe3d 6dd7 cc3d 86e3 8d3d 2de7 bbbc
00000250: f50c 5cbd 6be0 a0bc 3cb0 403d e1bd ab3d
00000260: 8bf2 cdbc f657 85bd 4ead a03d 8f0a 3d3d
00000270: 3359 39bd 1da9 c73d 23b3 783d a756 0bbe
00000280: 9546 fabd ffbc ccbd 19ff 21bd 4842 0cbe
00000290: a19e d23d dca6 1b3d 70e6 febd 2d7f 9b3b
000002a0: a972 dd3d dfed 03bc 9b63 023d 6bf3 d43d
000002b0: be8a d5bd 136d 853c de3e dd3c bb0e 79bd
000002c0: c91a 063d 8bcb a3bd 03f7 763d c402 1ebd
000002d0: e9d5 adbc 5e48 e73d 1fc8 013e 8768 9dbd
000002e0: 911d b4bd cffe 0c3d 04c4 a03b 6ddc 78bd
000002f0: 38e5 a33d 284a b7bd e475 2b3d ecf7 0a3e
00000300: e7c8 b4bc c075 dbbc 351f b83d c1b4 0a3e
00000310: 7fbe da3d 72df ab3d e28b 9f3a b4b8 9cbd
00000320: 00b3 a1bd 63ee 943c b4ab 0b3e e32f 2abd
00000330: 44b8 fe3c 60de 8fbd 04b1 9d3d 85dd 373d
00000340: 27f0 893b b8a6 60bc 949f 0cbd 5374 49bd
00000350: 7e1e 3ebd a78a 393c 4f3a 77bd 41be 6f3d
00000360: 66a6 8ebd f453 003d f616 633d f195 6b3c
00000370: b77e 153d 60ac d0bd 88e6 0b3c 9f9a ca3c
00000380: 036e 023e 929d ac3c 7119 aebd 3393 dcbb
00000390: c911 c63d f045 a0bd 59a8 9bbd 1401 b0bb
000003a0: 9825 ae3d cfde 443c 3189 913d e5c8 1abd
000003b0: 213b 78bd 1af3 2c39 f639 00be ff58 cebd
000003c0: 07c0 09bd 509c 89bc c6ba 223d a27d d7bd
000003d0: 9749 19be 3d56 fcbd 3a32 893d 85b7 c33d
000003e0: e33a e93c 53dc c5bd dd01 01be b941 83bd
000003f0: 619c 74bd 4a38 8fbc 6c6b 01bd a7b5 f33d
-0.04256564 0.03623815 -0.012805074 -0.07188989 -0.08214375 0.016261864 -0.04018656 -0.023900433
-0.034087855 0.016360171 -0.017155593 -0.0041668746 -0.047043964 -0.1331907 0.046654675 -0.13277443
0.065100655 -0.12826857 -0.027551783 -0.14150554 -0.13505104 0.039192475 -0.12934218 -0.13367753
-0.059664074 -0.028597342 0.027910799 -0.046866976 -0.052905492 0.024813352 0.048910897 -0.07684531
0.018110845 0.08774646 0.06106912 0.107624 -0.053070188 -0.0047225016 -0.029608231 0.032989535
-0.015047627 -0.13431211 -0.05396115 0.09832093 0.07646958 0.032823257 0.0750272 -0.11654626
0.02176281 -0.038351826 0.11463345 0.04703335 0.092410885 0.032067426 -0.060484476 -0.093444705
-0.14529207 0.042226292 0.10718518 0.095269844 0.012767913 -0.06623278 -0.012527969 -0.14070612
0.028396808 0.0014309739 -0.122138955 -0.023349375 0.034373 0.015836518 -0.09260334 -0.017310355
0.03959524 0.03518118 0.12619409 0.07050989 -0.12377718 0.01994256 -0.05777604 0.017411383
0.03548923 -0.104725435 0.039112832 0.071392514 -0.13951701 -0.048600934 -0.07786825 0.06626187
0.085162334 -0.007421746 -0.099101774 -0.1350436 -0.12502606 -0.035765294 0.050504684 -0.14633848
0.014614 0.039613623 -0.07865839 0.12285142 -0.11559444 0.11005796 -0.00088961073 0.071874075
0.009751243 0.006628543 -0.008085356 -0.033828795 -0.12977618 0.0012592868 0.10248791 -0.0030167168
0.12462534 0.081336424 -0.054008532 0.03761488 0.056570645 0.07481575 -0.082314275 -0.012099303
-0.006608202 -0.048718173 0.07062193 -0.14541285 -0.14019273 -0.02727248 0.09971138 -0.02833971
-0.077780575 -0.023612507 -0.034206595 -0.08446072 -0.06455306 -0.016717501 -0.008821227 -0.02506738
0.10526846 -0.03935712 0.029423947 0.06899992 0.14824615 -0.08522272 0.100258194 0.06498093
0.124444135 0.10002027 0.06928162 -0.022937382 -0.053723294 -0.01963826 0.04704307 0.08385826
-0.025140068 -0.06510918 0.07845555 0.046152648 -0.045251083 0.09749053 0.060717713 -0.13607274
-0.12220494 -0.09996986 -0.03954992 -0.1369716 0.10284162 0.038000926 -0.12446296 0.004745385
0.10812885 -0.008052318 0.031833272 0.10397991 -0.104268536 0.016287362 0.027007516 -0.060805064
0.032740388 -0.07997807 0.060294162 -0.038576856 -0.021220164 0.112931 0.12673996 -0.07685953
-0.08794702 0.034422692 0.0049061794 -0.06075709 0.080027044 -0.08949691 0.041860476 0.13571137
-0.022068454 -0.026789546 0.08990327 0.13545515 0.106808655 0.08392228 0.0012172426 -0.07652417
-0.0789547 0.018180078 0.13639718 -0.041549575 0.031093724 -0.070248365 0.07699779 0.04488899
0.0042095366 -0.013711624 -0.034331873 -0.0491832 -0.0464158 0.011324561 -0.06035834 0.05853105
-0.06965332 0.031330064 0.05544182 0.014379011 0.036497798 -0.10189128 0.00853885 0.024731932
0.12737279 0.02107123 -0.08500946 -0.0067314147 0.09671361 -0.078258395 -0.07600469 -0.0053712223
0.08503264 0.012016012 0.07106245 -0.037789244 -0.060603265 0.0001649376 -0.1252211 -0.100755684
-0.033630397 -0.016798168 0.039728902 -0.105220094 -0.14969479 -0.12321136 0.06699033 0.09556488
0.028470462 -0.09661164 -0.12598367 -0.0640902 -0.059719447 -0.017482895 -0.031596586 0.11899882

lstm.weight_hh_l0 f4 [256, 64]
00000000: b28e c9bd f904 8d3d c96f cfbd 1b73 b93c
00000010: 8b14 b3bd f0b0 183e 5cf7 1cbd a6db 583d
00000020: c8f5 7b3c f1fc cfbc 98ec 92bd 9288 9bbd
00000030: d301 e03c 2541 0dbd 851a 8fbd 6992 bbbd
00000040: fa17 9ebd 38b4 b83d 536f 063e ea16 aebd
00000050: 28b0 da3c 0e5d 88bd a580 013e 62a0 5e3d
00000060: d75b 2f3d da7a 983c 1b7b bb3c 7955 ed3d
00000070: d62d 123d 0c17 42bd 0a99 0e3d a1a6 34bd
00000080: dd99 07be 4420 41bd d0bc 34bc e736 cc3d
00000090: 4c1b 993c b551 373d 34da c13d cef1 08be
000000a0: 36ac 51bd ba9a 8bbd 5471 cc3d 3e01 373d
000000b0: 271d 57bd b040 74bd b511 60bd 7bb4 d73d
000000c0: 0e38 093e 2ace b53c 7a47 8ebd 909e acbd
000000d0: 74e6 6ebc 0824 013e 8dcb 8b3d edd2 223d
000000e0: b925 e23c 91ab 3f3d c9cc a0bc 8f1a 863d
000000f0: acb2 1abd b8d9 40bd 7e9b b7bd 3008 44bd
00000100: dae6 34bd b410 773d bbbd 0e3e 9227 983d
00000110: 7b14 253b cd26 6e3c e657 d63d 4298 ed3c
00000120: 8cca b43c 7672 90bd 833e b63c c785 783c
00000130: d93c 883d b43a a03d d70a 4cbd 04ed 86bd
00000140: 1acd 923b 065e bdbd 32c9 873d 4797 0e3e
00000150: 856f d33d 71e7 e23d 62a4 b23d 0ae8 58bd
00000160: c43e f2bd 0902 07be 21d7 49bd e3e3 18bd
00000170: 7099 013e c8ee 5a3d c4e5 bf3c 4549 fb3d
00000180: 136c 393c 9ce7 5cbd 0eb8 01be e5e1 8d3d
00000190: ac69 a0ba 3532 1a3e 9c86 153d d4fa 1abd
000001a0: 4456 ad3d fa87 a5bd 5739 ab3d a0e6 39bd
000001b0: a07d 043e ed33 04be 3638 193d b60a 07bc
000001c0: e3ad 8f3d cfcc e53d 92e8 80bd 46ab d53d
000001d0: 61b9 f7bd 2944 75bd 85ae 153e a399 43bc
000001e0: 49b2 43bd 84f7 f43c c58a 53bb 12e2 06be
000001f0: a667 93bd 462c f8bd daed a53c ed53 bd3d
00000200: ea61 c0bc b09d 813c 2793 203e 695c aa3d
00000210: 0ef4 d8bd a11e 2c3d 2152 0fbd c6ae 7bbc
00000220: f596 823d 9267 c03d 0e55 683d 3196 86bd
00000230: 3ead aebd f35e 5b3d 4adc 5f3c 5a86 aa3c
00000240: 769d f9bd 29b3 753d 30be 213e 5087 86bd
00000250: d3a7 b63d 4056 46bd a521 35bd e04a f23c
00000260: 8278 303d dce6 a8bd bfbe b03d 6340 583c
00000270: 6f83 debc c790 47bc 40b4 88bd 3d86 cc3d
00000280: ddec 6cbd 8716 943d 5f38 1fbe bacb 723c
00000290: 4def e5bd 1eec 773d a43b dc3d c0b7 c43a
000002a0: 0f6f cf3d d7b6 963d a89e 8b3c eb26 0cbe
000002b0: 55f1 bcbd a86a 843d d43e fabc 0001 813c
000002c0: 585c c23d af33 c63b 4940 9d3d 30a4 933d
000002d0: 3aab bd3a 518f 4dbd d6f6 c1bd 38a3 5e3d
000002e0: c429 673d cc00 583d d8ae c53d 10ed a8bc
000002f0: 7e98 c6bd fce9 9b3d bfdc a2bd 86ee 54bd
00000300: e69a 8f3d 21e4 4bbd 1e6a 4dbd bcc2 fcbc
00000310: b912 c63d 8fc9 b93d 8415 da3d cc77 79bd
00000320: 1f04 e7bd 04c7 77bc 830f 293d de0b ab3d
00000330: da76 d9bd 6fe1 683d 08ea 163e 4308 e2bd
00000340: b2a0 ec3d f82a 3c3c 050f a53c a485 fd3b
00000350: 4e1f 8a3d 9ff9 dd3d 0f68 9ebd ac92 8bbd
00000360: c916 da3d 28b8 cdbd 9776 99bd ca97 8ebd
00000370: e173 8d3c e20b 05bd fcdc e4b9 0d35 b33c
00000380: 4fa4 4dbc d244 023e a42c 213d 66f0 8dbd
00000390: 516e 01bd 9ccb 55bd 0228 563d bda8 4d3d
000003a0: 244b acbd 7699 07be 3c98 a23d 5ee1 fb3b
000003b0: 281c a33d 700e ed3d d7e7 843d 5be8 bebd
000003c0: f65f 6c3d 25ab 07be 2df8 47bd f4dd db3d
000003d0: 52e0 fabd 1f9e 1a3d dc1f 6abd f763 cb3b
000003e0: 2a5d 1b3c 9653 3abd 17a2 32bd 810a c5bd
000003f0: 1866 32bd 9abf 053c b3ca 08bc 53b9 993d
-0.0984167 0.06885714 -0.10128743 0.022637894 -0.08744153 0.14911246 -0.038321838 0.052943848
0.015378423 -0.025389167 -0.07174033 -0.07594408 0.02734462 -0.034485955 -0.0698748 -0.09158785
-0.07719417 0.09018749 0.13128404 -0.08500464 0.026695326 -0.06658374 0.1264673 0.05435217
0.042812195 0.018613268 0.02288585 0.11588568 0.035688244 -0.04738526 0.03481392 -0.044104222
-0.13242288 -0.04714991 -0.0110313445 0.09971409 0.018689774 0.044755656 0.09465447 -0.13373491
-0.051189624 -0.06816621 0.09982553 0.04467892 -0.052518036 -0.059632003 -0.054704387 0.10532471
0.1340029 0.022193033 -0.06947227 -0.08428681 -0.0145813115 0.12611401 0.068259336 0.039751936
0.027605878 0.046794478 -0.0196289 0.065480344 -0.03776805 -0.047082633 -0.08965205 -0.04785937
-0.04416547 0.060318664 0.13939564 0.074294224 0.002518921 0.014535618 0.10465984 0.029003266
0.022069238 -0.07053082 0.022246605 0.015168614 0.06652231 0.07823697 -0.049815025 -0.06588176
0.0044800164 -0.09246449 0.06630172 0.13924895 0.10324005 0.110793 0.0872276 -0.052955665
-0.11828378 -0.1318437 -0.04927743 -0.037326705 0.12656188 0.053450376 0.02342499 0.122698344
0.011317271 -0.053931817 -0.12667868 0.069278516 -0.0012238524 0.15058215 0.036505327 -0.037836865
0.084637195 -0.08082576 0.08360546 -0.045385957 0.12938547 -0.12910433 0.037407123 -0.0082423
0.07015588 0.11220705 -0.06294359 0.104330584 -0.12095905 -0.059879456 0.14617355 -0.011938485
-0.047777448 0.02990318 -0.0032278758 -0.13172176 -0.07197504 -0.121178195 0.020255018 0.09244523
-0.023484189 0.015822262 0.15681134 0.08318407 -0.10593425 0.042021398 -0.034990434 -0.015361493
0.06376449 0.093947545 0.05672174 -0.065716155 -0.08529137 0.053557348 0.013663361 0.020816017
-0.121882364 0.059985314 0.15795207 -0.065687776 0.08918729 -0.0484221 -0.04422154 0.029576719
0.043083675 -0.08247158 0.08630132 0.013198945 -0.027162282 -0.012180514 -0.06675005 0.099865414
-0.057843078 0.07230859 -0.15548848 0.01481908 -0.112272836 0.060527913 0.10753563 0.0015008375
0.101286046 0.07359093 0.017043427 -0.13686721 -0.09225718 0.064656556 -0.030547537 0.015747547
0.094902694 0.0060486416 0.07678277 0.07209051 0.0014470585 -0.050185505 -0.09470908 0.054354876
0.056436315 0.052735135 0.096524894 -0.020620853 -0.09697054 0.07612988 -0.0795226 -0.051985286
0.070119664 -0.049778108 -0.05015003 -0.030854575 0.0967154 0.090716474 0.10648635 -0.060905263
-0.11280083 -0.015123133 0.04127456 0.08351873 -0.10618372 0.056855615 0.14737713 -0.11036732
0.11554088 0.011484854 0.020148763 0.0077368785 0.06744252 0.10838627 -0.07734691 -0.06815085
0.10648877 -0.10044891 -0.07493322 -0.06962545 0.01726717 -0.032482035 -0.00043652195 0.021875883
-0.012551381 0.12721565 0.039349213 -0.06930618 -0.031599347 -0.05219613 0.05228425 0.05020975
-0.084127694 -0.13242134 0.07939193 0.007686778 0.07964355 0.11575019 0.064895324 -0.09321662
0.057708703 -0.1324888 -0.048820663 0.107356936 -0.12249817 0.037748452 -0.05715929 0.006206985
0.009482661 -0.04548987 -0.043611612 -0.09621144 -0.043554395 0.008163357 -0.0083491085 0.07506051

lstm.bias_ih_l0 f4 [256]
00000000: 3a32 083e ae2e 8f3d 0300 4cbc 717f 9dbc
00000010: ceb0 53bd 6e5b 65bd 1fa4 63bd 91a1 14bd
00000020: 35ce 36bd 224c 83bd 809d 67bd 178b fe3d
00000030: 07f0 573d e235 6bbd c8b4 1c3e d68b 08bc
00000040: c88d 333d 503c bf3d 1020 173e 4d90 90bc
00000050: 0adc 50bd e305 1dbd 7f89 f73c 06a8 57bd
00000060: 8d9f 1439 27f5 673d fa07 a93c 870c 5abd
00000070: 6468 55bc b4b9 d1bc 1176 ea3d a537 393c
00000080: ea2a 11bd bec6 b63d f0f1 843d fec7 de3d
00000090: a895 053e 43dd 3ebd fa32 023e 0721 c63d
000000a0: 1c55 943c 8ad5 e03d d182 3fbd fee0 ee3d
000000b0: a7e9 a53d f40e b0bd eac4 02bd 2afe df3d
000000c0: 6afe ab3d 6674 b13d 3335 77bd d808 9e3d
000000d0: 3ff3 6dbd 9764 4abc 5758 94bb 785e 843d
000000e0: abce a2bd 82fd 1bbd ec06 adbd ece9 96bd
000000f0: 9339 b9bd e8ee eb3d 8074 54bd 4afe 833d
00000100: fe06 c43d 4ac1 b03d 2ab4 c63b 0e37 ec3d
00000110: 7792 f73c 2afc d7bc 5d4d f33d 05ab 133e
00000120: 5344 96bc 0757 8dbc 369e b4bd 2872 5abd
00000130: 13ad 21bc 3ea7 7a3d a7d0 ecbc c941 50bd
00000140: 5cde 523c b799 f93d f4c9 1abc 79ad b5bd
00000150: db65 ee3d 8741 5e3c 44b6 ee3d 5bdd e3bc
00000160: b348 3c3c 1895 d53d ff27 983d 1b0a aebb
00000170: e486 fe3d e953 e13d 89fb 88bd 6831 42bd
00000180: 9e1f 3cbd f9bb ad3d c71c ccbd b1be 8d3d
00000190: a8e0 db3d 2765 0e3e 8f86 b13d eadb eabc
000001a0: 0a96 bf3d 5e76 27bd 5b92 853d e63c 093e
000001b0: e794 b63d 4b6c 59bb 0752 ea3c 4d1b 33bd
000001c0: b41a 0cbb 5173 77bd 040f f63d 6439 98bd
000001d0: c3ca b03d 9a2e 9cbb 3c9f d93c 3210 6cbb
000001e0: 059f 273e 3c4a 5fbc 2525 40bc 9e1c f03c
000001f0: 8e61 763d 4d18 a93d 92b4 b7bc 95d9 913d
00000200: 7b8b 933b 34e7 ccbd b639 da3d aa08 bf3d
00000210: a116 72bd 6421 55bc 400d 263c 95e4 803d
00000220: cc69 143d fc57 24bd d07a ad3d a5bc c33d
00000230: 4500 0a3e 1ccb 603d 4dcf 0e3e aeb3 88bd
00000240: 18ee 76bd 188e ac3d 81fc f93d 1526 a3bb
00000250: a57e 173e 3a35 73bd 9e31 9e3d 1fd6 a8bd
00000260: 3021 8c3c aa67 4a3d ad39 743d 8ef4 fb3d
00000270: 1a69 653c 238e 05bb 1333 4e3d 36c7 36bb
00000280: 2951 b9bd ac29 1dbd cbb8 76bd e6d8 fcbd
00000290: 0cb0 83bd 7b81 083e 4b0d 843d fd53 223d
000002a0: a5a9 4d3d 3463 2b3d 5384 d63d 379a 5b3d
000002b0: 4b0c 5dbd 2522 abbd b30e 87bc c9a3 a1bd
000002c0: 62fe 663d ff37 be3c 84c0 ca3d 65ea cabd
000002d0: dc50 cfbd b8a1 10be 4e52 f73d a682 08be
000002e0: 403f ff3d 9955 05be 5fe5 e03d 284a fabc
000002f0: 0803 adbd 6745 15be ed85 b23d 4a4d f73d
00000300: ebd2 83bb b40a 073e 7d2e 9b3d c190 66bc
00000310: 8bd3 b0bd d4a7 babd 8ef2 db3d 9553 17bd
00000320: 86dc ab3d 9be1 823d 8d81 cabb 4175 793d
00000330: d2cb 97bd 97d6 743d a05b 7bbd 732d adbd
00000340: 77f0 dd3d 8503 d83d 1c46 9a3d 26b9 013e
00000350: 5023 0b3c d056 673d ff61 0c3e 25df bfbc
00000360: a486 8b3d 5c1b 15bd 8d42 89bc 1625 c33c
00000370: 9be9 47bd 9a14 ccbc c901 8a3b a124 91bd
00000380: d5ea dcbc 03ef c93d b616 fb3b 3836 abbd
00000390: 82b0 793c e500 023e dc37 043d 6202 58bd
000003a0: 2bfe 69bd 189d b2bd 3752 f33d 5251 b03d
000003b0: 2146 263d 8bb4 8e3d b19c 953d 2142 ec3d
000003c0: d0d1 883d b014 e53d 97a4 973d 1492 0b3e
000003d0: 8c23 a4bd 383b a0bd 2a76 063e bc5b 16bd
000003e0: 5bd9 8fbd b122 fc3d ee0a 34bd 3fc8 783b
000003f0: 0351 a73d d364 20bd 41bd 85bc 898d 20bd
0.1330041 0.06991325 -0.012451175 -0.019225808 -0.051682286 -0.055995397 -0.05557644 -0.036286894
-0.044630248 -0.064110056 -0.056546688 0.12428873 0.052719142 -0.057424434 0.15303338 -0.008334121
0.043836385 0.093376756 0.14758325 -0.017646933 -0.050991096 -0.038335692 0.03021693 -0.052650474
0.00014173817 0.05663028 0.020633686 -0.053234603 -0.013025377 -0.025601245 0.11448301 0.011304771
-0.035441317 0.08924626 0.064914584 0.10877989 0.1304537 -0.04659773 0.12714759 0.09674268
0.01810699 0.10978229 -0.046755616 0.116640076 0.08101206 -0.08596602 -0.031926073 0.1093715
0.08398135 0.08664779 -0.06035347 0.077165306 -0.058093306 -0.012353084 -0.0045271325 0.06463331
-0.07949575 -0.03808356 -0.08448586 -0.07368836 -0.090441845 0.11520177 -0.051868916 0.06444986
0.09571646 0.08630617 0.0060639577 0.11533938 0.030221207 -0.026365358 0.1187999 0.14420708
-0.018343126 -0.017253412 -0.08819239 -0.053331524 -0.009867924 0.06119465 -0.028908087 -0.050843988
0.012870397 0.12187522 -0.009447563 -0.08870978 0.11640521 0.013565428 0.11655858 -0.027815511
0.011491942 0.10428828 0.07429504 -0.0053112633 0.12428072 0.11002333 -0.066886015 -0.0474104
-0.04592859 0.084831186 -0.09966426 0.06921137 0.10736209 0.13905774 0.08668243 -0.028669316
0.093547896 -0.040884368 0.06522056 0.13402137 0.089151196 -0.003317612 0.028603567 -0.043727208
-0.002137822 -0.06041271 0.12014583 -0.074328214 0.08632424 -0.0047662975 0.026565187 -0.0036020395
0.16369255 -0.013628539 -0.011727606 0.02931052 0.06015163 0.08256588 -0.02242497 0.071215786
0.0045027114 -0.10005036 0.10655539 0.093278244 -0.05910361 -0.013008449 0.010134995 0.062935986
0.03623371 -0.04012297 0.0847069 0.095574655 0.13476665 0.0548812 0.13946266 -0.06674896
-0.060285658 0.0842554 0.122063644 -0.004978905 0.14794405 -0.059376933 0.077243075 -0.08243965
0.017105669 0.049415268 0.059625316 0.123025045 0.014002109 -0.002037891 0.050341677 -0.0027889735
-0.09048683 -0.03836982 -0.060234826 -0.123460576 -0.06430063 0.13330643 0.06447848 0.03963088
0.050210614 0.041842654 0.104744576 0.053613868 -0.0539668 -0.08356122 -0.016486501 -0.07892568
0.056394942 0.02322006 0.09900001 -0.099079885 -0.101228446 -0.14124191 0.12076245 -0.13331088
0.12463236 -0.13020934 0.10981249 -0.030552939 -0.08447844 -0.14577256 0.087169506 0.120752886
-0.004022946 0.13187677 0.07577226 -0.014072598 -0.086340986 -0.09114042 0.10739623 -0.036944944
0.08391671 0.06390687 -0.0061799944 0.060902838 -0.074119225 0.05977496 -0.061366677 -0.084559344
0.10836881 0.10547546 0.075329036 0.12668285 0.008492306 0.056479275 0.13709258 -0.023421833
0.0681279 -0.036403045 -0.016755367 0.023821395 -0.048806768 -0.024912167 0.0042116386 -0.070870645
-0.026967445 0.09860041 0.0076626195 -0.08359951 0.015239837 0.12695654 0.032279834 -0.052736647
-0.05712716 -0.087213695 0.118809156 0.086092606 0.040594224 0.069680296 0.07305277 0.115360506
0.066806436 0.111855865 0.0740444 0.13629943 -0.080145925 -0.07823795 0.13131014 -0.03670858
-0.07023879 0.12311304 -0.043955736 0.0037961153 0.08169749 -0.039158653 -0.016325595 -0.03919748

lstm.bias_hh_l0 f4 [256]
00000000: 4d18 6fbd d78c 763d cd67 1e3d 7ed0 dfbd
00000010: 8166 aa3d 274e 823d 4b38 d73d 0e17 78bd
00000020: 81e9 f33d 3c71 213d ab48 073d 1a38 0dbd
00000030: 451a e73d ff32 c4bc c646 1f3e d721 12bd
00000040: 205e bf3d 36b9 a73d 2fdd 113e 7561 443c
00000050: 0f3c 62bd 6dc4 2e3d 57fd 2ebd 68a0 0c3d
00000060: 0955 8ebd 7ae3 1c3e 65e3 69bd ed7b 91bd
00000070: f6d7 553b 45ee 683c d906 f03d 2191 313d
00000080: c1b1 793b 2cb3 ed3d 7982 c6bc 7a30 bc3d
00000090: ff2f 97bd 539e d33d fc77 b4bd dd05 45bd
000000a0: f958 9dbc d271 b7bd 7e11 88bc f5dc 0d3d
000000b0: 39a0 693d e2ae b03d 832e c13d 0ebc 823d
000000c0: 365b b6bd 8fb4 0c3e 11d5 d63c 3412 ed3d
000000d0: 9420 183e babd fc3d 0a48 073e f2fa 2dbd
000000e0: f817 0a3e 018c a7bd 1d76 903d 0964 b1bb
000000f0: 8b02 1abd 1482 b8bd 3e6f 16bd ea72 98bc
00000100: bad1 7c3d 9f18 aa3d 3e84 043d 5bc9 913d
00000110: 3d1f c0bd 5ec2 f63c 6dea b73d 1b0c 863d
00000120: 34a1 30bd 4e9b 5fbd 2f45 033e d41c c63d
00000130: 8e09 b8bd fe2a 073e a21d e73d ea0c 28bd
00000140: 4c69 82ba 1326 8bbd 37cc 203e 0420 bcbc
00000150: 79d0 343d 526e 013d 5b19 093d 2cfa 813d
00000160: 07d9 4c3d f85a 80bd c752 b0bc b47e c53d
00000170: 78be 30bd 3bad a83d 646b 01bd dfac cc3d
00000180: 396f 3cbb ccfb 293d b03d 73bd 4e92 93bd
00000190: 4356 f9bc a5db b4bd f5d1 b73d 7914 55bd
000001a0: 53d2 793d 1388 893d d838 95bd 2ffa e63c
000001b0: 2e52 0f3e f07a 5ebd daa3 403d 34e6 a1bb
000001c0: 9613 b0bd 1003 253d 3ece 37bd 4a1f 95bd
000001d0: 71f8 be3c ed14 99bd 6857 953c 2644 813d
000001e0: c3a5 023e 73f1 1abd 1098 20bd 640f 76bd
000001f0: 7438 0ebd 60f2 8fbd 5941 003d 9c04 0f3e
00000200: b4a2 6fbd dec5 bbbd a4f8 793d f02f 90bd
00000210: a764 93bb 8677 1b3e e88f bb3d 4b40 d4bd
00000220: de11 a4bc db46 9abd 96bd a7bd 6da8 d23d
00000230: 8f04 be3a c4ad c9bd c200 d03c 85b0 983c
00000240: e7a2 bfbd 6228 013d e90c f53d 265a 173e
00000250: e4f4 163e f409 a4bd 7cbe c2bd 7bf2 a9bd
00000260: 9ae9 04be 68d5 833d 1b00 1fbd 52f8 e23d
00000270: 12f4 03be 5bf1 e33d 48a5 883d 386d c73d
00000280: 6b0e 9cbd 78bb 9e3d f627 b9bd 2543 80bd
00000290: 9f40 21bd 949a 193e 4d1a fabd 2154 483d
000002a0: 6195 ae3d 3f9a d03d 7da7 e43d ef46 90bd
000002b0: bc41 7f3d a792 883d 4418 99bd 9b74 0a3e
000002c0: 48ca 6cbd 38a8 bebc bee4 b2bd 3b99 08bd
000002d0: d042 4dbd 4ea4 d1bd f77f 32bc ca4a 05be
000002e0: 26a2 c7bd 149b 46bd f93f 10bd 7944 11be
000002f0: 3b07 c93c df1c 0dbe 33d0 083e 34b0 f33c
00000300: 6aa7 383c ad13 f33d 4225 373c 07c2 89bd
00000310: 8436 633d 7efc 3dbd 4246 f83d 71cb 0a3e
00000320: 1185 603d 05a5 11bd 61fc 373c 8d68 5d3d
00000330: a1b4 783d b503 b63d 6d89 46bd 39db 0f3e
00000340: 8336 5ebc 4b7a f93c cfdd 72bd ac14 153e
00000350: 6f44 e43c 2a27 64bd f91a 0e3c ac69 5b3d
00000360: 0e26 ef3d ae89 703d 5be7 adbd ad12 08bd
00000370: 5154 babc 27b2 1a3e d29b ccbd 49f6 d23c
00000380: 570a 833d 1657 633d 21c5 d6bd f344 063e
00000390: 4b6d 893d a3f2 f13d fde6 a63d abae 423d
000003a0: da7e 17bd 0aec 54bc 1bd7 a73d c6d7 87bc
000003b0: 096c f83c a5f5 e3bb c4e4 063d ec65 c2bc
000003c0: d190 c0bd d18f 823d 0508 cb3d 60dc 593d
000003d0: 09fc 733d 8cc0 623d d1f6 173d d603 1c3e
000003e0: 138a 01bd c141 28bd 17cd a63d c46b 25bd
000003f0: d116 71bd 3cd9 9c3d 8bb9 24bd eccb 90bd
-0.058372784 0.06019291 0.03867321 -0.109284386 0.08320332 0.063625626 0.10508784 -0.06056886
0.11909772 0.03941463 0.033028286 -0.03447733 0.112843074 -0.023950098 0.15554342 -0.035676803
0.09344125 0.08189623 0.14244531 0.011986126 -0.055233058 0.042667795 -0.042722072 0.034332663
-0.06949813 0.1532115 -0.057101626 -0.07103715 0.0032629943 0.014216964 0.11720056 0.043351296
0.0038100334 0.1160644 -0.024232136 0.09188934 -0.073822014 0.10332932 -0.08811948 -0.048101295
-0.019207465 -0.089572564 -0.016609903 0.03463455 0.057037566 0.08627106 0.094326995 0.06383525
-0.08904116 0.13740753 0.026224645 0.115757376 0.14856178 0.12340875 0.13211074 -0.04247565
0.13485706 -0.081810005 0.07053778 -0.0054135364 -0.03760008 -0.090091854 -0.036727183 -0.018609483
0.06172345 0.08305477 0.03235268 0.07118484 -0.09380958 0.030121978 0.0898026 0.06545278
-0.043122485 -0.05459147 0.1281936 0.09673467 -0.089861974 0.13199994 0.11284949 -0.04102794
-0.0009949594 -0.067943715 0.15702902 -0.022964485 0.044144128 0.03159935 0.033471446 0.063465446
0.05001166 -0.06267351 -0.021523846 0.09643307 -0.043150395 0.08236166 -0.031596556 0.0999391
-0.0028752817 0.041499898 -0.059385 -0.0720564 -0.03043664 -0.08830956 0.08975593 -0.052021477
0.060991596 0.06715407 -0.07286233 0.028195469 0.13996193 -0.05431646 0.04703126 -0.0049407724
-0.08597486 0.040286124 -0.044874422 -0.072813585 0.023311825 -0.074746944 0.018230155 0.063118264
0.12758546 -0.03782792 -0.039207518 -0.06007327 -0.034721807 -0.07028651 0.03131232 0.13966602
-0.058504775 -0.091685995 0.061028138 -0.07040393 -0.0044980827 0.15182313 0.09158307 -0.103638254
-0.020028051 -0.07533046 -0.081904575 0.10286031 0.0014497208 -0.09847596 0.025390986 0.018638859
-0.09357243 0.031532653 0.11965353 0.14780483 0.14741856 -0.08009711 -0.09508988 -0.082982026
-0.12979737 0.064371884 -0.03881846 0.110825196 -0.12886074 0.11130019 0.0667215 0.09737629
-0.076199375 0.077506006 -0.09040825 -0.06262807 -0.039368268 0.15000373 -0.12212048 0.048908357
0.085245855 0.1018567 0.11164758 -0.070447795 0.06231855 0.06668597 -0.074753314 0.13521044
-0.057810098 -0.023273572 -0.08735035 -0.033349257 -0.050112545 -0.10236417 -0.010894767 -0.13016811
-0.09747724 -0.048487738 -0.03521726 -0.14186276 0.02453958 -0.13780545 0.13360672 0.029747106
0.011270383 0.11868987 0.011178317 -0.06726461 0.055471912 -0.046383373 0.121227756 0.13554169
0.054814402 -0.035557766 0.011229605 0.054054786 0.060719136 0.08887426 -0.048470903 0.1404847
-0.013562801 0.030453822 -0.059293564 0.14558667 0.027864663 -0.055701412 0.008673423 0.053567573
0.1167718 0.05872505 -0.08491393 -0.033220936 -0.022745283 0.15107022 -0.09990658 0.025752204
0.063984565 0.055502973 -0.10486818 0.1311224 0.06710299 0.118138574 0.08149526 0.047529858
-0.03698621 -0.012995729 0.08195325 -0.016582381 0.030324953 -0.0069567733 0.03293301 -0.02373024
-0.094026215 0.06375087 0.09913639 0.05318868 0.05956653 0.05535941 0.037100617 0.15235838
-0.03162582 -0.041078333 0.081445865 -0.040385976 -0.05885965 0.07658622 -0.04021601 -0.07070145

lstm.weight_ih_l1 f4 [256, 64]
00000000: 4acf f9bc 448d b1bc b581 fe3d 2236 0cbe
00000010: fee3 c73d ad4b a93d 14aa 943a 2698 673d
00000020: 6e40 38bd d85b b9bd ebd5 003e 718f efbc
00000030: 8013 a33c a38a dabc 2572 3bbd c564 0c3d
00000040: b3a4 42bc fd68 fdbc f915 aabd 0103 023d
00000050: e896 333d cfac fe3b be5e b33b fecf d4bb
00000060: 68b6 a83d bdcd bfbd 0952 1f3d 8028 28bd
00000070: 198d 713d b297 71bd 13ab d43d ca16 72bd
00000080: b828 b63d dfb9 a13d 7fa6 82bd 0218 24bd
00000090: 9de1 94bd 4c0f 153e 66c2 133b 1e8c 88bd
000000a0: 846e 8b3d c7ca 5c3d d2fa f43c 6d72 45bd
000000b0: 891e 38bd 9b56 83bc 003f b3bd d08d 0cbd
000000c0: e03a 683c 501f e43c 1615 a6bd 1963 d93d
000000d0: 722f c6bd 3187 f33c 34c2 d3bc beb7 cd3b
000000e0: 3e66 183d 2c03 01be d2e2 c0bd 28cf d7bd
000000f0: 0c83 6c3d 7596 cd3c 27e6 61bd 0cf8 88ba
00000100: 27bd d93c 59b2 213c 42db 653d abc6 5cbc
00000110: 2168 943c c747 bc3d 67b4 d5bd 14cb 023c
00000120: 0365 9dbc 5c00 143d ce98 d9bc 6753 d43d
00000130: b6ba 6d3b 4039 7ebd 3f74 853d e9e1 4c3a
00000140: c871 943d 85a0 ab3d 1016 f43d 7f1a 223e
00000150: 3037 1e3e 0e07 f5bd 7568 83ba 161f ef3d
00000160: d2a0 813d 1ac3 8ebd 833a 253d f686 0abc
00000170: 4c9d cb3d 8234 9fbc 6f69 a63d 7dde 393d
00000180: 3869 e13a 4fce 8b3d 0661 9abd cd1a 3a3d
00000190: bcd4 13be 1cda d33c 9a17 8c3d 7894 87bc
000001a0: d93c 473d 82a8 c03d 9ee9 4bbd 5a61 f7bd
000001b0: 9946 ddbd 156a a3bd 1240 af3d 0633 0b3c
000001c0: f6d7 fd3c 7212 b3bd 2177 d6bd fab0 8e3d
000001d0: 651a 2ebd 0099 0cbe 91d1 6e3c 1df1 14be
000001e0: 9260 e83d 2587 febd b3ac 62bc 8a38 753d
000001f0: 8500 1bbb c01a 813a 8c1d 86bc 9483 ebbd
00000200: e5bc 083e fad6 f33c e822 c63c 06d9 613d
00000210: b0c2 a83d b1d0 de3d deef a43d 5022 0abe
00000220: 08cb 013e ca95 ab3d 69d2 753d 7190 9ebb
00000230: 3a8f 163d 6408 09bd d1b2 8b3d 2291 babd
00000240: 02f6 24bd 1397 04bd b79a 4ebd e52d dc3c
00000250: 1543 9c3d 1b98 963c f2cc 453b af4e b8bd
00000260: 2ea8 ef3c 446f 2bbd 3f51 91bd de98 dbbd
00000270: e1c8 0c3d 42c5 983d 63c0 853d 62b3 16bd
00000280: 3761 0cbe 15f5 b9bd f944 cbbd cdd9 98bb
00000290: 8a5b 73bd ca6f 05bc efb9 e2bd 0f1a b9bd
000002a0: 713a fc3d 6481 123e 25b2 953d e82d 693d
000002b0: b108 f1bd ccf2 a9bd d95b 133e fd16 71bc
000002c0: f30e b0bd 519a 3c3d 61fb f83c 0787 4c3d
000002d0: 6ce7 b73c d93d 75bd 6638 a9bd a3f8 973d
000002e0: 7243 33bd 726c b93d 57ed 23bd 757f 183c
000002f0: 3b99 e03c c209 16be 6122 e43d 0c1a a4bd
00000300: 5dfb 69bd 68e4 8c3d afa1 ec3c b345 a8bd
00000310: e6be e83c e5f1 20bb 2390 6a3d 3c79 04be
00000320: e3c2 843c ccd6 92bc 6fe2 afbd 8f3f fb3d
00000330: 2927 893c 0e4c bdbd 4d52 e43d 358c 09bc
00000340: b837 afbd f83a 983c 6a87 073e 71be e83c
00000350: 6d38 dfbc 39d2 4fbd f24b a9bd 15d4 9cbd
00000360: f03b a43a 108c 73bc b1c9 febd 343f ee3d
00000370: 5f3a 7e3b abd2 cdbd fdf8 953d 6bb1 a5bd
00000380: fbca 573b d20c f33d 6ca6 be3d 8975 9c3d
00000390: ae0f 113d e753 35bd a22d 99bd 6969 7abd
000003a0: ed2e f83d 0dbd 8b3d 30a6 a2bd e823 3cbb
000003b0: 40cf a9bd 47fd 38bd 4d5d 173d b1b6 babd
000003c0: b763 763d 0a35 18be baec bcbd 74c3 a83d
000003d0: 8b0a c23d e2d3 9bbd c0a8 b5bd 8d85 c03d
000003e0: d589 f3bd 874e 04bd 083d a4bd 9d93 f5bd
000003f0: 6369 ec3d dba1 aa3d 8286 b5bd d8e2 c1bd
-0.030494351 -0.021673806 0.124270834 -0.13692525 0.09760283 0.08266387 0.0011342191 0.056541584
-0.04498332 -0.09050721 0.12581603 -0.029243203 0.01990676 -0.026677435 -0.045763154 0.03427579
-0.011880088 -0.030933851 -0.08304972 0.031741146 0.043845087 0.0077720652 0.0054739406 -0.006494521
0.08237916 -0.09365413 0.038896594 -0.04105425 0.05897245 -0.05898256 0.10384192 -0.059103765
0.08894485 0.0789678 -0.06379413 -0.040061958 -0.07269595 0.14556617 0.002254629 -0.0666735
0.068081886 0.05390432 0.029904757 -0.048204828 -0.044950996 -0.016032508 -0.08752251 -0.03431493
0.014174193 0.027846962 -0.081094906 0.106146045 -0.09677018 0.02972755 -0.02584944 0.0062780073
0.03720688 -0.12598866 -0.094182625 -0.10537559 0.057742164 0.025096158 -0.05515113 -0.00104499
0.026579453 0.009869182 0.056117304 -0.0134751005 0.018116059 0.09193378 -0.104348 0.007982988
-0.019213205 0.036133155 -0.02656212 0.1036747 0.0036274618 -0.062066317 0.06516313 0.00078156457
0.072482646 0.08380226 0.119182706 0.1583042 0.1545074 -0.11964236 -0.0010025637 0.11675851
0.06329502 -0.069708064 0.040339004 -0.008455029 0.099421114 -0.019434217 0.081255786 0.045378197
0.0017197495 0.068264596 -0.07538037 0.045435715 -0.1443662 0.025860839 0.06840439 -0.016550288
0.048642013 0.0940714 -0.04978334 -0.12079115 -0.10804481 -0.07979218 0.08557142 0.008496052
0.030986767 -0.087437525 -0.10471941 0.06967349 -0.04250564 -0.1373024 0.014576332 -0.14545102
0.11346544 -0.124281205 -0.01383512 0.059868373 -0.0023651433 0.0009849891 -0.01637151 -0.11499706
0.13353308 0.029765595 0.024186566 0.05513861 0.08240259 0.108796485 0.080535635 -0.13489652
0.12675107 0.08378179 0.060015116 -0.004838996 0.036757685 -0.033455268 0.06821216 -0.09109713
-0.040273674 -0.032370638 -0.050440516 0.026877353 0.076299824 0.018383076 0.0030181971 -0.08999383
0.029254999 -0.041854158 -0.070955746 -0.107225165 0.03437126 0.07459499 0.065308355 -0.036792167
-0.1370896 -0.09079949 -0.09925265 -0.0046646358 -0.05941347 -0.008144328 -0.1107062 -0.090381734
0.12315834 0.14307171 0.07309369 0.056928545 -0.11769236 -0.08298263 0.14390506 -0.0147149535
-0.08596601 0.046045605 0.030393304 0.04993346 0.022449218 -0.059873436 -0.0826271 0.074204706
-0.043765493 0.090538874 -0.040021267 0.009307732 0.027416816 -0.1465216 0.1113937 -0.080127805
-0.057124484 0.068795025 0.02888569 -0.08216419 0.02841134 -0.0024558243 0.057266366 -0.12936872
0.01620621 -0.017924689 -0.08588111 0.12267982 0.016742306 -0.09243022 0.1114851 -0.008395244
-0.085555494 0.018582806 0.1323525 0.028411122 -0.027248586 -0.050737593 -0.082664385 -0.07657639
0.001253007 -0.0148649365 -0.12440813 0.11633149 0.0038792116 -0.10049947 0.07322881 -0.080904804
0.0032927382 0.1186768 0.09309086 0.076396056 0.035415344 -0.04426947 -0.07479407 -0.061135683
0.121183254 0.06823168 -0.07941854 -0.0028707925 -0.08291483 -0.04516342 0.036954213 -0.09116877
0.06015369 -0.14863983 -0.092248395 0.08240405 0.09474667 -0.07608773 -0.08870077 0.09400473
-0.11891524 -0.032301452 -0.08019453 -0.119910456 0.115435384 0.08331653 -0.08863546 -0.09467095

lstm.weight_hh_l1 f4 [256, 64]
00000000: 5f8d 13be 7048 8abd 4780 92bd 2bee ca3d
00000010: 673c a1bd d47b cdbb e917 ddbb 182d 133e
00000020: f34b 9bbc af9b aa3c 0732 123e ecbd cbbc
00000030: 1e5f b83d 5c0c 42bd 4dd2 763d 32d4 10bc
00000040: 8fc9 1c3d 7ea3 c6bc bcfa d43c 66bb 37bd
00000050: 0732 3cbc e6c8 18bd 33ce d1bc 4bc6 08be
00000060: 111e b3bd 08f0 353d ded5 dc3b bd6c 583d
00000070: 510e 13be 6bb4 92bc 9e4d 3a3d deae 2dbc
00000080: e5d2 92bd db91 543d 7e2b 7bbd 789f 33bd
00000090: 56e3 fe3c 44e0 54bd 2c99 c2bd c04c b1bd
000000a0: 99b2 8dbd f021 4c3d 72e5 cebd 9d01 1d3d
000000b0: 8094 613d 24c9 31bd 801e eebc fef6 fdba
000000c0: dfa6 96bd d6c6 953d 5cc0 2fbd 1a08 c23d
000000d0: 6cd0 05bd 9b4f 17bd 8f16 59bd 135b bfbd
000000e0: 2f6c 893d dd89 d13d d97b ae3d 937a b43d
000000f0: 06fb 1f3c 2bcb 81bd 78c7 9c3d ea69 953c
00000100: aad1 a73c 39e7 6f3d 73ba 993d 8616 cf3d
00000110: bfea 1d3d 0f24 babd c721 5d3c 164e da3b
00000120: ff54 963d 1c34 103d 1a87 d5bc 6f99 ca3d
00000130: 048e fdbd 6e90 1cbc 28b7 69bd b6b3 26bd
00000140: a24a 803d 9c95 d23d 1790 26bd f95a 8ebd
00000150: c479 18be 0dfd f0bd a2b0 573d 1089 a13d
00000160: 7172 ab3d ebd4 ecbd 433a debc d6d6 133d
00000170: 7a8e 283c 91b6 f23c 6311 523d 2e30 5dbd
00000180: c50e babc 7a5d dabd 0121 b1bd d3ef a13d
00000190: eaa3 b63d f952 073e de44 8fbd b4a8 873d
000001a0: 0560 4b3d 3a6d 11bd bfa7 d6ba 20dd b63d
000001b0: 8fa4 07be 2769 d2bc c7d5 52bd 2f30 9f3d
000001c0: 7c06 14bd acdd ca3c 47ee 0a3d d8ac 073e
000001d0: fce4 143e 499e aabd 9d4e 993d cc48 193e
000001e0: e3d3 87bd a0e2 3abd 8074 52bd 5d59 953d
000001f0: b80a b63d 9bc3 d7bd 728e a2bd f4be ba3d
00000200: 1b16 13be f6c9 5dbd 3de0 913d a3c1 93bd
00000210: c2c6 8e3d 0d3f cc3b 21d6 3bbd 3c16 953b
00000220: 3d01 c93d 0cf7 553b 12ae 883d 1f68 033e
00000230: b363 a63d 7314 febd 7a86 95bb ab62 b9bd
00000240: 151d 61bd a54b 483d 5caa 923d 263e 903d
00000250: 7a2e cd3d 93b1 b33d 40fb 2a3d ff33 543d
00000260: 4325 4a3d 6549 123d d2ad d6bd 6a0d dc3d
00000270: a1bd 693d 4d19 473d ae13 203c 59ae 183b
00000280: ba85 babd ef0a a03d c3c4 8f3c 679b d73d
00000290: ee11 a9bd e579 973d e019 b9bd 9e4f 013c
000002a0: dc9d 77bd 3e96 bdbd 7f0d 02bd 5ead 8c3c
000002b0: 2274 0bbe 36cd 84bd 1764 d2bd f9ac 23bd
000002c0: a4d7 823d eb00 05bd ce51 b2bd 61bd 48bd
000002d0: b4f8 62bd 7d9c 86bc cc88 b63c c99e fc3d
000002e0: 859b bd3d 6c3c c0bc 8b87 f73d a3f3 1abd
000002f0: 249a d13d d835 8abc 5acc b9bd 7192 963d
00000300: a4ff e9bd 2745 fa3d 6c49 ab3d 1a30 0d3e
00000310: 0e3b b23c 8239 8fbc 85de b93c 783f 933d
00000320: db19 cf3c 72b2 1f3e 5293 043c 114b 133e
00000330: ea97 123d b928 dabc bd40 ab3d 4e7e 983d
00000340: 5103 0a3c 1371 8dbd 53f3 9c3d ea5f 85bd
00000350: 5fc5 413d 5ee7 01be 0077 a63d 794d 69bd
00000360: bae2 243c 0c57 20be 043d 42bd 2339 133d
00000370: c62c 52bd 46b6 e43d fe81 91bd ffc9 93bd
00000380: 23f3 9d3b 75fa fc3c 73c9 01bd 50cd 91bd
00000390: 14ee d83d 104e 27bd b37a c03c 2f55 d13d
000003a0: e891 243d 5c28 4b3d 7771 e2bd b3fb 9fbd
000003b0: 039b 39bd 0311 e23d 6d1a ffbd ed4e 6cbb
000003c0: 6cc0 bfbd 90b7 df3d 447f 753d e766 8dbd
000003d0: 0031 7cbb 8e6c 3bbd 77ab 43bc 653b c7bc
000003e0: 52c2 d4bd 3a94 bf3c 082d 043d e96a 8b3d
000003f0: dcaa 973d 9c61 093c ecde a9bd 1ecd 6cbd
-0.14409398 -0.067520976 -0.07153373 0.09908708 -0.07872849 -0.006270865 -0.006747235 0.1437267
-0.018957114 0.020826189 0.14276896 -0.024870835 0.09002517 -0.047375068 0.060259152 -0.008839654
0.03827816 -0.024247881 0.025998466 -0.04485645 -0.011486537 -0.037300967 -0.025611019 -0.13356893
-0.08745969 0.044418365 0.006739362 0.052838076 -0.1436093 -0.017908296 0.045484178 -0.010600774
-0.07169131 0.05189691 -0.061320774 -0.043853253 0.031114262 -0.05197169 -0.095018715 -0.08657217
-0.069188304 0.049837053 -0.10102357 0.038331617 0.05507326 -0.043404713 -0.029067278 -0.0019375978
-0.07356047 0.073133156 -0.042908058 0.094742015 -0.03266947 -0.036941152 -0.05300003 -0.09343543
0.067100875 0.102313735 0.08519716 0.08812442 0.0097644385 -0.06337579 0.07655233 0.01823898
0.020485718 0.05857012 0.075062655 0.10111718 0.03855395 -0.09088909 0.013496823 0.0066621406
0.073404305 0.035205945 -0.026065398 0.098925464 -0.12380603 -0.009555919 -0.057059437 -0.04069873
0.06264235 0.10282442 -0.04066476 -0.069509454 -0.148902 -0.117670156 0.052658685 0.07887471
0.08371437 -0.115640484 -0.02712739 0.036093555 0.010287875 0.02962807 0.051286113 -0.054001026
-0.02271212 -0.106623605 -0.08648873 0.07907071 0.08917983 0.13215245 -0.06995557 0.066239744
0.04965212 -0.035504557 -0.0016376897 0.08928895 -0.13246368 -0.025684906 -0.051473405 0.07772862
-0.036138996 0.024763905 0.033918645 0.13249528 0.14540476 -0.08330972 0.074856974 0.14969176
-0.06632211 -0.045626283 -0.051380634 0.07292435 0.08888763 -0.10535356 -0.079373255 0.09118453
-0.14363901 -0.054147683 0.07122848 -0.07214668 0.06971504 0.006233102 -0.045858506 0.0045497697
0.09814689 0.0032648472 0.06673826 0.12832688 0.08124485 -0.12406244 -0.00456315 -0.090520225
-0.054959375 0.048900265 0.071614 0.07043104 0.1001863 0.08774104 0.041743517 0.0518074
0.04935194 0.035714526 -0.10482372 0.10744746 0.05706561 0.048608113 0.009770317 0.0023297279
-0.091075376 0.078145854 0.017549878 0.105276875 -0.08255373 0.073962964 -0.090381384 0.007892517
-0.06045328 -0.09257172 -0.031751152 0.017172512 -0.1361852 -0.064844534 -0.10272997 -0.03995988
0.063887864 -0.03247158 -0.08707009 -0.04900873 -0.055412963 -0.016432041 0.022282027 0.12334973
0.092581786 -0.023466311 0.120864 -0.037830006 0.10234478 -0.016871378 -0.0907218 0.0735215
-0.11425713 0.12220221 0.083636135 0.1378788 0.021756675 -0.017483477 0.022689113 0.0718984
0.025280884 0.15595415 0.0080917645 0.14384104 0.035789408 -0.026630746 0.08361957 0.07445966
0.008423642 -0.06906333 0.07663598 -0.06512435 0.04730737 -0.12685916 0.08128166 -0.05695865
0.010063821 -0.15658206 -0.04742147 0.03594316 -0.05131223 0.111675784 -0.07104872 -0.07216262
0.004820244 0.030881146 -0.031686258 -0.071192384 0.10592285 -0.04084593 0.023496008 0.102213256
0.04017821 0.049599037 -0.11056798 -0.0781168 -0.045313846 0.11038401 -0.12456212 -0.0036057786
-0.093628734 0.10923684 0.059935823 -0.06904393 -0.0038481355 -0.045757823 -0.011942736 -0.024320314
-0.10388626 0.02338611 0.032269508 0.06807501 0.07405636 0.008385088 -0.08294472 -0.057812802

lstm.bias_ih_l1 f4 [256]
00000000: 6ea7 143e 8770 f83d 1019 fc3d 0081 133e
00000010: 6cad f13d b55a 95bc 03c3 15bd 60cf c2b9
00000020: 7962 843d bd44 fdbc d636 8a3d 0283 6bbc
00000030: 04b0 96bd 0fa8 bd3d ca16 98bc 8b5b 863d
00000040: 04e8 bdbd 30b4 6c3d d594 c1bd c581 7d3c
00000050: 57cb 83bd 8f06 b83d 1390 4a3d d4ab 183e
00000060: 0a81 e4bd 2115 ff3b 419d ac3d 7dc3 6dbd
00000070: a338 233d 5609 5d3d 6179 79bd 8b1c 783d
00000080: 7767 a43d df2a bc3d 722a fe3d b8f9 9bbd
00000090: 783b b23d 6831 273d a84a 0b3b 3d0f 043d
000000a0: 13e0 9d3d ff3b 6f3d 5f23 563d c8e4 ccba
000000b0: 36ff 643d 33d0 f73d 3a65 4bbd c817 09bd
000000c0: 95b2 153e 1a66 c43d a1e1 99bd 6b12 9fbd
000000d0: b19e 46bd e62e 113c 5763 a43a 576f 173e
000000e0: 11ee 8dbd 8a77 ca3d aa32 0e3e 6f21 d03d
000000f0: 50ec 033d 86ce 8dbd 7881 133d 7e5e d7bd
00000100: 644b 41bd 6d0a abbc 7f2b 0a3e 8964 a6bd
00000110: 2620 193d 07c4 fe3d 56a9 4abd e15b 733b
00000120: 96b0 4b3c e9f3 1dbd 810b e53d 0e1d 83bd
00000130: 11cf 043e 347d 7c3c 7b14 213d 5f37 1d3e
00000140: 3146 a6b9 4c5e 013e f6aa 88bc 4924 023b
00000150: 6cef cb3a 93d6 ac3d 2c3b e03d e5a4 153e
00000160: bb4f 3dbb e93f 723d 0f04 e23d 7c4c 2b3d
00000170: b229 833d f8ce 7b3d d8b1 bf3d 1b22 75bd
00000180: 1815 b0bd 8dc0 1e3d a4f6 0b3d a64a b63d
00000190: cff1 e13d 7a3c 453d b494 83bc 2509 a7bd
000001a0: 138e cb3d 9b45 d13d b238 d23c b0b1 a33d
000001b0: 4168 023e 6c1e 0f3d f916 933d 6f15 833d
000001c0: 6f0a b83d c799 c6bd c883 98bd 0e88 8ebc
000001d0: dc42 0d3d 6950 03bc 7090 ad3d 3c23 cfbc
000001e0: 18f9 a53c 40e1 a03d 427f 993b 3ddc 9ebd
000001f0: 431c 023e 4f3b 023c 6d5e 1dbd 727b c33c
00000200: e6f5 6abc d8f2 a53d 16e4 10bd 6ee2 c9bc
00000210: 5d69 dcbd b5dc 733d ec47 8dbd 5a2e 783c
00000220: 0ce3 873b 9e6f bd3d d29c e53d dcbc dc3d
00000230: cff7 ffbc 0a38 a23d 968d abbd 3dc8 04bd
00000240: 9d9d 05be 45f8 043e 0f6d b3bd 3cbf 833a
00000250: a67c e3bc bcae 77bd cdb2 f7bd 78b5 47bd
00000260: 7235 20bd d003 b6bb 4e3b 96bd 7374 b43d
00000270: a81a e83c 5cc7 69bc 4736 f5bd 9be3 6fbc
00000280: 56e9 bd3c 13a5 f83b 451f 8fbd 9811 9fbd
00000290: c738 86bd cba5 973d 1f2b 803d 38fd 74bd
000002a0: 3527 ec3d 89b9 813d a1c4 b63c 734e 2e3d
000002b0: 077b 0ebe 9a52 f03d 956c e03c 6546 9b3c
000002c0: 13ee b3bd 6d84 8abd beba 763d 7bec 893b
000002d0: 108e df3d 2cb4 1dbd a592 87bd d26a 063e
000002e0: d2f1 debd f0f0 b8bd 9bb3 f4bc 6f4c 7c3d
000002f0: f71f aebd d501 d33b fd76 89bd db75 f43c
00000300: 61bc 1dbd 48e6 e73d 63a6 9abd 6a75 b93d
00000310: e700 f93d 79c8 b8bd 17ee acbd ed84 a63d
00000320: cfbf be3c 8a34 633d c539 debc 7b23 803d
00000330: 7955 243d 4e46 193e 4469 343d 39df 32bd
00000340: 8927 5fbd c634 5cbd 2499 c1bd 5718 1c3d
00000350: c492 303d 8957 273d 117f f53c b8cf 763d
00000360: a15d b63d 97e6 95bd 43b3 a9bd b527 a43c
00000370: fd0c 47bd 2686 9b3d f946 b93c 6836 573d
00000380: 9a03 a7bd 7e66 bbbd e976 fc3d 6a6a 4f3d
00000390: ba26 c33d 3e39 513d 93ad 8f3d b0ec 113e
000003a0: 911d dfbb 1052 533c 7a9f 3bbd 6a1a cf3b
000003b0: c258 993c 9695 833d 6646 c33d 09d0 c6bd
000003c0: a310 1c3e aa94 6b3c a8cd 303c c12e 1d3d
000003d0: 76a4 713d 9d3d 2dbd 5585 7b3d 3693 f73d
000003e0: 5385 9c3d 8292 ae3d 3380 9e3d a44d a83c
000003f0: 42a6 d1bd 1ae6 933d 52cb 42bc 5945 76bd
0.14516994 0.12130838 0.12309468 0.14404678 0.11800656 -0.018231729 -0.03656293 -0.0003715707
0.06464095 -0.030916566 0.067487404 -0.014374496 -0.07357791 0.0926057 -0.018565554 0.06560429
-0.09272769 0.057789028 -0.094522156 0.015472834 -0.06435268 0.08985626 0.049453806 0.14909297
-0.11157425 0.007784501 0.08428431 -0.05804776 0.039848935 0.05396398 -0.06090677 0.060574096
0.08027547 0.091878645 0.124104396 -0.076159894 0.08702749 0.0408186 0.0021254215 0.032241095
0.077087544 0.058406826 0.052279826 -0.0015632147 0.05590745 0.12100258 -0.049657084 -0.033469945
0.14618905 0.09589787 -0.075137384 -0.07767185 -0.048491184 0.008861279 0.0012541813 0.14788567
-0.06930173 0.098860815 0.13886514 0.10162627 0.032207787 -0.06924157 0.036012143 -0.1051607
-0.04719104 -0.020878995 0.13493155 -0.08124644 0.037384175 0.12439733 -0.049477898 0.0037133622
0.012432238 -0.03856269 0.11183835 -0.06402026 0.12969615 0.01541071 0.039326172 0.15353154
-0.00031714284 0.12633628 -0.016683083 0.0019858053 0.0015559024 0.08439364 0.10948786 0.14613684
-0.0028886634 0.05914298 0.1103593 0.041820988 0.06404437 0.061476678 0.09360093 -0.05984698
-0.08597773 0.03875785 0.03417076 0.08900957 0.110324495 0.048153378 -0.016062118 -0.08156041
0.09939208 0.10218354 0.0256618 0.079928756 0.12735082 0.034941122 0.07182116 0.064005725
0.08986365 -0.096972995 -0.0744701 -0.01739886 0.03448759 -0.008014777 0.08474815 -0.025285356
0.020260379 0.07855463 0.0046843598 -0.07756851 0.12706093 0.007948711 -0.03842013 0.023862574
-0.014340853 0.081029594 -0.03537377 -0.024644103 -0.10762284 0.059536655 -0.06898484 0.01514777
0.004146939 0.09249805 0.11211552 0.107782096 -0.031246094 0.07920845 -0.08376615 -0.032417525
-0.13048406 0.12985332 -0.08761036 0.0010051499 -0.027769398 -0.060469374 -0.120946504 -0.048757046
-0.03911347 -0.0055546537 -0.0733553 0.088112734 0.028333023 -0.014268722 -0.11973243 -0.014641668
0.023182552 0.0075880378 -0.06988386 -0.077670276 -0.06553798 0.074046694 0.06258225 -0.0598118
0.11530916 0.06334216 0.022310557 0.042555284 -0.13914119 0.11734505 0.027395526 0.018954465
-0.087856434 -0.067635395 0.060236685 0.004209099 0.10915768 -0.038501903 -0.06619767 0.13126686
-0.10885967 -0.0903033 -0.029870799 0.06159633 -0.085021906 0.0064394274 -0.06712148 0.029841354
-0.03850973 0.113232195 -0.07551267 0.09055598 0.12158375 -0.09022612 -0.084438495 0.08130822
0.02328482 0.055470027 -0.027127156 0.06256767 0.040120576 0.14968225 0.0440457 -0.043669913
-0.054481063 -0.053761266 -0.094530374 0.03810915 0.043108717 0.040854964 0.029967817 0.06025669
0.08904577 -0.07319372 -0.082861446 0.020038465 -0.04859637 0.07593946 0.02261685 0.05254212
-0.08154984 -0.09150408 0.12327368 0.050638594 0.09528871 0.05107998 0.070155285 0.14250445
-0.0068089445 0.012897983 -0.045806386 0.0063202875 0.01871908 0.06425016 0.09534912 -0.09707648
0.15240721 0.014378706 0.01079122 0.038374666 0.058994733 -0.042295087 0.061406452 0.12088625
0.07642617 0.08524038 0.07739296 0.020544834 -0.10236789 0.07221623 -0.011889296 -0.06012473
