model/lstm_with_attention.pth (torch, 23922 bytes, 11 tensors)

lstm.weight_ih_l0 f4 [64, 19]
0	0xbe4f6f68	-0.20257342
1	0x3dff7d40	0.124750614
2	0x3de8a3c3	0.1135936
3	0x3e5e54a1	0.21711971
4	0x3d12c740	0.03583455
5	0x3e0afac4	0.13572222
6	0xbe5bd48d	-0.214678
7	0x3d0c1abb	0.03420518
8	0x3d6ffe5d	0.05859219
9	0x3e201ff1	0.15637185
10	0xbe093a61	-0.13401176
11	0xbcf69899	-0.030102061
12	0xbe18c6e1	-0.14919616
13	0xbe2c7585	-0.16841705
14	0x3dd4db87	0.10393434
15	0x3d1b74c7	0.037953164
16	0x3dcb6568	0.09931451
17	0xbbbe2ba7	-0.0058035436
18	0xbbcb4f6a	-0.0062045353
19	0xbc2127b9	-0.009836131
20	0x3e09fbfa	0.13475028
21	0xbe313554	-0.173055
22	0x3d5c23ef	0.053745206
23	0x3e0c0a09	0.13675703
24	0x3e14385c	0.14474624
25	0xbdf67c41	-0.12035418
26	0x3e45f8b6	0.19333157
27	0xbe2ae4cf	-0.16688846
28	0x3e051d96	0.12999567
29	0x3e513413	0.20430021
30	0x3bff70dd	0.007795437
31	0x3d9c69fb	0.07637402
32	0xbe72b603	-0.23702244
33	0xbdcaee92	-0.09908785
34	0xbdc98a02	-0.09840776
35	0xbe6e6133	-0.23279266
36	0xbd5951a1	-0.053056363
37	0x3e329be0	0.17442274
38	0xbcc4062a	-0.02392872
39	0x3e7ce1ca	0.24695507
40	0xbe667653	-0.22506075
41	0x3dcc1e35	0.09966699
42	0x3e5d4628	0.21608794
43	0x3e78bd65	0.24290998
44	0xbdc6cdb8	-0.097072065
45	0xbe673102	-0.22577289
46	0xbdbc4e52	-0.09194626
47	0x3e3d9f0f	0.18517707
48	0x3cb2e2c2	0.021836642
49	0x3e749f32	0.23888853
50	0xbe3b0874	-0.18264943
51	0xbe205f09	-0.15661253
52	0x3e026303	0.12733082
53	0x3daf811e	0.08569549
54	0xbe26545f	-0.16243123
55	0x3e6e20f5	0.2325476
56	0xbdc5891e	-0.09645294
57	0xbe550a0e	-0.20804617
58	0x3d8da015	0.06915299
59	0xbe0f82ce	-0.14014742
60	0xbdf4001d	-0.11914084
61	0xbe0f6700	-0.14004135
62	0x3d8a9be0	0.06768012
63	0x3deef403	0.11667635
64	0x3e2bda6e	0.16782543
65	0xbe1130d3	-0.14178781
66	0xbd70f8b1	-0.05883092
67	0x3e6ebb8b	0.2331373
68	0xbe03c6c0	-0.12868786
69	0xbdb9857a	-0.09058662
70	0xbd45b4f7	-0.048268285
71	0xbe62e31c	-0.22156948
72	0xbe3d734c	-0.18501014
73	0x3e6407f4	0.22268659
74	0x3d3c7fa6	0.046020173
75	0x3d3ed908	0.046593696
76	0x3dcab526	0.098978326
77	0x3e1b8b59	0.15189876
78	0x3e2bebbc	0.16789144
79	0x3e374ace	0.1789963
80	0x3dce53f9	0.1007461
81	0x3e40def9	0.18835057
82	0x3e27115c	0.16315216
83	0xbd2bc7ac	-0.04193847
84	0x3cb74ae0	0.02237457
85	0xbe06464f	-0.13112758
86	0xbe40c136	-0.18823704
87	0x3e72b26f	0.2370088
88	0xbe3eb5a2	-0.18623975
89	0xbe202203	-0.15637974
90	0xbe7765a8	-0.24159873
91	0xbe443508	-0.19160855
92	0x3d68b2c4	0.05681111
93	0x3df59b90	0.11992562
94	0xbe556be7	-0.20841943
95	0x3ca0431c	0.01956325
96	0xbe3d6965	-0.18497236
97	0x3d4176ef	0.047232565
98	0x3e18b16c	0.14911431
99	0xbdc5648e	-0.0963832
100	0xbde19df8	-0.11016458
101	0x3e2633db	0.16230719
102	0xbe256453	-0.16151552
103	0xbd52e735	-0.051490027
104	0xbe55a290	-0.20862794
105	0x3e331f40	0.1749239
106	0x3da2a391	0.07941354
107	0xbdcbe516	-0.09955804
108	0x3e35f567	0.17769395
109	0x3e722617	0.23647343
110	0x3dd065b1	0.10175646
111	0xbe34d37b	-0.17658798
112	0xbd5ff168	-0.054673582
113	0x3e4dcdd8	0.20098054
114	0x3e3a1014	0.18170196
115	0xbda838c4	-0.08213952
116	0x3e29689c	0.16543812
117	0xbe276b12	-0.16349438
118	0x3d8970d1	0.06710971
119	0x3e61b85a	0.22042981
120	0x3d3a1100	0.04542637
121	0xbe4b5fa6	-0.19860706
122	0x3d99a368	0.075018704
123	0x3e0eb9bc	0.1393804
124	0x3e320aff	0.17387007
125	0xbe285cad	-0.16441603
126	0xbd378da9	-0.044812832
127	0xbc549d9d	-0.012977031
128	0xbd32feeb	-0.04370014
129	0xbd633036	-0.0554659
130	0xbdb87c6b	-0.09008106
131	0x3db05685	0.08610252
132	0x3df35b1f	0.11882614
133	0xbd46a521	-0.048497323
134	0x3e493de9	0.19652523
135	0xbaade36e	-0.0013266632
136	0x3d79c963	0.060983073
137	0x3d804e65	0.062649526
138	0xbdae35b4	-0.08506337
139	0xbc3242c3	-0.010880175
140	0xbce43349	-0.027856486
141	0x3dc1c420	0.09461236
142	0xbe0970c1	-0.13421918
143	0xbdeae9ef	-0.114704005
144	0xbe770d1c	-0.24126095
145	0xbdde9d20	-0.10869813
146	0x3da349ff	0.07973098
147	0x3e4ef91d	0.20212217
148	0xbe7c550b	-0.24641816
149	0xbdb82da8	-0.08993083
150	0x3e211841	0.15731908
151	0xbe0a696e	-0.1351678
152	0x3e2ccf38	0.16875923
153	0x3c248035	0.010040333
154	0xbe70b2d4	-0.23505718
155	0x3d2d0f4d	0.04225092
156	0xbe197eb8	-0.14989746
157	0x3d46e3be	0.048557036
158	0xbe656f15	-0.22405656
159	0x3e7083ac	0.23487729
160	0xbdda88f7	-0.10670655
161	0x3e23acc1	0.15983869
162	0xbe21182d	-0.15731879
163	0xbe5694d6	-0.20955214
164	0x3dc963da	0.09833498
165	0x3e19e3ff	0.1502838
166	0xbb153f06	-0.002277316
167	0xbe588794	-0.21145469
168	0xbd8c7393	-0.068579815
169	0xbe316b3d	-0.17326064
170	0x3d9101d2	0.07080425
171	0x3d25070d	0.040289927
172	0x3e31a686	0.1734868
173	0x3e7f7c9c	0.24949878
174	0xbdecf46f	-0.115700595
175	0x3e49f8ad	0.19723769
176	0x3e31a436	0.17347798
177	0x3d1c11d4	0.03810294
178	0xbe7b3722	-0.2453275
179	0xbe31cc9c	-0.17363209
180	0x3dde8437	0.10865062
181	0x3e3e16f2	0.1856344
182	0x3e08a64d	0.13344689
183	0x3cbfa3aa	0.02339347
184	0xbe1bd918	-0.15219533
185	0xbe611b20	-0.21983004
186	0xbe127025	-0.14300592
187	0x3af0d68e	0.0018374489
188	0x3d069ecc	0.032866284
189	0x3e43fa21	0.19138385
190	0xbe388922	-0.18021062
191	0x3e0605bd	0.13088126
192	0x3e58e385	0.21180542
193	0xbe675297	-0.225901
194	0xbe084262	-0.13306573
195	0xbd8eaf72	-0.06967057
196	0x3d4522e7	0.04812899
197	0x3e656e8f	0.22405456
198	0x3d517841	0.051140074
199	0x3e2d5763	0.16927867
200	0x3e4f3863	0.20236354
201	0x3e490d39	0.1963395
202	0xbe6967cf	-0.22793506
203	0xbe272d1c	-0.16325802
204	0xbc855119	-0.016274022
205	0xba5858dd	-0.0008252988
206	0x3cacc615	0.021090547
207	0x3e571cb6	0.21007046
208	0x3e67e870	0.22647262
209	0xbd95c37a	-0.07312675
210	0xbdecae95	-0.115567364
211	0x3ca5f2d7	0.020257397
212	0x3d017b58	0.03161177
213	0x3e1de3cd	0.1541893
214	0x3db5dffd	0.08880613
215	0x3d9f948b	0.07792004
216	0x3da82267	0.08209687
217	0x3e3e9d3b	0.18614666
218	0x3e187592	0.148886
219	0xbcc92db7	-0.024557931
220	0xbe329a09	-0.17441572
221	0x3e2c9749	0.16854586
222	0xbca70caa	-0.02039178
223	0xbe376707	-0.17910396
224	0xbd2a811d	-0.04162704
225	0x3e3c5e75	0.18395407
226	0xbdeb508f	-0.11489975
227	0xbcc5883c	-0.024112813
228	0x3dac94bc	0.08426806
229	0x3e37fcaf	0.17967485
230	0xbd195d8d	-0.037442733
231	0xbe37f012	-0.17962673
232	0xbdd648de	-0.10463117
233	0xbda57b93	-0.080802105
234	0x3cde570c	0.027141117
235	0xbe2de5db	-0.16982214
236	0x3e6179e0	0.22019148
237	0x3d86c56f	0.06580626
238	0xbe3871f0	-0.18012214
239	0x3e0bc526	0.13649425
240	0x3c4d8b59	0.01254543
241	0x3e7a69e6	0.2445446
242	0xbba6c151	-0.005088963
243	0xbb5b0c5c	-0.0033424115
244	0xbe7714fb	-0.24129097
245	0xbe537993	-0.20651846
246	0x3a5ae033	0.00083494483
247	0x3e5997b4	0.21249276
248	0xbe1dd23a	-0.15412226
249	0x3d48e163	0.04904307
250	0xbe3027df	-0.1720271
251	0xbe45dc76	-0.1932238
252	0xbdbb6491	-0.09150041
253	0xbe2acb55	-0.16679128
254	0xbe536a26	-0.20645961
255	0xbd9c4e40	-0.076321125

lstm.weight_hh_l0 f4 [64, 16]
0	0x3d78728a	0.060656108
1	0xbcecba20	-0.028897345
2	0x3ae99cb5	0.0017823192
3	0x3e5a9f68	0.21349871
4	0xbda75f4d	-0.08172474
5	0xbda644bb	-0.08118578
6	0x3d02ad82	0.03190375
7	0xbdf87041	-0.12130786
8	0xbdc19333	-0.09451904
9	0x3c9fe299	0.01951723
10	0x3e40881f	0.18801926
11	0x3da72fcc	0.081634134
12	0xbe1e28cd	-0.15445252
13	0x3e1aa79a	0.15102997
14	0xbdbcb028	-0.09213287
15	0x3d83fb21	0.064443834
16	0x3c72ae23	0.014812025
17	0x3e36be97	0.17846142
18	0xbd64fd78	-0.05590579
19	0xbdcff35c	-0.10153839
20	0xbd4c20f4	-0.049836114
21	0x3b0f22a2	0.002184071
22	0xbdf1bbbc	-0.118033856
23	0x3e2ff3ac	0.17182797
24	0xbe094062	-0.13403466
25	0x3d21e5ef	0.039525922
26	0xbe448cc6	-0.19194326
27	0xbcfd22da	-0.030900408
28	0xbd5c78ad	-0.053826023
29	0xbdcca94a	-0.09993227
30	0x3e05bf90	0.13061357
31	0xbe649f78	-0.22326458
32	0x3cd71051	0.026252897
33	0xbcbfe061	-0.023422422
34	0xbe0528fe	-0.13003919
35	0x3e4718b7	0.19443022
36	0x3e20b10a	0.15692535
37	0x3d9aac13	0.07552352
38	0x3b9ebb0e	0.004844076
39	0x3e0de3dc	0.13856453
40	0xbde0e38d	-0.10980902
41	0xbe5052f8	-0.2034415
42	0x3e75a7d2	0.239898
43	0xbdbf9257	-0.09354084
44	0x3d4d88b8	0.050179213
45	0x3ba46cf0	0.005017869
46	0x3e577c76	0.21043572
47	0x3e7e9cd9	0.2486452
48	0xbe2c20a6	-0.1680933
49	0xbb352147	-0.0027638243
50	0xbe4fa02f	-0.20275949
51	0x3e2565d6	0.16152129
52	0x3e7463d0	0.238662
53	0xbdc3ede9	-0.09566862
54	0x3d395231	0.0452444
55	0xbd617d1a	-0.055050947
56	0xbd78128c	-0.060564563
57	0x3e4b3e0d	0.19847889
58	0xbe6ddafe	-0.2322807
59	0xbd0b87f9	-0.03406522
60	0xba80968a	-0.0009810489
61	0xbe61af2c	-0.22039479
62	0x3dd25989	0.10270984
63	0x3e2aac7d	0.16667362
64	0xbe4b4f7c	-0.1985454
65	0x3dc5ffa2	0.09667899
66	0xbc84ce2d	-0.016211594
67	0x3e6fdd82	0.23424342
68	0xbe714561	-0.23561622
69	0x3e594b04	0.21220022
70	0xbdbe42de	-0.09290098
71	0x3e57cd90	0.2107451
72	0xbe02962e	-0.12752602
73	0x3d2d663f	0.042333838
74	0x3d6ee53d	0.058324087
75	0x3e1ee562	0.1551719
76	0x3df0022c	0.11719164
77	0x3e0f1d6b	0.13976066
78	0xbd57b85a	-0.052666046
79	0xbe4a8e4a	-0.19780841
80	0x3b455956	0.0030113063
81	0x3e6967a3	0.2279344
82	0x3e5d5ace	0.2161667
83	0xbe1693da	-0.14704838
84	0x3e301341	0.17194845
85	0x3de60bc0	0.1123271
86	0xbd3992b0	-0.045305908
87	0x3e0bbc8b	0.13646142
88	0xbc2adfce	-0.010429336
89	0x3cf914eb	0.030405482
90	0xbe27bef6	-0.1638144
91	0xbcfac6ba	-0.030612338
92	0x3e7aa487	0.24476825
93	0x3e1eb1b1	0.15497471
94	0xbe4efc1d	-0.20213361
95	0xbc68ba9f	-0.01420465
96	0x3e230df6	0.15923294
97	0xbddb19fd	-0.10698316
98	0xbd003c55	-0.031307537
99	0x3dff60b4	0.124696165
100	0x3e5726e2	0.21010926
101	0x3e684630	0.22683024
102	0xbe38ee6c	-0.180597
103	0xbe71389e	-0.23556754
104	0x3e34eac2	0.17667678
105	0xbc9e99b2	-0.019360397
106	0x3e67211b	0.22571222
107	0x3e35b167	0.17743455
108	0xbdc7e55c	-0.09760544
109	0x3d92a92a	0.07161172
110	0x3dac45f6	0.084117815
111	0xbdb73ec3	-0.08947518
112	0x3e65fb22	0.22459081
113	0x3ca83b70	0.020536155
114	0xbda74e8c	-0.081692785
115	0xbe69d4a2	-0.22835019
116	0x3e4ce1e8	0.20008051
117	0xbe7dd348	-0.24787629
118	0x3e42db49	0.19028963
119	0xbdb35190	-0.08755791
120	0xbd3b76d0	-0.045767605
121	0x3d0a58f9	0.033776257
122	0x3e7ba6ae	0.24575302
123	0xbe288f0d	-0.1646082
124	0xbe35cfe0	-0.1775508
125	0x3e19da7e	0.15024754
126	0xbdf8a1ed	-0.1214026
127	0xbdbc6426	-0.09198789
128	0x3e13ff18	0.1445278
129	0xbdd43d31	-0.10363234
130	0x3e187b49	0.1489078
131	0xbdc7af64	-0.0975025
132	0x3e44ea72	0.19230059
133	0x3e7f05a3	0.24904494
134	0x3d0da022	0.034576543
135	0xbdaa7330	-0.083227515
136	0x3e100180	0.14063072
137	0x3d8f1b9d	0.06987689
138	0x3a8e3c56	0.0010851722
139	0x3e6465c3	0.22304444
140	0xbc6ce778	-0.014459483
141	0x3db3fa5c	0.08787987
142	0xbd987da7	-0.07445841
143	0xbd39ca55	-0.045358974
144	0xbc2f2823	-0.010690722
145	0x3c89433a	0.016755689
146	0x3ddfcc30	0.109276175
147	0x3e41258d	0.1886198
148	0x3e1ceb02	0.15324023
149	0xbdd77d95	-0.10522
150	0x3e656a77	0.22403894
151	0x3e2ceaf6	0.16886505
152	0x3db8923c	0.09012267
153	0x3cdf5ea8	0.027266815
154	0xbe10e196	-0.14148554
155	0xbe18adf0	-0.14910102
156	0x3aa80fab	0.0012822052
157	0xbe3e5ac9	-0.1858932
158	0x3db37ec8	0.08764416
159	0xbe686a52	-0.22696808
160	0xbe645505	-0.22298057
161	0xbde5db6e	-0.112234935
162	0x3e135867	0.14389192
163	0x3e486ba2	0.19572309
164	0xbe57277e	-0.21011159
165	0xbe219d75	-0.15782721
166	0x3d634edf	0.05549514
167	0xbd3a9ded	-0.045560766
168	0xbe51cb16	-0.20487627
169	0x3d8e41bf	0.06946134
170	0xbe551775	-0.2080973
171	0x3c7ee114	0.0155565925
172	0x3dd0ac84	0.10189155
173	0x3e6c1555	0.23055013
174	0xbe5a6ef5	-0.21331389
175	0x3e3f2d4f	0.18669628
176	0x3d0e7fce	0.034789853
177	0x3e5ee399	0.21766509
178	0x3e7bfe2a	0.24608675
179	0xbd7f6498	-0.062351793
180	0xbd1f76f5	-0.038931806
181	0xbd7787c6	-0.060432218
182	0x3e4956b0	0.19661975
183	0xbdddb781	-0.10826016
184	0x3e291070	0.16510177
185	0x3dd29438	0.10282177
186	0x3e70b51d	0.23506589
187	0x3e3552e2	0.17707399
188	0x3e4fc504	0.20289999
189	0xbe526c9f	-0.20549248
190	0xbe06bf2c	-0.13158864
191	0xbe35a4ed	-0.17738695
192	0x3dfe4a85	0.12416557
193	0x3d5033f4	0.050830796
194	0x3dc31b84	0.095267326
195	0x3dc03291	0.09384645
196	0x3c2d4670	0.010575876
197	0x3dc352fa	0.09537311
198	0xbe0ad719	-0.13558616
199	0x3e265246	0.16242322
200	0xbe5c6564	-0.21523052
201	0xbe6b3bcb	-0.22972028
202	0x3dade490	0.084908605
203	0x3e706285	0.23475082
204	0xbdbb45da	-0.091441825
205	0x3e712b1c	0.23551601
206	0xbdb5cc22	-0.08876826
207	0xbe428f44	-0.18999964
208	0xbd1fbf00	-0.03900051
209	0x3e0db157	0.13837181
210	0xbe05276b	-0.13003318
211	0x3e7003b5	0.23438914
212	0xbde4eac4	-0.111775905
213	0xbde260de	-0.11053632
214	0xbdd50f76	-0.104033396
215	0xbe42fae3	-0.19041018
216	0x3e6ecce3	0.23320346
217	0xbe1099ad	-0.14121123
218	0xbde66213	-0.11249175
219	0xbd9b8946	-0.07594542
220	0x3e576e16	0.21038088
221	0x3deea311	0.11652196
222	0x3dbcb9f5	0.09215156
223	0xbd867b9b	-0.065665446
224	0x3e00ddd7	0.12584625
225	0x3d3bcf39	0.04585192
226	0x3e4c5d52	0.19957474
227	0x3d6254ee	0.055256777
228	0x3e3c184a	0.1836864
229	0x3e31308e	0.17303678
230	0x3d3439af	0.044000324
231	0xbe7547db	-0.23953192
232	0x3d5055e1	0.05086315
233	0xbe410170	-0.18848205
234	0x3d2fd351	0.042926136
235	0xbcec0a16	-0.028813403
236	0x3e4b76a6	0.1986948
237	0xbe383bf3	-0.17991619
238	0xbe55935c	-0.20856994
239	0x3de4a37d	0.111639954
240	0x3e28fcac	0.16502637
241	0xbd5ec302	-0.054385193
242	0x3d8aa3b7	0.067695074
243	0x3e4d6fb4	0.20062143
244	0x3ccbb305	0.024865637
245	0xbd8f0662	-0.06983639
246	0x3e140c8d	0.14457913
247	0x3e66b8ea	0.22531477
248	0xbd2dd3ad	-0.042438198
249	0x3e2db695	0.16964181
250	0x3caad7a4	0.020854779
251	0xbd56a616	-0.052404486
252	0xbcb2e927	-0.021839691
253	0xbe788d0a	-0.24272552
254	0x3df5ad8a	0.119959906
255	0xbe0b5286	-0.13605699

lstm.bias_ih_l0 f4 [64]
0	0x3dd1ffde	0.10253881
1	0xbe7091d5	-0.2349313
2	0x3dd730af	0.105073325
3	0xbe5082e0	-0.20362425
4	0x3e7624e0	0.24037504
5	0x3d73d3fc	0.059528336
6	0x3d8def1b	0.069303714
7	0x3d883996	0.06651609
8	0x3d46b023	0.04850782
9	0xbdc4779b	-0.095931254
10	0xbe78ea0f	-0.24308036
11	0x3e1921f5	0.1495436
12	0x3e1aea47	0.15128432
13	0xbd38f1d5	-0.045152504
14	0x3c73c434	0.014878321
15	0xbc823888	-0.015896097
16	0xbd68651e	-0.056737058
17	0x3e2e376d	0.17013331
18	0xbe19316f	-0.14960264
19	0xbe6f93a1	-0.2339616
20	0xbd2a2246	-0.041536592
21	0xbe15ac64	-0.14616543
22	0xbe290822	-0.16507009
23	0xbd92f522	-0.071756616
24	0xbc1e90bb	-0.009678061
25	0x3e27cffc	0.16387933
26	0x3e103142	0.1408129
27	0x3e50610d	0.20349522
28	0x3e3f7cef	0.18700002
29	0x3d9a9efc	0.07549855
30	0x391ced5d	0.00014965744
31	0xbc0092e5	-0.007847522
32	0xbe4154e6	-0.18880042
33	0x3cac7512	0.021051917
34	0xbd717785	-0.058951873
35	0xbd88ae5c	-0.066738814
36	0x3e5591e8	0.2085644
37	0x3de9cd64	0.11416128
38	0x3e2092ce	0.15681002
39	0x3e2902d0	0.16504979
40	0xbe181be7	-0.14854394
41	0x3d8602ee	0.065435275
42	0xbd202587	-0.03909829
43	0x3db27f3d	0.08715675
44	0x3e174db6	0.14775738
45	0xbd8215df	-0.06351828
46	0x3e4479bf	0.19187067
47	0x3c3fd1e4	0.011707757
48	0xbd44cbff	-0.04804611
49	0x3e27473c	0.16335768
50	0x3e461cca	0.1934692
51	0xbd91717b	-0.07101723
52	0x3e12f6f0	0.14352012
53	0xbd680893	-0.056648802
54	0xbbf72e4f	-0.007543362
55	0xbe35d4c2	-0.17756942
56	0xbdda6e27	-0.10665541
57	0x3d0537f0	0.03252405
58	0xbd6b92af	-0.057512935
59	0xbccd4744	-0.025058396
60	0x3d759709	0.05995849
61	0xbdcada99	-0.099049754
62	0x3e0a379c	0.13497776
63	0x3e7b2838	0.24527061

lstm.bias_hh_l0 f4 [64]
0	0x3e4b9d10	0.19884133
1	0x3e60ec8b	0.21965234
2	0xbd8e3ec9	-0.06945569
3	0x3bf828ff	0.0075732465
4	0xbdac2e5e	-0.08407281
5	0xbdfaa6cf	-0.122388475
6	0xbd652438	-0.055942744
7	0x3e1be9ce	0.15225908
8	0xbe6f7637	-0.23384939
9	0xbe08026b	-0.13282172
10	0x3e03a731	0.12856747
11	0x3e058b41	0.13041402
12	0xbd832c56	-0.06404941
13	0xbd660b2d	-0.056163
14	0xbd04e176	-0.03244158
15	0x3e398a91	0.18119265
16	0x3e38b266	0.18036804
17	0xbdefefa5	-0.117156304
18	0x3d2927c0	0.041297674
19	0xbe782d23	-0.24235968
20	0xbe2936b1	-0.1652477
21	0xbcbec3e6	-0.023286771
22	0xbdab2464	-0.0835655
23	0xbdf167be	-0.117873654
24	0x3e5251c3	0.20539002
25	0x3dfe2948	0.124102175
26	0x3c9ed703	0.019389635
27	0xbd96bfe3	-0.07360818
28	0x3b6cf488	0.0036156494
29	0x3e52629c	0.20545429
30	0xbd37ea8c	-0.044901416
31	0x3c9d22b2	0.019181583
32	0x3da08312	0.078375
33	0x3e14c3ad	0.1452777
34	0x3e1c4afd	0.15262981
35	0xbdeb5f24	-0.11492756
36	0x3dc5fc2c	0.096672386
37	0x3d20aa91	0.039225165
38	0x3d13529e	0.03596746
39	0xbe58f156	-0.21185812
40	0x3e69038b	0.22755258
41	0x3dd6978e	0.104781255
42	0x3cb0c4fe	0.021578308
43	0x3dc48c55	0.09597079
44	0xbd7b2061	-0.061310176
45	0xbe38940d	-0.18025227
46	0xbd7a423a	-0.061098315
47	0xbe63dae0	-0.22251463
48	0x3e5ce911	0.21573283
49	0x3dda48c8	0.10658413
50	0x3d85e9ca	0.06538732
51	0xbe2da3d9	-0.16957034
52	0xbe27051a	-0.1631054
53	0x3e11098c	0.14163798
54	0xbe4f4f15	-0.20245011
55	0x3d4722da	0.04861722
56	0x3e3f7957	0.18698631
57	0xbe5f9ba0	-0.2183671
58	0x3e34de92	0.17663029
59	0xbe530a78	-0.20609462
60	0xbd476c7f	-0.048687454
61	0x3e310f94	0.17291099
62	0x3e40c768	0.18826067
63	0x3e68a7c2	0.22720245

lstm.weight_ih_l1 f4 [64, 16]
0	0x3e5408c5	0.2070647
1	0xbe771c80	-0.24131966
2	0x3d2afc0f	0.041744288
3	0xbe64aceb	-0.22331588
4	0x3e11ab26	0.14225444
5	0x3d972d0b	0.07381638
6	0x3e452040	0.19250584
7	0x3d7039ae	0.058648758
8	0x3e2f863e	0.17141053
9	0xbc348ddd	-0.011020151
10	0xbe4d9981	-0.20078088
11	0xbe280bf7	-0.16410814
12	0xbb5ec73e	-0.003399327
13	0xbe65b9cf	-0.22434162
14	0x3e59386d	0.21212931
15	0xbe19cefe	-0.15020368
16	0xbe424eb4	-0.18975335
17	0x3e795d56	0.24352011
18	0xbe241489	-0.16023459
19	0xbde49e87	-0.11163049
20	0x3b8abb9c	0.0042337906
21	0x3da37022	0.07980372
22	0xbdb7748f	-0.08957779
23	0x3e0908e2	0.13382295
24	0xbe23e26b	-0.1600434
25	0x3d46eea7	0.04856744
26	0xbe7bdc60	-0.24595785
27	0xbe65fa90	-0.22458863
28	0x3db53d0d	0.08849535
29	0x3df6009b	0.12011834
30	0xbde48293	-0.111577176
31	0x3db3b564	0.08774832
32	0xbd87f2d1	-0.066381104
33	0x3e100d05	0.14067467
34	0x3ce643a5	0.028108427
35	0xbd644ec1	-0.055739168
36	0x3d441252	0.047869034
37	0xbe71e37c	-0.23621935
38	0x3e101209	0.1406938
39	0x3e6cb0e3	0.23114352
40	0x3e5a598c	0.21323222
41	0xbe13283a	-0.14370814
42	0xbdce5be8	-0.100761235
43	0xbde3c149	-0.111208506
44	0x3d19c9f0	0.0375461
45	0xbe343aab	-0.17600505
46	0xbe3f575b	-0.18685667
47	0xbdc639aa	-0.09678967
48	0x3e601168	0.2188164
49	0x3d86e5a2	0.06586768
50	0xbe67cfc8	-0.22637856
51	0xbdeee311	-0.11664403
52	0xbe4ad00a	-0.19805923
53	0xbd0355c5	-0.032064218
54	0x3c021a4f	0.007940843
55	0xbe2af34e	-0.16694376
56	0xbe47aa68	-0.19498599
57	0xbd49e174	-0.049287274
58	0x3c6efe0d	0.014586938
59	0x3e3c292b	0.1837508
60	0x3db9d0fd	0.090730645
61	0xbe151916	-0.14560351
62	0xbe6c4597	-0.23073421
63	0x3d47b3b6	0.04875537
64	0xbd120966	-0.035653494
65	0x3e15e152	0.14636734
66	0xbe314b55	-0.17313893
67	0xbc44d158	-0.012012802
68	0xbe3ad558	-0.18245447
69	0xbe009d99	-0.12560119
70	0xbe172dd8	-0.14763582
71	0xbd5553eb	-0.052081984
72	0xbcab8c95	-0.020941058
73	0x3e6deb56	0.23234305
74	0x3e62eb8b	0.22160165
75	0x3e47ca62	0.19510797
76	0x3d753be2	0.05987156
77	0x3b888502	0.0041662464
78	0x3e73836e	0.23780605
79	0xbe30c8ea	-0.17264143
80	0xbe6d9df9	-0.23204793
81	0xbe091e4d	-0.13390465
82	0x3e40ac50	0.18815732
83	0x3e7a12d2	0.24421242
84	0xbdd16715	-0.102247395
85	0xbe248072	-0.16064623
86	0xbe62b5ca	-0.2213966
87	0x3ded6b00	0.11592674
88	0xbdce38b4	-0.10069409
89	0x3e3faf61	0.18719245
90	0xbdb52fab	-0.088469826
91	0x3e684e2a	0.22686067
92	0x3e248528	0.1606642
93	0x3e278e9f	0.16363
94	0x3e093034	0.13397294
95	0xbe4d3356	-0.20039114
96	0x3d0ce80b	0.03440098
97	0xbe18d04e	-0.14923212
98	0xbd9d7bb9	-0.07689614
99	0x3e1e9a17	0.15488468
100	0xbe021d58	-0.12706506
101	0x3e215626	0.1575552
102	0x3c5258a6	0.012838518
103	0xbdf2c7a6	-0.11854486
104	0xbdf8a4ae	-0.12140785
105	0xbe78e289	-0.24305166
106	0x3daf9e1b	0.08575078
107	0x3c1fd84e	0.009756161
108	0x3e63f3f9	0.22261037
109	0x3db8b7b3	0.09019413
110	0x3d9ed94a	0.07756288
111	0xbc5a266f	-0.013314827
112	0x3def0a6d	0.116719104
113	0xbd1779f8	-0.036981553
114	0x3dcd79d6	0.10033004
115	0xbde8f677	-0.113751344
116	0x3e21e4d5	0.15809949
117	0x3d8cab1a	0.068685725
118	0x3e07502c	0.13214177
119	0x3c8a583e	0.01688778
120	0x3df30e2d	0.11867938
121	0x3e6765b5	0.22597392
122	0x3d1d66b0	0.03842801
123	0x3e31cf51	0.17364241
124	0xbe6a695e	-0.22891757
125	0xbca2d94b	-0.019879004
126	0xbe5e68a4	-0.21719605
127	0x3c92fc4c	0.01794257
128	0x3d40d540	0.04707837
129	0x3d904c8d	0.07045851
130	0xbdda24fb	-0.10651585
131	0x3defccba	0.1170897
132	0xbdd78c29	-0.1052478
133	0xbd8283cb	-0.06372794
134	0x3e3fe8d9	0.18741168
135	0xbe6b9a0c	-0.23007983
136	0x3d4fd307	0.05073836
137	0xbe5c49c0	-0.21512508
138	0x3ddc0c10	0.10744488
139	0xbe558f02	-0.20855334
140	0xbe70413d	-0.23462386
141	0xbd8e5fe1	-0.06951881
142	0x3e4ca13b	0.1998338
143	0x3e01494c	0.12625617
144	0x3e23b0dc	0.15985435
145	0xbd6aec6d	-0.05735438
146	0x3e62c7c1	0.22146513
147	0xbdea4810	-0.11439526
148	0xbc8c5b3e	-0.017133351
149	0xbe6a4231	-0.22876813
150	0x3c56b0d2	0.013103681
151	0x3d6b0588	0.057378322
152	0xbe75bc5b	-0.23997633
153	0x3e5770c3	0.21039109
154	0x3d40602f	0.046966728
155	0x3e72cbed	0.23710604
156	0xbddd4df4	-0.10805884
157	0x3c32aa79	0.010904902
158	0xbda2d336	-0.079504415
159	0x3e58e0ee	0.21179554
160	0xbe0eb761	-0.13937141
161	0x3e12e7e4	0.14346272
162	0xbe34134c	-0.17585486
163	0x3e4092ab	0.1880595
164	0xbe6e8ce2	-0.2329593
165	0xbdff526c	-0.124668926
166	0xbde78ccb	-0.11306151
167	0xbd2df977	-0.042474236
168	0xbb4b1b26	-0.0030991524
169	0x3da54432	0.08069648
170	0x3e659ea4	0.22423798
171	0x3e177168	0.14789355
172	0xbdf683bb	-0.12036844
173	0x3e70e9ef	0.23526739
174	0xbd1828a0	-0.037148118
175	0xbe0eefc3	-0.1395865
176	0x3dbf310b	0.09335526
177	0xbd3224ad	-0.043492008
178	0x3e7465f5	0.23867019
179	0x3ce40874	0.027836062
180	0x3e2975b2	0.16548803
181	0x3d841166	0.06448631
182	0xbe273cf5	-0.16331847
183	0x3d578d6d	0.05262511
184	0xbe142381	-0.14466669
185	0xbd89044a	-0.06690271
186	0xbda4ef5a	-0.08053465
187	0xbe4b0645	-0.1982661
188	0x3dc61f37	0.096739225
189	0x3e35096d	0.17679377
190	0xbe7c328b	-0.24628656
191	0x3e0b5798	0.13607633
192	0xbe4a4f1d	-0.19756742
193	0xbe7a5a56	-0.24448523
194	0x3db0dc4b	0.086357675
195	0xbbb86e34	-0.0056283716
196	0xbe1cdd60	-0.15318823
197	0x3e6566ee	0.22402546
198	0x3ca80eac	0.020514809
199	0xbe208f74	-0.15679723
200	0x3dead9eb	0.11467346
201	0x3c915e66	0.017745208
202	0xbd23f3d9	-0.040027473
203	0xbe368f90	-0.17828202
204	0xbc954508	-0.018221393
205	0x3e13f69b	0.14449541
206	0xbdf9cfbc	-0.12197825
207	0x3debeec8	0.11520153
208	0xbe7b9498	-0.24568403
209	0xbdc1bb58	-0.09459561
210	0xbda116cd	-0.07865677
211	0xbe6134a4	-0.21992737
212	0x3db6fbbc	0.08934733
213	0xbe4871b3	-0.19574623
214	0x3e1427ad	0.1446826
215	0x3d51ac14	0.051189497
216	0x3b596228	0.0033170078
217	0xbe087c0a	-0.13328567
218	0xbdae3a9e	-0.08507274
219	0x3d78a7e5	0.06070699
220	0x3e761e9d	0.24035116
221	0xbdf53cd1	-0.119744904
222	0xbe2e2f7e	-0.17010304
223	0xbde3181a	-0.110885814
224	0xbe37f675	-0.1796511
225	0xbd069a9c	-0.03286229
226	0xbe366938	-0.17813575
227	0x3e3994d8	0.18123186
228	0x3e35b6d3	0.17745523
229	0xbe22d015	-0.1589969
230	0x3e61d397	0.22053371
231	0x3d545309	0.051837
232	0xbe22df33	-0.15905456
233	0x3daa1b4a	0.08305986
234	0xbe685753	-0.22689562
235	0xbe0847ce	-0.13308641
236	0xbe38cd51	-0.18047072
237	0xbe0e7487	-0.13911639
238	0xbd5d6c33	-0.054058265
239	0x3d693a31	0.05694026
240	0x3d45dfc0	0.048309088
241	0xbe7adf8a	-0.24499336
242	0xbe75851c	-0.23976558
243	0xbd1a1dea	-0.037626185
244	0x3e5a3f85	0.21313293
245	0x3dbc6d04	0.092004806
246	0x3e642137	0.22278295
247	0xbdf2abef	-0.118492
248	0x3d8eb7d3	0.069686554
249	0xbe5f0acf	-0.21781467
250	0x3e054929	0.1301619
251	0xbba9c268	-0.0051806457
252	0xbc991044	-0.018684514
253	0xbe09a995	-0.13443597
254	0xbe603410	-0.2189486
255	0xbdbd1539	-0.092325635

lstm.weight_hh_l1 f4 [64, 16]
0	0x3df4a2bd	0.11945102
1	0x3e7c581d	0.24642988
2	0xbe765cfb	-0.24058907
3	0xbd4110d9	-0.047135208
4	0x3df895f2	0.12137975
5	0xbd77c8b2	-0.060494132
6	0xbe504a7d	-0.20340915
7	0xbe14b32f	-0.14521478
8	0xbe0509b2	-0.1299198
9	0x3dd489f4	0.10377875
10	0x3e22e8e3	0.15909152
11	0xbce9a8df	-0.028522907
12	0xbe5163fc	-0.20448297
13	0x3d1154b6	0.035481177
14	0x3d8f380b	0.06993111
15	0xbdc106fa	-0.09425159
16	0x3db07f89	0.086180754
17	0xbdd13368	-0.10214883
18	0x3dac4b11	0.08412755
19	0x3e372a2f	0.17887186
20	0x3dff5de8	0.12469083
21	0xbcc1d28c	-0.023659967
22	0x3e75e578	0.24013317
23	0xbcb3d9d4	-0.021954454
24	0xbe645859	-0.22299327
25	0x3e37f86e	0.17965862
26	0x3e6e11b5	0.23248942
27	0x3de9b37d	0.11411188
28	0x3e6053e5	0.21907003
29	0x3e0a4864	0.13504177
30	0x3dd0f74c	0.10203418
31	0x3e14345b	0.14473097
32	0xbe44ec7d	-0.19230838
33	0xbb5c68c0	-0.0033631772
34	0xbddbcbf9	-0.10732264
35	0x3d8ce0a7	0.068787865
36	0xbe6241e4	-0.22095448
37	0x3c69312f	0.014232918
38	0x3dc87c33	0.09789314
39	0xbdbd5047	-0.09243827
40	0xbdceb336	-0.100927755
41	0xbe26bd30	-0.16283107
42	0x3d8dc3d5	0.069221176
43	0xbe5683c9	-0.2094871
44	0xbd53e044	-0.05172755
45	0x3c675034	0.014118243
46	0x3d91ad5d	0.071131445
47	0xbe5c03ce	-0.21485826
48	0x3d4ea2f8	0.050448388
49	0xbdc8ddb8	-0.098079145
50	0xbcee72fb	-0.029107561
51	0xbe3ace46	-0.1824275
52	0xbe4911ba	-0.19635668
53	0x3d0bacbe	0.034100287
54	0x3d2de228	0.042452008
55	0x3e5c049c	0.21486133
56	0x3e70e1fc	0.23523706
57	0x3e3b0c6f	0.18266462
58	0x3dc66321	0.09686876
59	0x3e2a4126	0.16626415
60	0x3ddaa750	0.106764436
61	0xbe6e7c8e	-0.23289701
62	0x3e3a4eb2	0.18194082
63	0x3cf8a542	0.030352239
64	0xbd7f1a11	-0.06228072
65	0xbd98144a	-0.07425745
66	0x3e4c5408	0.1995393
67	0x3e32a48a	0.17445579
68	0xbcbe8896	-0.023258489
69	0xbdbf2328	-0.093328774
70	0xbe09a710	-0.13442636
71	0x3e13791e	0.14401671
72	0xbe1b3a4d	-0.15158959
73	0xbe298bb5	-0.165572
74	0xbe19b9ce	-0.15012285
75	0x3d947b53	0.07250085
76	0x3e4457fc	0.19174188
77	0x3d4c7766	0.049918555
78	0x3dbef079	0.0932321
79	0xbe4eb460	-0.20185995
80	0xbe3a4aee	-0.18192646
81	0xbe165e9c	-0.14684528
82	0xbe2468f6	-0.16055664
83	0xbde486ec	-0.11158547
84	0xbe1b0d5a	-0.15141812
85	0xbda8bc01	-0.08238984
86	0xbe1e5f58	-0.15466058
87	0x3d99878d	0.074965574
88	0x3bcfb48f	0.006338663
89	0x3c43eb6c	0.011957984
90	0x3dd9fa24	0.10643414
91	0xbe6612cb	-0.22468106
92	0xbdc95aa2	-0.0983174
93	0xbc0733be	-0.008252082
94	0xbe6f6da2	-0.23381665
95	0x3e07ca4d	0.13260765
96	0xbe4035a6	-0.18770465
97	0x3e2d13bc	0.1690206
98	0x3e7d60cd	0.24743958
99	0x3d5306e1	0.051520232
100	0xbdf936ed	-0.121686794
101	0x3e34b5cd	0.17647476
102	0xbe27d6f6	-0.16390595
103	0x3c416e58	0.011806093
104	0x3e20831a	0.15675011
105	0x3e700a5c	0.23441452
106	0x3c95df70	0.01829502
107	0xbc9b9a20	-0.018994391
108	0xbcb191f5	-0.021676043
109	0xbe783705	-0.24239738
110	0x3d36038f	0.044436987
111	0xbe4b2d60	-0.19841528
112	0x3cb7ddda	0.022444654
113	0xbd737e67	-0.05944672
114	0x3e22bb45	0.1589175
115	0xbdccfc2d	-0.10009036
116	0x3e35f656	0.17769751
117	0xbd74430a	-0.059634246
118	0xbd460453	-0.048343968
119	0xbe68fdf6	-0.22753128
120	0x3e5e7a96	0.2172645
121	0x3cb08b89	0.02155091
122	0xbe66aef9	-0.22527684
123	0x3c66c7a3	0.014085683
124	0x3dd19bb1	0.10234774
125	0xbd584beb	-0.052806776
126	0x3e50e2cc	0.20399016
127	0x3dfa5891	0.12223924
128	0xbd031df8	-0.032011002
129	0x3e7ffc5f	0.24998616
130	0x3e349bad	0.1763751
131	0xbcfb3533	-0.030665016
132	0xbcb10d55	-0.021612803
133	0x3d9d428c	0.076787084
134	0xbdb26f25	-0.087126054
135	0x3e1d89c7	0.15384589
136	0xbe7648c3	-0.24051194
137	0xbe09100b	-0.13385026
138	0x3dea96d7	0.11454552
139	0xbe75bf0a	-0.23998657
140	0xbda989a6	-0.082782075
141	0xbe082576	-0.1329554
142	0x3e0ab4c3	0.13545518
143	0x3c4e74f4	0.012601126
144	0xbe36065a	-0.1777586
145	0x3e4dfa99	0.20115127
146	0xbdea5af3	-0.114431284
147	0xbce1f235	-0.027581314
148	0x3dacfc35	0.08446542
149	0xbe2b227e	-0.16712376
150	0xbcbc6a2c	-0.022999845
151	0xbdabc1cd	-0.08386574
152	0xbd733990	-0.059381068
153	0xbdbadebb	-0.09124514
154	0x3e2430da	0.1603426
155	0xbdfaf9c4	-0.1225467
156	0xbe2d1a10	-0.16904473
157	0x3ddd8325	0.108160295
158	0x3da58c6a	0.080834225
159	0x3b2058f9	0.0024467094
160	0x3ca98ac1	0.020696046
161	0x3e7b69cd	0.24552079
162	0xbdaae5ca	-0.0834461
163	0xbe64756e	-0.22310421
164	0xbe7c337a	-0.24629012
165	0x3d851dd3	0.06499829
166	0x3dc77be2	0.09740426
167	0x3b5c9feb	0.0033664654
168	0xbe54b5c8	-0.20772469
169	0xbe47b608	-0.19503033
170	0xbe2e95df	-0.17049359
171	0x3e24ac07	0.16081248
172	0x3d494355	0.04913648
173	0xbe0eaad6	-0.13932356
174	0xbe720546	-0.23634824
175	0x3e1327bb	0.14370625
176	0x3b2e1f00	0.002656877
177	0x3e7e6ecb	0.24846952
178	0xbe51cd40	-0.20488453
179	0xbe4fa3f3	-0.20277385
180	0x3d30b828	0.043144375
181	0x3e2b84fe	0.16749951
182	0x3e291da2	0.1651521
183	0x3e7e90f1	0.24859978
184	0x3e22f8aa	0.1591517
185	0x3de48fcc	0.111602396
186	0xbe1d5d95	-0.1536773
187	0x3e7c4f4a	0.24639621
188	0xbde2ab8f	-0.110678785
189	0x3e24a61e	0.16078994
190	0x3dd299ec	0.102832645
191	0xbe17c4ab	-0.14821117
192	0xbcb75e25	-0.022383759
193	0xbcab1af8	-0.020886883
194	0x3e41347c	0.18867677
195	0x3e43e4a8	0.19130194
196	0x3d5ba595	0.05362471
197	0xbe11960f	-0.14217399
198	0x3d91dc5b	0.071221076
199	0x3e51d48d	0.20491238
200	0xbe07ac28	-0.13249266
201	0x3e4d09a4	0.20023209
202	0x3d67b21e	0.05656635
203	0x3e0dadaa	0.13835779
204	0x3daf7a0e	0.08568202
205	0x3e21a961	0.15787269
206	0xbe59d6c2	-0.2127333
207	0x3dd35ffa	0.103210405
208	0xbe5dfe8f	-0.21679138
209	0xbc8bb6e1	-0.017054977
210	0x3e48331c	0.19550747
211	0xbe51efe4	-0.20501667
212	0xbe42b9fa	-0.19016257
213	0xbde06536	-0.109568045
214	0x3c1a12c6	0.00940389
215	0xbd0d95cb	-0.03456668
216	0xbe48f156	-0.19623312
217	0x3d0570fb	0.03257845
218	0xbd809f6d	-0.06280408
219	0xbdef2185	-0.11676315
220	0x3b3327d0	0.0027336963
221	0x3daddf26	0.08489828
222	0x3d24496c	0.040109083
223	0xbe29b2f5	-0.16572173
224	0x3e2d840a	0.169449
225	0x3d411868	0.047142416
226	0xbdd1b92c	-0.10240397
227	0x3e5d976e	0.21639797
228	0x3d4e75cd	0.050405312
229	0x3e0514ae	0.1299617
230	0x3e3503e9	0.17677273
231	0xbb90d726	-0.004420179
232	0x3e52f8f3	0.20602779
233	0xba98cd55	-0.0011657873
234	0x3e4cd4da	0.20003071
235	0x3cf89fee	0.030349698
236	0x3deb86d7	0.11500328
237	0x3e00eee0	0.12591124
238	0xbe0de448	-0.13856614
239	0x3e5fb17c	0.21845049
240	0x3bfd7fb3	0.00773617
241	0x3dbca1c8	0.09210545
242	0xbe3c952a	-0.18416277
243	0xbdbf1f28	-0.093321145
244	0x3e26ccf4	0.16289121
245	0xbe21436a	-0.15748373
246	0x3d0da488	0.034580737
247	0x3e60867f	0.21926306
248	0xbe7316b6	-0.23739132
249	0xbb1aee97	-0.0023640746
250	0x3d25748a	0.040394343
251	0x3e279248	0.16364396
252	0xbdab8d45	-0.083765544
253	0xbe7a5293	-0.24445562
254	0xbe1e535d	-0.15461488
255	0x3d99f6d3	0.07517781

lstm.bias_ih_l1 f4 [64]
0	0x3cb1c174	0.021698691
1	0xbe74110d	-0.2383463
2	0x3ce90a39	0.028447257
3	0xbe627f87	-0.2211896
4	0xbe36d784	-0.1785565
5	0xba1fd4cf	-0.00060970796
6	0xbcddf44f	-0.027094034
7	0xbd8edacb	-0.06975325
8	0x3e1455ab	0.14485805
9	0x3caea363	0.021318143
10	0x3d4dbdca	0.050229825
11	0x3dd26e76	0.10274975
12	0x3c738fd1	0.0148658315
13	0xbe62c85e	-0.22146747
14	0xbdbdca1b	-0.09267064
15	0x3e1e2fa1	0.15447856
16	0x3e120cb7	0.14262663
17	0x3db196e7	0.086713605
18	0x3e6621b2	0.22473791
19	0xbe050365	-0.12989576
20	0xbd99aeb9	-0.07504029
21	0xbd0816db	-0.03322492
22	0xbd7d4c0e	-0.06184011
23	0x3e5d2ecb	0.21599881
24	0xbe801daa	-0.25022632
25	0x3d4b7b28	0.049677998
26	0x3e7a0db4	0.2441929
27	0xbe0df3d3	-0.13862543
28	0x3e4c2f85	0.19940002
29	0xbe5c97a4	-0.21542221
30	0x3d2e0c29	0.042492066
31	0xbe139da1	-0.144156
32	0x3dbca548	0.092112124
33	0x3d562b4f	0.052287396
34	0x3ce1c46a	0.027559478
35	0xbd2874bc	-0.04112695
36	0xbdbaef26	-0.09127645
37	0xbe8fe4f3	-0.28104362
38	0x3cb04782	0.021518473
39	0x3e77b5f5	0.24190505
40	0xbe28c95b	-0.16483061
41	0xbdd6f546	-0.10496001
42	0x3d6dbc51	0.05804092
43	0x3e081842	0.13290504
44	0x3dac4bfa	0.08412929
45	0x3e25761e	0.1615834
46	0x3cd5809a	0.026062299
47	0xbcbf9578	-0.023386702
48	0xbe5644a8	-0.20924628
49	0xbe7f893b	-0.24954693
50	0xbe3ddb2a	-0.18540636
51	0x3e00aeef	0.12566732
52	0x3e654381	0.22389032
53	0x3e777470	0.24165511
54	0x3e3f5697	0.18685375
55	0x3c5bc80e	0.013414396
56	0x3e2fb73f	0.17159747
57	0x3dc9ea80	0.098591805
58	0xbe2f406d	-0.1711442
59	0xbd3e4cb8	-0.046459883
60	0xbe6c6ebf	-0.23089121
61	0x3e5bb9bd	0.21457572
62	0x3d5fa300	0.05459881
63	0x3e690cf5	0.22758849

lstm.bias_hh_l1 f4 [64]
0	0xbcfe90cc	-0.031074904
1	0x3e4b93eb	0.19880645
2	0x3df8420a	0.12121971
3	0xbcf9316d	-0.030419076
4	0xbc158732	-0.009126471
5	0x3e3b4b22	0.1829038
6	0xbd08936e	-0.033343725
7	0x3e47972a	0.19491258
8	0x3d5e7d5e	0.05431878
9	0xbdc1e39b	-0.094672404
10	0xbdf0914f	-0.117464654
11	0xbdf81a86	-0.12114434
12	0x3e25058b	0.16115396
13	0x3e417bb6	0.18894848
14	0xbdf015e7	-0.117229275
15	0xbe6c3abb	-0.23069279
16	0x3e104c47	0.14091597
17	0xbd67e805	-0.056617755
18	0xbe66e3aa	-0.22547784
19	0x3d5755cf	0.052572068
20	0xbcd03798	-0.025417134
21	0x3e3c8ed1	0.18413855
22	0x3d57c0ca	0.052674092
23	0xbe1d7651	-0.15377165
24	0xbd3ae6f2	-0.045630403
25	0xbe357770	-0.17721343
26	0x3decf4ab	0.11570104
27	0x3d967b3c	0.07347724
28	0x3e17d7f9	0.14828481
29	0xbe3d7eb6	-0.18505368
30	0xbe0e48e3	-0.13894992
31	0xbe1dab45	-0.15397365
32	0xbe46f3a2	-0.19428876
33	0xbe713e06	-0.23558816
34	0xbe6a8b9c	-0.22904819
35	0x3e424a55	0.18973668
36	0xbdb6ceb2	-0.08926143
37	0xbdae35dc	-0.085063666
38	0x3d62ebda	0.055400707
39	0x3d8d6dfb	0.06905743
40	0x3e0af25e	0.13569018
41	0xbe3dc0be	-0.18530557
42	0x3e5bbaa5	0.21457918
43	0xbc74caa9	-0.014940896
44	0xbe00653a	-0.12538615
45	0x3e24d3ee	0.1609647
46	0xbe5a86bd	-0.21340461
47	0xbde3245a	-0.11090918
48	0x3e0f6696	0.14003977
49	0x3dc728ba	0.09724565
50	0xbdbe65d9	-0.0929677
51	0xbca3077b	-0.019901028
52	0xbd3e3858	-0.046440452
53	0x3dd7be0d	0.10534296
54	0x3d4be678	0.04978034
55	0x3dbcad66	0.092127606
56	0x3e52e3eb	0.20594756
57	0xbe2c6fa2	-0.1683946
58	0xbe46d6cf	-0.1941788
59	0xbd710e18	-0.05885133
60	0xbde6d452	-0.11270966
61	0xbe36177f	-0.177824
62	0x3e6dd936	0.2322739
63	0x3e53d4fd	0.20686717

attention.weight f4 [1, 16]
0	0x3e4ea9a9	0.20181908
1	0xbe1dbe6c	-0.15404671
2	0xbcf3083e	-0.029667016
3	0xbe4735b5	-0.19454081
4	0xbdb877d7	-0.09007233
5	0x3e553fa4	0.20825058
6	0x3d002f4f	0.031295117
7	0x3db1b592	0.0867721
8	0xbe7e7b40	-0.24851704
9	0x3dd2b014	0.102874905
10	0x3e2caf11	0.16863658
11	0xbdc47226	-0.095920846
12	0x3e4267b1	0.18984868
13	0x3de696c4	0.11259225
14	0xbe3af407	-0.18257152
15	0xbe3fead2	-0.1874192

fc.weight f4 [19, 16]
0	0xbe7482cb	-0.23878019
1	0xbe2f8770	-0.17141509
2	0x3dd117b5	0.102096
3	0xbda8fbea	-0.08251174
4	0xbc2248ba	-0.009905035
5	0xbdc7ab49	-0.09749467
6	0x3e24fc7b	0.16111939
7	0x3e4e3933	0.20139007
8	0x3e3955b6	0.18099102
9	0xbe5dd96a	-0.21664968
10	0xbd9e011b	-0.077150546
11	0x3df205bb	0.11817499
12	0x3e1af3ea	0.15132108
13	0xbd6cfa79	-0.057856057
14	0x3e0dd1d6	0.13849577
15	0xbbb6359b	-0.0055605895
16	0x3cddaae6	0.02705903
17	0x3e2b8e89	0.16753592
18	0x3e2df1d5	0.16986783
19	0xbe34b2b4	-0.17646295
20	0xbe1b156a	-0.15144888
21	0x3db30e7b	0.08742996
22	0x3e19e323	0.15028052
23	0xbd6a0ed4	-0.057143047
24	0x3e62c139	0.22144021
25	0xbcf9b7f9	-0.030483233
26	0xbe00e507	-0.12587367
27	0xbcca2325	-0.024674961
28	0xbe5b01a4	-0.21387345
29	0x3d9f8c8f	0.07790481
30	0xbe6bda66	-0.23032531
31	0x3e6cdc8c	0.23131007
32	0xbe3c9692	-0.18416813
33	0x3e2eec63	0.17082362
34	0xbe34c00d	-0.17651387
35	0xbd165beb	-0.036708754
36	0xbe10b8d1	-0.14133002
37	0x3e0e4d21	0.1389661
38	0x3e12db49	0.14341463
39	0xbe793941	-0.24338247
40	0xbe59a7f7	-0.2125548
41	0x3d42cc56	0.04755815
42	0xbc617262	-0.013760181
43	0xbbcc8b8c	-0.006242221
44	0x3dadb1e9	0.08481199
45	0xbd5c7411	-0.053821627
46	0x3e5c5289	0.2151586
47	0x3cba3ba6	0.02273352
48	0xbdfa94be	-0.122354016
49	0x3d9babf9	0.076011606
50	0xbe555c07	-0.20835887
51	0xbdf4400d	-0.11926279
52	0x3d9d3f3c	0.076780766
53	0xbdf48f4f	-0.119413964
54	0xbe729515	-0.23689683
55	0x3e0cdd12	0.13756207
56	0x3d7c4614	0.06159027
57	0x3d5b809d	0.053589452
58	0x3dc861b7	0.097842626
59	0xbe725f83	-0.23669247
60	0xbdf6ebff	-0.120567314
61	0xbded1be1	-0.11577583
62	0x3e6f28a6	0.2335535
63	0xbde4a27f	-0.11163806
64	0xbe263adf	-0.16233395
65	0xbdada165	-0.08478049
66	0x3ce8223c	0.028336637
67	0x3dce8eb4	0.10085812
68	0x3e3b7169	0.18304981
69	0x3e3d2936	0.18472752
70	0x3ccea7a7	0.025226427
71	0x3e65adb7	0.22429548
72	0x3e090ec7	0.13384543
73	0x3e0e704f	0.1391003
74	0xbe5ed74c	-0.21761817
75	0x3c8c9ec7	0.017165555
76	0xbd4bb3ce	-0.049732022
77	0xbe74e9ed	-0.2391736
78	0xbdf98a2c	-0.12184557
79	0x3e449157	0.19196068
80	0x3dc02a01	0.093830116
81	0x3e6fd0c3	0.2341948
82	0x3e32f226	0.17475185
83	0xbb01461c	-0.0019725626
84	0x3e64d6fa	0.22347632
85	0x3d69b47d	0.057056893
86	0xbd18f756	-0.037345253
87	0xbde25dc5	-0.11053041
88	0x3e25de89	0.16198172
89	0x3df1185a	0.11772223
90	0x3e2e6b80	0.17033195
91	0xbd3e0d65	-0.046399493
92	0xbe697291	-0.2279761
93	0x3d32d0a1	0.043655995
94	0x3ced3876	0.028957587
95	0xbe24ab8c	-0.16081065
96	0x3d8b6169	0.06805689
97	0xbc9e9dfd	-0.019362444
98	0x3e69a86b	0.22818153
99	0x3c3e3770	0.011609897
100	0xbe028935	-0.12747653
101	0x3e5c8137	0.21533667
102	0x3bac88ba	0.0052653225
103	0xbd603f98	-0.054748148
104	0x3dfae690	0.122510076
105	0x3e859e90	0.26097536
106	0x3dd220c9	0.102601595
107	0xbb68e242	-0.003553525
108	0x3e5df7cb	0.21676557
109	0xbdeca84e	-0.11555539
110	0x3e6817be	0.22665307
111	0xbe0af775	-0.1357096
112	0x3c8e7db8	0.017393932
113	0x3e7c9023	0.24664359
114	0x3e005766	0.1253334
115	0xbd580d51	-0.052747075
116	0x3e169e08	0.14708722
117	0x3e317a24	0.17331749
118	0xbe6a6880	-0.22891426
119	0xbd4cafeb	-0.049972456
120	0xbe445df2	-0.19176462
121	0xbca0d7de	-0.019634183
122	0xbd4bddc1	-0.049772028
123	0xbdf213e1	-0.11820198
124	0xbd90e50f	-0.070749395
125	0x3dfff14c	0.124971956
126	0x3b29aef3	0.0025891631
127	0xbe735874	-0.23764211
128	0x3d20f59b	0.039296728
129	0xbe809a7c	-0.25117862
130	0xbe371017	-0.17877232
131	0x3e1cc935	0.1531113
132	0x3e45a025	0.19299372
133	0xbdc4e6a7	-0.09614306
134	0xbe1a5470	-0.15071273
135	0x3df4b87c	0.1194925
136	0xbe75dd1c	-0.24010128
137	0x3e142872	0.14468554
138	0x3e35f096	0.17767558
139	0x3de21f0e	0.110410795
140	0x3d90680a	0.07051094
141	0x3d5f9be2	0.05459202
142	0xbe46f84c	-0.19430655
143	0xbdd3e78f	-0.10346901
144	0x3e16212d	0.14661093
145	0x3e40fb17	0.18845783
146	0xbcbf1886	-0.023327123
147	0x3d84d58f	0.064860456
148	0xbe6aa059	-0.2291273
149	0x3e15d646	0.1463252
150	0xbe110dc9	-0.14165415
151	0xbddd9dbb	-0.108211
152	0x3e76f13b	0.2411546
153	0xbde40754	-0.1113421
154	0xbdd41ebe	-0.10357426
155	0x3d6232c9	0.055224214
156	0x3e31588c	0.17318934
157	0x3e74bc9b	0.23900072
158	0x3c18fa30	0.009336993
159	0x3e214a78	0.15751064
160	0x3e349ba1	0.17637493
161	0xbd3670c5	-0.04454114
162	0xbe4e153a	-0.20125285
163	0x3bdcc31b	0.0067371256
164	0xbdabe9ff	-0.083942406
165	0x3dabd706	0.08390622
166	0xbe3b07fe	-0.18264768
167	0xbe287cf5	-0.16453917
168	0xbe418162	-0.18897012
169	0xbe44953b	-0.19197552
170	0x3e459a5e	0.19297168
171	0xbe7c5749	-0.24642672
172	0xbc4823f5	-0.012215604
173	0xbe1c814f	-0.15283702
174	0xbdda2981	-0.106524475
175	0xbd96e3cf	-0.0736767
176	0x3df8e27a	0.12152572
177	0x3e32d926	0.17465648
178	0xbd419fd4	-0.047271565
179	0x3c0268eb	0.007959585
180	0xbba98744	-0.0051735956
181	0x3e721c46	0.23643598
182	0x3de20b1b	0.110372745
183	0xbd73d7f4	-0.05953212
184	0x3e2f1452	0.17097595
185	0xbe42bef3	-0.19018154
186	0x3dbcfa6f	0.09227454
187	0x3e404224	0.1877523
188	0xbdfb982b	-0.12284883
189	0x3db8414c	0.089968294
190	0x3df1a9d3	0.117999695
191	0xbe5300b6	-0.2060574
192	0x3d87c695	0.066296734
193	0x3e38e437	0.18055807
194	0x3c3bf8a6	0.011472857
195	0xbd453fd7	-0.048156586
196	0xbdc25cda	-0.09490366
197	0xbe35b67b	-0.17745392
198	0x3d7f163c	0.062277064
199	0xbe67fcef	-0.2265508
200	0xbe5d6c35	-0.21623309
201	0xbdd83d45	-0.10558561
202	0xbe696608	-0.22792828
203	0x3e77395c	0.24142975
204	0xbdb75f37	-0.08953708
205	0xbe036227	-0.12830411
206	0x3d6f03b0	0.058353126
207	0x3dd2db19	0.10295696
208	0x3e46f615	0.1942981
209	0xbdbbf24e	-0.09177075
210	0xbd00d196	-0.031449877
211	0xbe41b683	-0.18917279
212	0xbe62f189	-0.22162451
213	0xbdc58734	-0.096449286
214	0x3cd91586	0.026499521
215	0xbe09bc40	-0.13450718
216	0xbd891d84	-0.06695083
217	0x3ddc8f95	0.107695736
218	0x3d2d961b	0.04237948
219	0x3e157cbe	0.14598367
220	0x3e00233e	0.12513444
221	0x3e020b0b	0.12699525
222	0xbdff0371	-0.12451828
223	0x3e0e73e9	0.13911404
224	0xbe678cba	-0.22612277
225	0x3d980bd7	0.07424133
226	0xbe255b3a	-0.16148081
227	0x3d8e13ba	0.06937356
228	0xbe690c9c	-0.22758716
229	0xbd3a2e18	-0.045454115
230	0x3e1e47ae	0.15457031
231	0xbdf90c54	-0.121605545
232	0x3e1de572	0.15419558
233	0xbd32d92d	-0.043664146
234	0x3e731511	0.23738505
235	0x3e737501	0.23775102
236	0xbe1a0ad9	-0.150432
237	0xbd6940d9	-0.05694661
238	0xbd5684a4	-0.05237259
239	0xbdc54ba2	-0.096335664
240	0x3da2bb2f	0.07945859
241	0xbe6ce37a	-0.2313365
242	0xbe1e8dd4	-0.1548379
243	0xbd20eca6	-0.039288186
244	0xbe626892	-0.22110203
245	0xbe7a3e16	-0.24437746
246	0x3dd415df	0.10355734
247	0xbe518dec	-0.20464295
248	0x3e291e29	0.16515411
249	0xbe1b576c	-0.15170068
250	0xbc849dc5	-0.016188512
251	0x3e1e2240	0.15442753
252	0xbe803cb4	-0.25046313
253	0xbe772b62	-0.24137643
254	0x3c0deeed	0.008662921
255	0xbdd45e34	-0.1036953

fc.bias f4 [19]
0	0x3d0b30e2	0.033982165
1	0x3df43f0a	0.11926086
2	0x3d1884bc	0.03723596
3	0xbdb31077	-0.08743375
4	0xbd473df1	-0.048643056
5	0xbda0428e	-0.07825194
6	0x3e11a499	0.14222945
7	0xbb8f5a27	-0.0043747607
8	0xbe09938a	-0.13435188
9	0x3d9d0a0e	0.076679334
10	0xbe264c63	-0.16240077
11	0xbe00ed78	-0.12590587
12	0xbe0c2952	-0.13687637
13	0x3cf7aec1	0.030234696
14	0xbda84c32	-0.08217658
15	0xbdb85ffb	-0.09002682
16	0x3d878499	0.06617088
17	0xbdadb259	-0.08481283
18	0x3e4f7fc8	0.20263588
