model/lstm_model_b.pth (torch, 228862 bytes, 10 tensors)

lstm.weight_ih_l0 f4 [256, 19]
0	0xbd7e0ef5	-0.062025983
1	0x3cab6c0c	0.020925544
2	0xbc9a6c1e	-0.018850382
3	0xbdaad116	-0.08340661
4	0xbdc7d273	-0.09756937
5	0x3d4b2734	0.049597934
6	0x3c943727	0.018092705
7	0xbc801a5d	-0.015637571
8	0xbc99f32c	-0.018792711
9	0x3cb2b538	0.021814927
10	0xbca6291b	-0.020283272
11	0xbc49084e	-0.012270046
12	0x3bbaa599	0.0056960103
13	0xbdedd4fb	-0.116128884
14	0x3dacc35a	0.08435698
15	0xbda0c86f	-0.0785073
16	0x3c3c6ca7	0.011500514
17	0xbde58362	-0.112067
18	0x3acd9a66	0.0015686273
19	0xbdc86b42	-0.09786083
20	0xbe01a8b7	-0.12662016
21	0x3d91f5c9	0.07126958
22	0xbe051c1a	-0.12999001
23	0xbdec5b56	-0.115408584
24	0xbd4b11ea	-0.04957763
25	0xbd1b07e7	-0.037849333
26	0x3d315cf0	0.043301523
27	0xbd0713de	-0.03297793
28	0xbc8afddd	-0.016966755
29	0x3d31dd66	0.043424033
30	0x3db46e9d	0.0881016
31	0xbd5c5ab7	-0.05379745
32	0x3ca4cf99	0.020118522
33	0x3dcdf77f	0.10056972
34	0x3d8c2f58	0.068449676
35	0x3e1f0547	0.15529357
36	0xbd316711	-0.043311182
37	0x3b909bd6	0.0044131083
38	0xbc392627	-0.0113006
39	0x3cca1872	0.02466986
40	0xba89e5b6	-0.001052073
41	0xbddbf751	-0.10740531
42	0xbc39326e	-0.011303527
43	0x3e07c78d	0.13259716
44	0x3db8ee3c	0.090298146
45	0x3d638f8e	0.055556826
46	0x3df2c9fe	0.11854933
47	0xbdfa6cf8	-0.122278154
48	0x3d199aa7	0.037501004
49	0xbc8a08a0	-0.016849816
50	0x3de9b9b4	0.11412373
51	0x3dace6e6	0.08442478
52	0x3db16512	0.08661856
53	0x3d6879a3	0.056756627
54	0xbd4a5708	-0.049399406
55	0xbda9bf5e	-0.082884535
56	0xbe108562	-0.14113382
57	0x3d01b963	0.03167094
58	0x3dbd1e80	0.09234333
59	0x3dd27546	0.102762744
60	0x3ab2d7d7	0.0013644648
61	0xbd4f60f9	-0.05062959
62	0x3bfc56f3	0.007700795
63	0xbddead21	-0.108728655
64	0x3d2a9781	0.04164839
65	0x3cc4a1e4	0.024002977
66	0xbde37632	-0.11106528
67	0x3b548bdb	0.0032431993
68	0x3d4237a1	0.047416333
69	0x3c59833f	0.01327592
70	0xbdd63213	-0.1045877
71	0x3b3c7064	0.0028753513
72	0x3d6fdedf	0.058562156
73	0x3cdf9aca	0.027295489
74	0x3e00bfb4	0.12573129
75	0x3dbcac7a	0.09212585
76	0xbdb95b93	-0.090506695
77	0x3d302504	0.04300405
78	0xbcf1320d	-0.029442811
79	0x3d34ae99	0.04411182
80	0x3da72f2d	0.08163295
81	0xbd9d723a	-0.076878026
82	0x3cd23c9d	0.025663668
83	0x3d8aaee8	0.06771642
84	0xbe0e9248	-0.1392299
85	0xbc279f33	-0.010230827
86	0xbd7e8451	-0.062137906
87	0x3d9ef9b2	0.07762469
88	0x3db324f9	0.08747286
89	0xbc154656	-0.009111008
90	0xbdbfed8d	-0.09371481
91	0xbe008a7e	-0.1255283
92	0xbdbed200	-0.09317398
93	0xbcd6eb3a	-0.026235212
94	0x3da16ae2	0.078817144
95	0xbe148bcc	-0.14506453
96	0x3c2d155c	0.0105641745
97	0x3cfde8bc	0.030994765
98	0xbd79df0f	-0.06100374
99	0x3df7cfc0	0.12100172
100	0xbdd7ea3e	-0.10542725
101	0x3dfea526	0.12433843
102	0xbd3cf12f	-0.046128448
103	0x3cfc37a9	0.03078826
104	0x3c5b757e	0.013394712
105	0xbb8da155	-0.004322211
106	0xbcac5329	-0.021035748
107	0xbd43c8df	-0.047798987
108	0xbdec9275	-0.11551372
109	0xbc42e3b8	-0.011895113
110	0x3dba5122	0.09097506
111	0x3d218222	0.039430745
112	0x3db075ea	0.0861624
113	0x3d1e4f0f	0.038649615
114	0xbd9ec6d6	-0.07752769
115	0x3c93e847	0.018055094
116	0x3d26ea4d	0.04075079
117	0x3d1921c9	0.037385736
118	0xbddbdce6	-0.107354924
119	0xbbe74c3e	-0.0070586493
120	0x3c867cc7	0.01641692
121	0xbd5b4c52	-0.05353958
122	0x3da7b06e	0.08187948
123	0xbdedc81b	-0.11610433
124	0xbdc6733d	-0.09689949
125	0xbccf7678	-0.025325045
126	0x3db75bfc	0.089530915
127	0xbd725d2b	-0.059170883
128	0xbd4c416d	-0.049867082
129	0x3b04da83	0.0020271845
130	0xbcf3b9af	-0.029751627
131	0xbd885302	-0.066564575
132	0xbd29594d	-0.04134493
133	0xbca59d2e	-0.02021655
134	0xbbcd80c4	-0.0062714536
135	0xbd15147a	-0.03639648
136	0x3dd4b2de	0.10385679
137	0xbd2fa17d	-0.042878617
138	0x3c0d17da	0.008611644
139	0x3d8c64f8	0.06855196
140	0x3dfd3351	0.123633035
141	0xbddd5ef9	-0.1080913
142	0x3dbc092f	0.09181439
143	0x3d6bf7d5	0.057609398
144	0x3dd837d7	0.105575256
145	0x3dd14401	0.10218049
146	0x3da8c90b	0.08241471
147	0xbd0035f7	-0.031301465
148	0xbda33ebe	-0.079709515
149	0xbcee8dd5	-0.029120365
150	0x3d4b9226	0.049699925
151	0x3d9b0284	0.07568839
152	0x3bed2b13	0.007237801
153	0xbd63363b	-0.05547164
154	0x3dc2b6b0	0.09507501
155	0x3d8614b2	0.06546916
156	0xbce41fde	-0.027847227
157	0x3e026b7e	0.12736318
158	0x3d9274a2	0.07151152
159	0xbdbeb889	-0.09312541
160	0xbda70c48	-0.08156639
161	0xbdca4ec0	-0.098783016
162	0xbc1ce40a	-0.009575853
163	0xbdf1bccd	-0.11803589
164	0x3df05d3e	0.117365345
165	0x3d6b8c16	0.057506643
166	0xbdb53d06	-0.0884953
167	0x3cb758f9	0.022381293
168	0x3df52e29	0.11971695
169	0x3ccd3858	0.02505128
170	0x3d5fbd93	0.05462415
171	0x3df5e1d5	0.12005965
172	0xbdb2321d	-0.087009646
173	0x3cd01fc6	0.025405776
174	0x3d0d501b	0.034500223
175	0xbc15dd3d	-0.009146986
176	0x3d3b08a9	0.045662556
177	0xbd326047	-0.04354885
178	0x3d3e37f3	0.046440076
179	0xbd381fd1	-0.044952217
180	0xbd0f3443	-0.03496195
181	0x3deb9329	0.11502678
182	0x3e0307cb	0.12795942
183	0xbd6f03a4	-0.05835308
184	0xbdc2b908	-0.09507948
185	0x3d3326a8	0.043738037
186	0x3bbc33f9	0.0057435003
187	0xbd516101	-0.0511179
188	0x3d9920b6	0.07476942
189	0xbd0b4a9a	-0.034006692
190	0x3cc85abe	0.024457332
191	0x3dde5f9a	0.10858078
192	0xbd0e3749	-0.034720693
193	0xbd86c803	-0.06581118
194	0x3d7eef0d	0.062239695
195	0x3de05ffb	0.10955807
196	0x3dbf405a	0.09338446
197	0x3dcbcd64	0.099512845
198	0x3cf64356	0.030061405
199	0xbda91db3	-0.08257618
200	0xbd9fd844	-0.07804921
201	0x3cd71953	0.026257193
202	0x3e08ce4e	0.13359949
203	0xbdc80292	-0.09766115
204	0x3db5446f	0.08850943
205	0xbd43095e	-0.047616355
206	0x3de493ac	0.11160979
207	0x3d80e692	0.06293978
208	0x3cfc3af7	0.030789835
209	0x3a3f3bf9	0.00072950084
210	0xbd0f2639	-0.03494856
211	0xbd2274ff	-0.039662357
212	0xbd3b066f	-0.045660432
213	0x3d1c82ab	0.038210552
214	0xbd1eda08	-0.03878215
215	0x3dc68eb7	0.096951894
216	0xbdc28971	-0.09498871
217	0xbb6f9925	-0.0036559787
218	0x3d8ba1f7	0.06818002
219	0x3be728de	0.0070544323
220	0x3d2b8ef8	0.041884392
221	0xbd90289a	-0.07038994
222	0xbbf4178a	-0.007449095
223	0x3b60a4fc	0.0034278026
224	0x3de23baa	0.11046536
225	0x3d3bf8b6	0.045891486
226	0xbdc0db71	-0.09416855
227	0xbc8c83f9	-0.017152773
228	0x3db0bb4c	0.08629474
229	0xbd561968	-0.052270323
230	0xbdb4db2d	-0.08830867
231	0x3c674f13	0.014117974
232	0x3d7ce38b	0.06174044
233	0x3cd5d3f4	0.026102044
234	0x3dd5ce18	0.104397
235	0xbd11e0bd	-0.035614718
236	0xbd2b96ab	-0.041891735
237	0xbb239853	-0.0024962618
238	0xbde52261	-0.11188198
239	0xbdb14713	-0.086561345
240	0xbc9f6147	-0.019455565
241	0xba5426d0	-0.0008092942
242	0x3d671e95	0.05642565
243	0xbd806da1	-0.0627091
244	0xbe11d724	-0.14242226
245	0xbdd0553e	-0.10172509
246	0x3da0faa9	0.0786031
247	0x3dd553d4	0.104163796
248	0x3cfbae31	0.03072271
249	0xbda3be38	-0.07995266
250	0xbdef6028	-0.11688262
251	0xbd8adb82	-0.06780149
252	0xbc99e4c0	-0.018785834
253	0x3cff796f	0.031185834
254	0xbd277a4d	-0.04088812
255	0x3df2c46f	0.11853873

lstm.weight_hh_l0 f4 [256, 64]
0	0xbdb92c1f	-0.090416186
1	0x3d94562a	0.07242997
2	0xbdcd176a	-0.100142315
3	0x3c5944fe	0.013261078
4	0xbe036089	-0.12829794
5	0x3e182cd1	0.14860846
6	0xbab2fe14	-0.0013656043
7	0x3d84c70e	0.06483279
8	0x3d375777	0.044761147
9	0xbd6bf562	-0.057607062
10	0xbd9bea7c	-0.07613084
11	0xbd995f7b	-0.074889146
12	0x3d4c5495	0.04988535
13	0x3bc76174	0.0060846154
14	0xbd904a4c	-0.07045421
15	0xbd895cb7	-0.06707137
16	0xbd9587eb	-0.07301315
17	0x3da47dea	0.08031829
18	0x3df1b69e	0.118024096
19	0xbdb0ccf4	-0.08632842
20	0x3d01ca7c	0.031687245
21	0xbdbe2798	-0.09284896
22	0x3dfd36f9	0.12364001
23	0x3cfa963c	0.030589215
24	0x3b8ab014	0.004232416
25	0x3d29672a	0.04135815
26	0xbc92460b	-0.017855665
27	0x3dfd2b25	0.12361745
28	0x3d0db93f	0.034600493
29	0xbd4ee936	-0.050515376
30	0x3cfba1d3	0.030716812
31	0xbd6ba30a	-0.057528533
32	0xbe120764	-0.14260632
33	0xbda0a485	-0.078438796
34	0xbd28c8ad	-0.041207004
35	0x3e0be49b	0.13661425
36	0x3c50459a	0.012711907
37	0x3d84f98f	0.06492912
38	0x3d8061f1	0.06268681
39	0xbd9c4c24	-0.0763171
40	0xbd07e768	-0.03317967
41	0xbdccdc4c	-0.10002956
42	0x3dbd1d31	0.092340834
43	0x3d0a8486	0.03381779
44	0xbdd53cda	-0.10411997
45	0x3bab4b2c	0.005227467
46	0xbd032746	-0.032019876
47	0x3da60416	0.08106248
48	0x3d8b4e88	0.06802088
49	0x3be5d9d2	0.0070144916
50	0xbd42078a	-0.04737047
51	0xbd9fc862	-0.07801892
52	0xbd0ab739	-0.03386614
53	0x3da0fa0e	0.07860194
54	0x3d2968b9	0.041359637
55	0xbac78604	-0.0015222435
56	0x3c10c869	0.008836844
57	0x3d0571d3	0.032579254
58	0xbaed5b19	-0.0018108814
59	0x3d56b5f5	0.05241962
60	0xbc88e348	-0.016709939
61	0xbd8a2c13	-0.06746688
62	0xbda942a6	-0.08264665
63	0xbd54c7bb	-0.05194829
64	0xbd099fe0	-0.033599734
65	0x3d8812bc	0.06644198
66	0x3e026bf8	0.127365
67	0x3d8ef5eb	0.06980499
68	0xbbf410de	-0.0074483
69	0xbb3b1130	-0.002854418
70	0x3df187ba	0.11793466
71	0xbadd8f5e	-0.0016903689
72	0x3d5ba143	0.053620588
73	0xbd622682	-0.055212505
74	0x3c0fa0d0	0.008766368
75	0x3d3f112e	0.046647243
76	0x3cd150c5	0.02555121
77	0x3d9a78dc	0.07542583
78	0xbd617a0c	-0.055048034
79	0xbd80774a	-0.062727526
80	0x3c21111d	0.00983074
81	0xbd896fb8	-0.06710762
82	0x3d98a655	0.074536
83	0x3df9902c	0.12185702
84	0x3db22e17	0.08700197
85	0x3dd59da4	0.10430458
86	0x3d914ecf	0.0709511
87	0xbd8acfe3	-0.067779325
88	0xbe0949ae	-0.13407013
89	0xbde7fe2c	-0.11327776
90	0xbc860bd0	-0.016363055
91	0xbd3e9e43	-0.04653765
92	0x3db9867c	0.09058854
93	0x3d10b67a	0.035330273
94	0x3cffe776	0.031238299
95	0x3dfc8f5f	0.12332033
96	0x3cf30c50	0.029668957
97	0xbd50309e	-0.050827615
98	0xbdeaeea6	-0.114713
99	0x3d967182	0.07345869
100	0x3b9ac515	0.004723201
101	0x3e041dfe	0.12902066
102	0x3d1c07e0	0.038093448
103	0xbbbf18f3	-0.0058318316
104	0x3daf6043	0.08563282
105	0xbd6a19b9	-0.057153437
106	0x3d9228b3	0.07136669
107	0xbd4c7fbc	-0.049926504
108	0x3df6f151	0.12057746
109	0xbe04f2e2	-0.12983277
110	0x3d56dcb5	0.052456576
111	0xbccad6c2	-0.024760608
112	0x3db9bffe	0.09069823
113	0x3df2134e	0.11820088
114	0xbd6f1005	-0.058364887
115	0x3dac22ee	0.084051
116	0xbdeb05cc	-0.11475715
117	0xbd55a6fe	-0.05216121
118	0x3e183cab	0.14866893
119	0x3b8731ea	0.0041258233
120	0xbd7e66cb	-0.06210975
121	0x3d5e5178	0.054276913
122	0x3beab223	0.007162349
123	0xbde3619b	-0.11102601
124	0xbdbe0cfb	-0.092798196
125	0xbdf6e1b9	-0.12054772
126	0x3c78549b	0.01515689
127	0x3db1f77c	0.08689782
128	0x3c37110d	0.011173499
129	0x3cf729a9	0.030171232
130	0x3e1a78ed	0.15085192
131	0x3d9ba1fb	0.07599255
132	0xbde50516	-0.11182611
133	0x3d0aa505	0.03384878
134	0xbcd7226a	-0.026261527
135	0xbc52e01a	-0.012870813
136	0x3dcd970d	0.10038576
137	0x3dacdc9c	0.084405154
138	0x3d587f0d	0.05285554
139	0xbd8c3a61	-0.068470724
140	0xbdbbc6b2	-0.091687575
141	0x3db19811	0.086715825
142	0x3b37abcf	0.002802599
143	0x3c43d86f	0.011953457
144	0xbde99cfd	-0.11406896
145	0x3d36117b	0.044450264
146	0x3e190a21	0.1494527
147	0xbdb30cb5	-0.08742658
148	0x3d9864cd	0.07441101
149	0xbd64b4bf	-0.055836435
150	0xbd440603	-0.047857296
151	0x3cec5aca	0.028851885
152	0x3d55f5e5	0.052236456
153	0xbd699f4b	-0.05703668
154	0x3dac4452	0.084114686
155	0xbb9362ab	-0.004497846
156	0xbd593f32	-0.053038783
157	0xbd486083	-0.048920166
158	0xbdb986a7	-0.09058886
159	0x3dd210f9	0.102571435
160	0xbd2dc354	-0.042422608
161	0x3d816d31	0.06319655
162	0xbe0fd79f	-0.14047097
163	0x3d3e1946	0.04641082
164	0xbdd433f0	-0.10361469
165	0x3d4cc621	0.049993638
166	0x3daebd36	0.08532183
167	0x3d18d380	0.037311077
168	0x3de088ba	0.109635785
169	0x3dac726b	0.08420261
170	0xbbc1fcc8	-0.0059200265
171	0xbdffea3e	-0.1249585
172	0xbdffc82b	-0.12489351
173	0x3dc75161	0.09732319
174	0x3b656f81	0.0035009088
175	0xbc969ebc	-0.018386237
176	0x3d8bd768	0.06828195
177	0x3bb19708	0.0054196157
178	0x3dd7be77	0.10534375
179	0x3d9ba490	0.07599747
180	0x3c0d513d	0.008625326
181	0xbd46c5b0	-0.048528373
182	0xbdcf6d6b	-0.10128292
183	0x3d4e53ed	0.050373007
184	0x3cf45098	0.029823586
185	0x3d607ae1	0.054804686
186	0x3de52d96	0.111903355
187	0xbc1f2076	-0.009712329
188	0xbdc48638	-0.09595913
189	0x3da83ec1	0.08215094
190	0xbdc41d0f	-0.09575855
191	0xbdb21016	-0.086944744
192	0x3d49ba6b	0.049250048
193	0xbd7be936	-0.061501704
194	0xbd846ac1	-0.06465674
195	0xbd14d00c	-0.03633122
196	0x3dc60496	0.096688434
197	0x3dd485c3	0.103770755
198	0x3df88b84	0.121359855
199	0xbd9bba1a	-0.076038554
200	0xbdce0e2e	-0.10061298
201	0xbd02941d	-0.031879533
202	0x3d1dcdeb	0.038526457
203	0x3dc7a78e	0.097487554
204	0xbdc4277a	-0.09577842
205	0x3d495831	0.04915637
206	0x3df0231e	0.11725448
207	0xbdc012dc	-0.09378597
208	0x3db1f596	0.0868942
209	0x3b91b168	0.0044461973
210	0x3cbbe9d2	0.022938643
211	0xbbd33711	-0.0064457734
212	0x3da76937	0.08174365
213	0x3dd68099	0.10473747
214	0xbd103d25	-0.035214562
215	0xbd1b393f	-0.03789639
216	0x3dd77a8e	0.10521422
217	0xbda113a5	-0.07865075
218	0xbde77ef5	-0.11303512
219	0xbd91262c	-0.07087359
220	0x3ba3ebf1	0.0050024916
221	0xbd3e532f	-0.04646605
222	0xbc8090ec	-0.015694104
223	0x3c195e27	0.009360827
224	0xbc441217	-0.011967204
225	0x3e0b6030	0.13610911
226	0x3d42c133	0.04754753
227	0xbd4c5618	-0.049886793
228	0xbd1c6dfd	-0.03819083
229	0xbd418ffa	-0.047256447
230	0x3d3faa93	0.04679353
231	0x3d9abd84	0.075556785
232	0xbd9a50c8	-0.07534939
233	0xbdfb5235	-0.12271539
234	0x3dce9f20	0.100889444
235	0xbc0593ab	-0.008152883
236	0x3d16b3c0	0.036792517
237	0x3df7bba1	0.12096334
238	0x3dc7b15e	0.09750627
239	0xbdd0c58f	-0.10193931
240	0x3c925689	0.017863529
241	0xbe0b524c	-0.13605613
242	0xbd451827	-0.048118737
243	0x3de52dfd	0.11190412
244	0xbdd3379e	-0.103133425
245	0x3cfe2c77	0.031027062
246	0xbda94f20	-0.08267045
247	0xbcdbfa1a	-0.026852656
248	0x3ba77e98	0.0051115267
249	0xbd77c94e	-0.060494713
250	0xbd12eeaf	-0.035872158
251	0xbdd97a3d	-0.10619018
252	0xbd1b7524	-0.03795351
253	0xbbbcd94f	-0.00576321
254	0xbbb107a6	-0.005402523
255	0x3d9bf2d6	0.07614677

lstm.bias_ih_l0 f4 [256]
0	0x3e146130	0.14490199
1	0x3d77fa7d	0.06054162
2	0xbcff87bd	-0.031192655
3	0xbc70b4fc	-0.014691588
4	0xbd4f8471	-0.050663415
5	0xbd303c8e	-0.0430265
6	0xbd55ca90	-0.05219513
7	0xbd810c85	-0.06301216
8	0xbd2eaee7	-0.04264727
9	0xbd984f8e	-0.07437049
10	0xbd859ac4	-0.0652366
11	0x3e0aa292	0.13538578
12	0x3d82231f	0.06354355
13	0xbd4145cb	-0.0471857
14	0x3e2120e6	0.15735206
15	0xbc9e3eff	-0.019317148
16	0x3cbd3c66	0.02310009
17	0x3dd9b16a	0.10629542
18	0x3e0ae424	0.13563591
19	0xbcc5b0ed	-0.024132216
20	0xbd4a3273	-0.04936452
21	0xbd183184	-0.037156597
22	0x3cde4785	0.027133713
23	0xbd9b1614	-0.075725704
24	0x3c209256	0.009800514
25	0x3d15eb99	0.036601637
26	0x3cf6790e	0.03008702
27	0xbd712c1a	-0.05887995
28	0x3c7bd9ca	0.015371749
29	0xbca94472	-0.02066252
30	0x3ddfcc21	0.109276064
31	0x3b6d6fbe	0.0036229934
32	0xbd0b255c	-0.033971176
33	0x3db9e85f	0.090775244
34	0x3d8365fb	0.064159356
35	0x3dd3a926	0.10334997
36	0x3df50b9d	0.11965106
37	0xbd4c70b0	-0.049912155
38	0x3e09854a	0.13429752
39	0x3dab83d5	0.08374754
40	0x3cbc5114	0.02298788
41	0x3df3c014	0.1190187
42	0xbd730f8c	-0.059341
43	0x3dd7a1ce	0.10528909
44	0x3d8e9d1f	0.06963562
45	0xbdb0c90d	-0.086320974
46	0xbdadd6fe	-0.08488272
47	0x3e00e19c	0.12586063
48	0x3d9ab8be	0.07554768
49	0x3dbb8fa5	0.091582574
50	0xbd501940	-0.05080533
51	0x3daf4381	0.08557797
52	0xbd4ca38b	-0.049960654
53	0xbc2bf906	-0.0104963835
54	0xbcbd3d48	-0.02310051
55	0x3d52face	0.051508717
56	0xbda68dcc	-0.08132514
57	0xbd980832	-0.07423438
58	0xbdddc01b	-0.10827657
59	0xbdba4701	-0.09095574
60	0xbdb8fb14	-0.09032264
61	0x3dde4987	0.10853868
62	0xbd5df309	-0.054186855
63	0x3d5f4e2e	0.054517917
64	0x3dbc6b94	0.092002064
65	0x3db60630	0.08887899
66	0xbc0f61af	-0.008751317
67	0x3dd9e077	0.106385164
68	0x3d01c239	0.031679366
69	0xbcbafcb9	-0.022825586
70	0x3dff7b46	0.124746844
71	0x3df92bc0	0.12166548
72	0xbc95baeb	-0.018277606
73	0xbcf6ccca	-0.030126948
74	0xbdc6a8f3	-0.09700193
75	0xbd2ec21c	-0.042665586
76	0x3ba9536a	0.0051674144
77	0x3d8b0fbb	0.0679011
78	0xbcd5a2ed	-0.026078666
79	0xbd9fe127	-0.07806616
80	0xbbf1271c	-0.0073593985
81	0x3e09b2c7	0.13447104
82	0xbce020fd	-0.02735948
83	0xbdbbb33d	-0.09165046
84	0x3df5a525	0.119943894
85	0x3c707b53	0.01467784
86	0x3df4ac76	0.11946957
87	0xbd3b2371	-0.045688096
88	0x3c9da90a	0.019245643
89	0x3dc5d2da	0.09659357
90	0x3dbff7fd	0.09373472
91	0xbc2849a7	-0.010271466
92	0x3e09d285	0.13459213
93	0x3dd3d41b	0.1034319
94	0xbda3c118	-0.07995814
95	0xbd8d0047	-0.068848185
96	0xbd316746	-0.04331138
97	0x3db75750	0.089522004
98	0xbdd0bc5c	-0.10192177
99	0x3d99e471	0.07514275
100	0x3dc98d9f	0.09841465
101	0x3e102a40	0.14078617
102	0x3da45bd8	0.0802533
103	0xbd2ec311	-0.0426665
104	0x3dabcade	0.08388303
105	0xbd026bb0	-0.03184098
106	0x3d580a43	0.05274416
107	0x3e0da2e9	0.13831677
108	0x3dbd8f8e	0.092558965
109	0x39aea647	0.00033311752
110	0xbcb2131a	-0.021737624
111	0xbcaf7f37	-0.021422965
112	0xbc823872	-0.015896056
113	0xbd380f1e	-0.044936292
114	0x3dfc5974	0.12321749
115	0xbd81740c	-0.06320962
116	0x3dba597f	0.09099101
117	0xbc1c5769	-0.009542325
118	0x3c0cd45b	0.008595551
119	0xbcba53f3	-0.022745108
120	0x3e1f7223	0.15570883
121	0xbd25fe5e	-0.040525787
122	0xbd1c3b43	-0.038142454
123	0x3c53e9d0	0.012934163
124	0x3d751fe2	0.05984486
125	0x3d9b7aa0	0.07591748
126	0xbcbcea10	-0.023060828
127	0x3d788abd	0.060679186
128	0x3ba89714	0.005144963
129	0xbdd4c9de	-0.103900656
130	0x3dc65876	0.09684841
131	0x3dcf372d	0.10117946
132	0xbd906441	-0.07050372
133	0xbcc1320d	-0.023583436
134	0x3d440462	0.047855742
135	0x3d95d0e2	0.07315232
136	0x3d22c1ce	0.039735608
137	0xbd4caccc	-0.04996948
138	0x3d97aadf	0.07405638
139	0x3dd586bb	0.104260884
140	0x3df68219	0.12036533
141	0x3d83eaa9	0.06441242
142	0x3e020b72	0.12699679
143	0xbd909516	-0.07059686
144	0xbd8efd81	-0.06981946
145	0x3da5f6df	0.081037275
146	0x3e00ad2e	0.12566063
147	0xbb6f011a	-0.0036469162
148	0x3e172510	0.14760232
149	0xbd6ae4a5	-0.05734696
150	0x3db9e9bc	0.090777844
151	0xbdb04d0a	-0.08608444
152	0x3b780698	0.0037845727
153	0x3d6f12d1	0.058367554
154	0x3d7f7788	0.062369853
155	0x3dfe89f2	0.12428655
156	0x3ae8d309	0.0017763089
157	0xbbcc08c7	-0.0062266323
158	0x3d3b683c	0.045753703
159	0xbada4c04	-0.0016654734
160	0xbdab1a93	-0.08354678
161	0xbd13496c	-0.035958692
162	0xbd87318c	-0.06601247
163	0xbdec0f42	-0.11526348
164	0xbd260981	-0.040536407
165	0x3dfd1dba	0.123591855
166	0x3d5d334b	0.054003995
167	0x3d568d1e	0.052380674
168	0x3d0162e4	0.03158845
169	0x3d2261f9	0.039644215
170	0x3dc3598c	0.09538564
171	0x3d6ccefb	0.05781458
172	0xbd5c8587	-0.05383828
173	0xbd9ef577	-0.077616625
174	0xbc20129d	-0.009770063
175	0xbd9c5370	-0.07633102
176	0x3d725b3e	0.059169047
177	0x3ced9f28	0.029006556
178	0x3dd2fd84	0.103022605
179	0xbdd72654	-0.105053574
180	0xbdc04723	-0.09388568
181	0xbe0df025	-0.13861139
182	0x3dec2899	0.11531181
183	0xbe09dc9a	-0.13463059
184	0x3e080f49	0.13287081
185	0xbe041e68	-0.12902224
186	0x3e09eca3	0.13469176
187	0xbced3f54	-0.028960861
188	0xbd989279	-0.074498124
189	0xbe15e6c8	-0.14638817
190	0x3db152ce	0.08658372
191	0x3e07ec48	0.13273728
192	0x3c1fbe95	0.009750028
193	0x3df8ff2f	0.121580474
194	0x3d805c7e	0.062676415
195	0xbbfbbf7d	-0.0076827393
196	0xbdb3b8bf	-0.08775472
197	0xbdaa6330	-0.083197
198	0x3de39d99	0.11114044
199	0xbd83cb5c	-0.06435272
200	0x3da1c73f	0.07899331
201	0x3d4af7c1	0.049552683
202	0xbc513095	-0.0127679305
203	0x3d9494c3	0.072549365
204	0xbd86826c	-0.06567845
205	0x3d948205	0.07251362
206	0xbd72944c	-0.05922346
207	0xbdd6fc64	-0.104973584
208	0x3dbbcd3e	0.09170006
209	0x3df05d75	0.117365755
210	0x3d7c018d	0.061524916
211	0x3df74497	0.12073629
212	0x3c30678a	0.010766873
213	0x3d6269e9	0.055276785
214	0x3e0add57	0.13560997
215	0xbd1aca6b	-0.037790697
216	0x3d9edc67	0.07756882
217	0xbd60ccdf	-0.05488288
218	0xbbd89830	-0.006609939
219	0x3ca76f25	0.02043874
220	0xbcaad879	-0.020855175
221	0xbc84e840	-0.016224027
222	0xbbed552d	-0.0072428198
223	0xbda8bc2e	-0.082390174
224	0xbc98f395	-0.018670836
225	0x3dd6aea8	0.10482532
226	0x3c1aa30b	0.009438287
227	0xbda781d5	-0.0817906
228	0x3bf1ca99	0.007378888
229	0x3dfb932f	0.122839324
230	0x3d039ce1	0.032132033
231	0xbd87352b	-0.06601938
232	0xbd5c9de3	-0.05386151
233	0xbd9f95d6	-0.07792251
234	0x3dd8d0a6	0.105866715
235	0x3da8ab68	0.08235818
236	0x3d0c9d28	0.034329563
237	0x3d9c79fd	0.07640455
238	0x3c8b6f9e	0.017020997
239	0x3e0a8dfc	0.13530725
240	0x3d6f32fb	0.05839823
241	0x3deccbc9	0.115623064
242	0x3da7509b	0.08169671
243	0x3e145d3a	0.14488688
244	0xbd965f24	-0.073423654
245	0xbd9641de	-0.07336782
246	0x3defb19e	0.117038
247	0xbd4c4894	-0.049873903
248	0xbd90dbf7	-0.07073205
249	0x3db72530	0.0894264
250	0xbd84ec3a	-0.06490369
251	0xbc2fbf7c	-0.010726806
252	0x3da987d7	0.082778625
253	0xbd3ab8d6	-0.04558643
254	0xbc9a079a	-0.018802453
255	0xbd4a9871	-0.049461786

lstm.bias_hh_l0 f4 [256]
0	0xbd3e5c7c	-0.04647492
1	0x3d502a0f	0.05082136
2	0x3ca347a8	0.01993163
3	0xbdd68723	-0.10474994
4	0x3dac7cb7	0.08422225
5	0x3d9cdd4f	0.07659399
6	0x3dde250a	0.108469084
7	0xbdb2c727	-0.087293915
8	0x3df7f908	0.12108046
9	0x3ceed443	0.029153949
10	0x3cc76188	0.024338499
11	0xbcbf882e	-0.023380365
12	0x3dfd4552	0.123667374
13	0xbc60a4f3	-0.013711202
14	0x3e23b2dd	0.159862
15	0xbd3f1e48	-0.046659738
16	0x3d94e633	0.072704695
17	0x3dc22e6d	0.09481511
18	0x3e05a146	0.13049802
19	0x3bb44064	0.00550084
20	0xbd5b9260	-0.05360639
21	0x3d3398c7	0.04384687
22	0xbd3b9e61	-0.04580534
23	0x3c3870ec	0.011257391
24	0xbd751a0d	-0.059839297
25	0x3e086142	0.13318351
26	0xbd432a93	-0.047648024
27	0xbd9d0ba9	-0.076682396
28	0x3d01ae24	0.031660214
29	0x3c9cec8d	0.019155765
30	0x3de55ce9	0.11199362
31	0x3d121a19	0.03566942
32	0x3bad048d	0.0052800835
33	0x3df0d4cd	0.117593385
34	0xbcccb28b	-0.02498748
35	0x3db1119c	0.08645937
36	0xbdad4fc9	-0.084624834
37	0x3dccd48a	0.10001476
38	0xbda5d34e	-0.08096944
39	0xbd7a4029	-0.061096344
40	0xbc6ab9ef	-0.014326557
41	0xbda48748	-0.08033615
42	0xbcef2a9d	-0.029195124
43	0x3cbebc5d	0.023283178
44	0x3d3b06f4	0.045660928
45	0x3daff4bd	0.08591602
46	0x3d297466	0.04137077
47	0x3da4813f	0.08032464
48	0xbdc7a0c6	-0.09747462
49	0x3e11c227	0.1423422
50	0x3d1286eb	0.0357732
51	0x3dfe4cf9	0.12417025
52	0x3e2074b9	0.15669526
53	0x3e00459d	0.12526555
54	0x3de88637	0.113537244
55	0xbd63bd2d	-0.055600334
56	0x3e083860	0.13302755
57	0xbdf19540	-0.11796045
58	0x3d3f79e6	0.04674711
59	0xbcb9cdfe	-0.022681233
60	0xbd198584	-0.037480846
61	0xbdc62775	-0.096754946
62	0xbd1feddf	-0.03904521
63	0xbce9cff7	-0.028541548
64	0x3d6d9b14	0.058009222
65	0x3daf5d93	0.0856277
66	0x3c8faa5c	0.017537288
67	0x3d7ee5da	0.062230922
68	0xbdbd22b0	-0.09235132
69	0x3d09e0ee	0.033661775
70	0x3dc41856	0.09574954
71	0x3d2fc457	0.042911854
72	0xbd305ca3	-0.043057095
73	0xbd8a2b05	-0.067464866
74	0x3df47f93	0.11938395
75	0x3ddbf4b2	0.10740031
76	0xbd993e8f	-0.07482635
77	0x3e0e0906	0.1387063
78	0x3dece8b9	0.11567826
79	0xbd8bc6ad	-0.06825004
80	0xbcaddf73	-0.021224713
81	0xbd62b41d	-0.05534755
82	0x3e0e74bb	0.13911717
83	0xbcd43753	-0.025905287
84	0x3d434f4a	0.047683038
85	0x3d05fcd6	0.032711826
86	0x3d1505bf	0.036382433
87	0x3d3abf99	0.045592878
88	0x3d6c9b5f	0.05776536
89	0xbd901d36	-0.070368215
90	0xbb089596	-0.0020841113
91	0x3dbb566e	0.091473445
92	0xbd0681cd	-0.03283863
93	0x3d9b2d78	0.07577032
94	0xbd36f665	-0.044668574
95	0x3da0c552	0.07850136
96	0xb9877823	-0.00025838715
97	0x3d3d3293	0.04619081
98	0xbd7c7ccc	-0.061642453
99	0xbd876c65	-0.066124715
100	0xbd2150d1	-0.039383713
101	0xbdb15160	-0.08658099
102	0x3daaa73e	0.0833268
103	0xbd8734b9	-0.06601853
104	0x3d523bd4	0.051326588
105	0x3d9c0d7d	0.0761976
106	0xbdaec5b7	-0.08533805
107	0x3d05144f	0.03249007
108	0x3e12cf8d	0.14336987
109	0xbd4f86eb	-0.050665777
110	0xbb58eca3	-0.003310003
111	0x3c8e3dde	0.017363485
112	0xbdcc40f9	-0.0997333
113	0x3d646766	0.05576267
114	0xbd2b3939	-0.04180262
115	0xbd7cb3f1	-0.061695043
116	0x3ce533f7	0.02797888
117	0xbda2dce4	-0.07952288
118	0x3988965e	0.00026051974
119	0x3d341f7e	0.043975346
120	0x3df4f1bc	0.1196017
121	0xbd848eb5	-0.06472532
122	0xbd866504	-0.06562236
123	0xbd9c91c9	-0.07644994
124	0xbd0f7a14	-0.035028532
125	0xbd9d8ffb	-0.07693478
126	0x3cfb4cd6	0.030676287
127	0x3e043a8d	0.1291296
128	0xbd6d015a	-0.057862617
129	0xbdc3a888	-0.09553629
130	0x3d52366c	0.051321432
131	0xbd80016d	-0.06250272
132	0xbc823c7e	-0.015897986
133	0x3e10a34b	0.14124791
134	0x3e04681d	0.12930341
135	0xbdbf53fe	-0.09342192
136	0xbc8761a3	-0.016526049
137	0xbdae7160	-0.08517718
138	0xbdbd8d87	-0.0925551
139	0x3de47283	0.11154654
140	0xbc54357d	-0.012952206
141	0xbdb628b7	-0.088944845
142	0x3c53c3a8	0.012925066
143	0x3c725561	0.014790864
144	0xbdd3297f	-0.10310649
145	0x3ce7f35e	0.028314289
146	0x3dfc6ac0	0.123250484
147	0x3e18b75e	0.14913699
148	0x3e169b53	0.14707689
149	0xbd9fe1b3	-0.078067206
150	0xbda7065e	-0.08155511
151	0xbdb16966	-0.08662681
152	0xbe128dc4	-0.14311892
153	0x3d962adc	0.073323935
154	0xbd13c1fd	-0.036073674
155	0x3de58db6	0.1120867
156	0xbe107929	-0.14108719
157	0x3ddb5d3c	0.107111424
158	0x3d7e7fac	0.062133476
159	0x3dc9ba3a	0.09849973
160	0xbd8dd80f	-0.069259755
161	0x3da3ab90	0.07991707
162	0xbdc4fcf0	-0.096185565
163	0xbd5ef2d7	-0.05443081
164	0xbc7fa80b	-0.015604029
165	0x3e0fa810	0.14028955
166	0xbe07c702	-0.13259509
167	0x3d7c8d42	0.06165815
168	0x3d8871fa	0.06662364
169	0x3dcc1956	0.0996577
170	0x3dd17cb6	0.10228865
171	0xbd87aca8	-0.066247284
172	0x3d7fc8e3	0.06244744
173	0x3d94bf55	0.07263056
174	0xbd8b5691	-0.068036206
175	0x3e0d1cc5	0.13780506
176	0xbd616dd8	-0.055036396
177	0xbc8f4112	-0.017487083
178	0xbdaaa7be	-0.083327755
179	0xbd2110f0	-0.039322793
180	0xbd2f2f53	-0.04276974
181	0xbdcc4142	-0.099733844
182	0xbc85e6c7	-0.016345395
183	0xbe06a4a3	-0.13148741
184	0xbdb6c2c0	-0.08923864
185	0xbd41be23	-0.04730047
186	0xbc29615c	-0.010338154
187	0xbe0fa31f	-0.1402707
188	0x3d0d64a3	0.034519803
189	0xbe0dbe28	-0.1384207
190	0x3e08369b	0.1330208
191	0x3d2aede4	0.041730776
192	0x3ccd27b4	0.025043346
193	0x3dddfd45	0.10839323
194	0xbafb5e3e	-0.0019177867
195	0xbd7957b9	-0.060874674
196	0x3d5d6c0a	0.054058112
197	0xbd1d7318	-0.03843984
198	0x3dfff14d	0.12497196
199	0x3ddd755a	0.10813399
200	0x3d4c5a6a	0.049890913
201	0xbd4c7096	-0.049912058
202	0x3b981971	0.0046417047
203	0x3d868e71	0.06570137
204	0x3d8da3c2	0.06916
205	0x3dd01a1c	0.1016123
206	0xbd3dc25b	-0.04632793
207	0x3df5e79a	0.12007065
208	0xbcf7a8bc	-0.030231826
209	0x3d2d7104	0.04234411
210	0xbd95b467	-0.073098
211	0x3e0efde1	0.13964035
212	0x3cf6e69d	0.030139262
213	0xbd6913e2	-0.056903727
214	0x3beba1ae	0.0071909046
215	0x3d208ec2	0.039198644
216	0x3e013ded	0.12621279
217	0x3d24d823	0.040245187
218	0xbd992011	-0.07476819
219	0xbd15ed8c	-0.036603495
220	0x3baa9a82	0.005206407
221	0x3e2397c0	0.15975857
222	0xbde41145	-0.111361064
223	0x3c6930be	0.014232812
224	0x3d940805	0.07228092
225	0x3d7cd64d	0.06172781
226	0xbdd3223a	-0.103092626
227	0x3e081f24	0.13293129
228	0x3d72a809	0.059242282
229	0x3de98419	0.11402149
230	0x3da69985	0.0813475
231	0x3d0c4668	0.034246832
232	0xbd0a1e57	-0.03372034
233	0xbb72c52d	-0.0037043795
234	0x3d8d558a	0.06901081
235	0xbca67003	-0.020317083
236	0x3cc51a2b	0.02406033
237	0xb9739ee5	-0.00023233479
238	0xbcbd398e	-0.023098733
239	0xbb77f62c	-0.003783594
240	0xbdd1c913	-0.1024343
241	0x3d8a46f8	0.067518175
242	0x3ddab415	0.10678879
243	0x3d7d08cb	0.061775964
244	0x3d87c241	0.06628848
245	0x3d76b37a	0.060229756
246	0x3cbb020a	0.02282812
247	0x3e0e8893	0.13919286
248	0xbd038f19	-0.03211889
249	0xbd991e82	-0.07476522
250	0x3d77cc93	0.06049783
251	0xbd60e834	-0.054908946
252	0xbd6ca954	-0.05777867
253	0x3d8faf55	0.07015864
254	0xbd2ede8a	-0.0426927
255	0xbda5d15e	-0.08096574

lstm.weight_ih_l1 f4 [256, 64]
0	0xbb11b0ad	-0.002223055
1	0xbca4628a	-0.020066518
2	0x3e079d5a	0.13243619
3	0xbde7b8a9	-0.11314518
4	0x3db18c4a	0.08669336
5	0x3db2a364	0.087225705
6	0x3c844e4a	0.016150612
7	0x3d8ee98c	0.06978139
8	0xbc8f3c3e	-0.01748478
9	0xbd9adaa1	-0.075612314
10	0x3de76eae	0.11300407
11	0xbcae3ed3	-0.021270191
12	0x3c043879	0.008070105
13	0xbbe93de2	-0.0071179727
14	0xbd34d587	-0.044148948
15	0x3cef75bf	0.02923095
16	0x3ae4287c	0.0017407085
17	0xbcd85f20	-0.026412547
18	0xbdafc3b1	-0.08582247
19	0x3cb87c40	0.022520185
20	0x3d0cb54a	0.03435258
21	0x3c0d2244	0.008614127
22	0xbca660ca	-0.020309824
23	0xbcabdfbf	-0.020980714
24	0x3d603bb2	0.05474443
25	0xbdd8b207	-0.10580831
26	0x3d763033	0.06010456
27	0xbd01b3b6	-0.031665526
28	0x3c9ed6bd	0.019389505
29	0xbd403dcd	-0.046933938
30	0x3ddaac46	0.1067739
31	0xbd06a2c7	-0.03287008
32	0x3da2a855	0.07942263
33	0x3db7a7f5	0.08967582
34	0xbd761412	-0.060077734
35	0xbcb98b6c	-0.02264949
36	0xbd8b886c	-0.0681313
37	0x3e0ddbc8	0.13853371
38	0xbce8d314	-0.028420962
39	0xbd396ab7	-0.045267787
40	0x3d8f5e56	0.07000415
41	0x3d1574e1	0.036488418
42	0x3c396bf9	0.011317247
43	0xbd1cf2ee	-0.038317613
44	0xbc8bb285	-0.017052898
45	0x3a1f19e9	0.00060692296
46	0xbdbc25c7	-0.09186893
47	0xbcf6b6d3	-0.030116474
48	0x3b2f036c	0.002670492
49	0x3d35e79c	0.044410333
50	0xbd83066b	-0.063977085
51	0x3d9173c8	0.07102162
52	0xbdc8e989	-0.09810168
53	0x3c14df73	0.009086478
54	0xbd29d25c	-0.04146038
55	0x3ac0053c	0.0014649997
56	0x3cf077c6	0.029353987
57	0xbe00290f	-0.12515663
58	0xbd993d86	-0.07482438
59	0xbdc31cb5	-0.0952696
60	0x3d76e0a5	0.06027283
61	0x3c97c54c	0.018526696
62	0xbd6e60e1	-0.05819786
63	0xbc0883ff	-0.008332252
64	0x3ce7ea6f	0.028310029
65	0xbba03f0a	-0.0048903273
66	0x3d77cccc	0.060498044
67	0x3cb56a63	0.022145456
68	0xbccdb5eb	-0.02511116
69	0x3da08b81	0.07839108
70	0xbd8c8529	-0.06861336
71	0x3c3a972d	0.011388582
72	0x3c943bce	0.018094923
73	0x3d22734a	0.03966073
74	0xbd1258e8	-0.03572932
75	0x3e1285d8	0.1430887
76	0xbb68e49b	-0.003553665
77	0xbd69e6d9	-0.05710492
78	0x3d8b19cd	0.067920305
79	0x3c8cd0bb	0.017189374
80	0x3d8e9224	0.06961468
81	0x3dc316d7	0.09525841
82	0x3e001dee	0.12511417
83	0x3e183916	0.14865527
84	0x3e234403	0.15943913
85	0xbdfe4401	-0.124153145
86	0xbc5058f2	-0.012716519
87	0x3dcd34f8	0.100198686
88	0x3c46ed85	0.01214159
89	0xbd8a0600	-0.06739426
90	0x3d712fa0	0.05888331
91	0x3c7166b0	0.014733955
92	0x3d6e9a8b	0.058252852
93	0xbc0bcc1e	-0.008532552
94	0x3d9ef969	0.07762415
95	0x3d867ba5	0.06566552
96	0xba84feb1	-0.0010146705
97	0x3d9a0bd4	0.07521787
98	0xbda42c57	-0.0801627
99	0x3d462fbc	0.048385367
100	0xbe0e6ed8	-0.13909471
101	0x3d12e2a1	0.03586066
102	0x3d1351ae	0.035966568
103	0x3cb7543d	0.022379035
104	0x3d118d6c	0.03553526
105	0x3d9db26b	0.07700046
106	0xbd3abf92	-0.045592852
107	0xbe009896	-0.12558207
108	0xbdefda75	-0.11711589
109	0xbd3c5de6	-0.045987986
110	0x3d9e31bf	0.07724332
111	0x3c72eb15	0.014826556
112	0x3cbb184e	0.022838738
113	0xbda268bd	-0.079301335
114	0xbda6fd7c	-0.08153817
115	0x3cbc008a	0.022949476
116	0xbd2a6e2c	-0.041608974
117	0xbe1d4006	-0.15356454
118	0x3b980b0f	0.00463999
119	0xbe1e24f0	-0.15443778
120	0x3dfc009b	0.12304803
121	0xbdff80cc	-0.12475738
122	0x3be081af	0.006851397
123	0x3d62d35e	0.055377357
124	0xbc02dcdd	-0.007987228
125	0xbbcc489e	-0.0062342426
126	0xbb893645	-0.0041873776
127	0xbdc3aaef	-0.09554087
128	0x3e14cf2f	0.1453216
129	0x3c7191d8	0.0147442445
130	0x3d3544b4	0.044254974
131	0x3d90d70c	0.07072267
132	0x3d90a6f1	0.070630915
133	0x3dc2d2d7	0.09512871
134	0x3d8e5389	0.06949527
135	0xbdf85eec	-0.1212748
136	0x3e017de8	0.12645686
137	0x3d95169b	0.07279702
138	0x3d9a3878	0.07530302
139	0xbc2c23a9	-0.010506549
140	0x3d151037	0.036392417
141	0xbc1848de	-0.009294717
142	0x3db09141	0.08621455
143	0xbdb967d7	-0.09053009
144	0xbc0bdb09	-0.008536109
145	0xbc8c303c	-0.017112844
146	0xbd664aef	-0.056223806
147	0x3d12a68c	0.035803363
148	0x3d86d061	0.06582714
149	0x3ce5c60f	0.028048543
150	0xbc51cc17	-0.0128050065
151	0xbdcedcf1	-0.10100735
152	0x3b9d92da	0.004808766
153	0xbd8fdd9e	-0.07024692
154	0xbd21c057	-0.03949007
155	0xbdb4d1b6	-0.08829062
156	0x3c433d76	0.011916509
157	0x3d90a1e2	0.07062127
158	0x3d631f97	0.05545005
159	0xbcf23169	-0.029564576
160	0xbe037998	-0.12839353
161	0xbdaeee3f	-0.085415356
162	0xbdf8770b	-0.12132081
163	0xbd086ef9	-0.033308957
164	0xbd24563b	-0.0401213
165	0xbb25670c	-0.0025238423
166	0xbde0a368	-0.10968667
167	0xbdc91904	-0.098192245
168	0x3ddba708	0.10725218
169	0x3e056ef9	0.13030614
170	0x3d78c881	0.06073809
171	0x3d90d419	0.070717044
172	0xbdad8c43	-0.084740184
173	0xbdaf8b6b	-0.08571514
174	0x3df666f6	0.12031357
175	0xbb7b15cb	-0.003831255
176	0xbdade1cc	-0.08490333
177	0x3d7f5df8	0.062345475
178	0x3c2c732b	0.010525505
179	0x3d034f06	0.032057784
180	0x3c0b264f	0.00849302
181	0xbd5ff34e	-0.054675393
182	0xbd96af46	-0.073576495
183	0x3db54914	0.08851829
184	0xbd233b49	-0.03985146
185	0x3dc6fba5	0.09715966
186	0xbd06fca2	-0.032955773
187	0x3cb83c0c	0.02248957
188	0x3ce8209f	0.028335867
189	0xbe07b18e	-0.13251325
190	0x3dd86122	0.105654016
191	0xbd5ac08e	-0.05340629
192	0xbd43304c	-0.04765348
193	0x3da8435f	0.08215975
194	0x3cc25bda	0.023725439
195	0xbda71e15	-0.081600346
196	0x3d3a315f	0.04545724
197	0xbcbef222	-0.023308817
198	0x3d1587b5	0.036506373
199	0xbdd39534	-0.103311926
200	0x3d02f10d	0.031968165
201	0xbaae3d81	-0.0013293476
202	0xbd8353e1	-0.06412483
203	0x3dfd5178	0.123690546
204	0xbc2988a5	-0.01034752
205	0xbd8dd149	-0.069246836
206	0x3de6cc29	0.11269409
207	0x3a57bcb0	0.0008229716
208	0xbd6d8a4f	-0.05799323
209	0x3c88185f	0.016613184
210	0x3dffa38f	0.12482368
211	0x3c72aa2b	0.014811079
212	0xbd557aa4	-0.052118912
213	0xbcfa735e	-0.03057259
214	0xbdd2a802	-0.10285951
215	0xbd98cac2	-0.07460548
216	0xbbec61ac	-0.007213792
217	0xbd28952c	-0.041157886
218	0xbdcca545	-0.0999246
219	0x3db4b9f5	0.08824531
220	0xbd3e74b0	-0.046498
221	0xbde0e878	-0.1098184
222	0x3d3b5b94	0.045741633
223	0xbd935067	-0.0719307
224	0x3d03dfc3	0.032195818
225	0x3e01a67b	0.12661164
226	0x3dd2d299	0.102940746
227	0x3d922384	0.0713568
228	0x3d8a6f52	0.06759514
229	0xbd8b1d5a	-0.06792708
230	0xbda2bf19	-0.07946605
231	0xbd596ea7	-0.053084042
232	0x3ddebb12	0.108755246
233	0x3db878ef	0.09007441
234	0xbde438f8	-0.111436784
235	0x3c95260e	0.018206622
236	0xbd8ecb30	-0.06972349
237	0xbd1ad734	-0.03780289
238	0x3ce9d15f	0.028542219
239	0xbdcf96de	-0.101361975
240	0x3d7c77b3	0.06163759
241	0xbde58998	-0.112078846
242	0xbdd63036	-0.10458414
243	0x3d9a1556	0.07523601
244	0x3dd8ca61	0.10585476
245	0xbd6db517	-0.05803403
246	0xbdad5466	-0.08463363
247	0x3df062f8	0.11737627
248	0xbdfe066d	-0.12403569
249	0xbc4b6983	-0.012415293
250	0xbdba0e68	-0.09084779
251	0xbd9f457b	-0.07776924
252	0x3de58acd	0.11208115
253	0x3dc90deb	0.09817108
254	0xbdf13b00	-0.117788315
255	0xbde207d0	-0.11036646

lstm.weight_hh_l1 f4 [256, 64]
0	0xbe0d38fd	-0.1379127
1	0xbd97e8b7	-0.07417434
2	0xbd9829bf	-0.074298374
3	0x3de11791	0.10990823
4	0xbd957f17	-0.07299631
5	0xbc12a054	-0.008949358
6	0x3b9ed042	0.0048466036
7	0x3e101db6	0.14073834
8	0xbc298c66	-0.010348415
9	0x3c8867d7	0.016651077
10	0x3e0f6808	0.14004529
11	0xbd1da56e	-0.038487844
12	0x3dcffaa8	0.10155231
13	0xbd2ffa2b	-0.04296319
14	0x3d8e46ba	0.06947084
15	0x38d71968	0.00010256731
16	0x3d2ead88	0.04264596
17	0xbd031022	-0.031997807
18	0x3c675835	0.014120151
19	0xbd42021d	-0.047365297
20	0xbc8fa1b7	-0.017533166
21	0xbd22ad76	-0.039716206
22	0xbc75a6a6	-0.014993345
23	0xbdfff504	-0.12497905
24	0xbd9105b7	-0.07081168
25	0x3d26d237	0.04072782
26	0x3c2d2eed	0.01057027
27	0x3d57196f	0.05251449
28	0xbe0bc8b6	-0.13650784
29	0xbca0cc03	-0.01962853
30	0x3d2d5f73	0.042327356
31	0xbc8c9f54	-0.017165817
32	0xbd9065ff	-0.07050704
33	0x3cbd6301	0.023118498
34	0xbd5706a8	-0.052496582
35	0xbd453a99	-0.048151586
36	0x3d357e74	0.04431005
37	0xbd423b31	-0.04741973
38	0xbdcc3008	-0.09970099
39	0xbda75df5	-0.08172218
40	0xbd9a6d7f	-0.07540416
41	0x3d4d5214	0.050127104
42	0xbdb99060	-0.090607405
43	0x3ce50382	0.027955774
44	0x3d77a53d	0.060460318
45	0xbd2bba47	-0.041925695
46	0xbd12965f	-0.035787936
47	0xbc2f0082	-0.010681273
48	0xbda13a0c	-0.078724
49	0x3d912189	0.070864744
50	0xbd334608	-0.04376796
51	0x3db8c250	0.09021437
52	0xbd24bf80	-0.04022169
53	0xbd1be80d	-0.038063098
54	0xbd1dcc29	-0.03852478
55	0xbdbc87e3	-0.09205606
56	0x3d517eb8	0.05114624
57	0x3df53c80	0.1197443
58	0x3d992dad	0.07479415
59	0x3db3886c	0.08766255
60	0xbb9be8df	-0.004757985
61	0xbda5ef4c	-0.08102283
62	0x3da131d3	0.07870831
63	0x3ba3818c	0.0049898084
64	0x3c19f5d2	0.009396987
65	0x3d75d802	0.060020454
66	0x3d8aa9c0	0.067706585
67	0x3df86bbb	0.12129923
68	0x3d063162	0.03276194
69	0xbdddd795	-0.10832135
70	0x3b0c5f82	0.0021419232
71	0x3c9d33ce	0.019189741
72	0x3d815cf3	0.06316557
73	0x3d3d62dd	0.04623686
74	0xbc3cd92a	-0.011526385
75	0x3df3138e	0.11868964
76	0xbdfc5fad	-0.12322936
77	0xbcbb9245	-0.022896895
78	0xbd89799d	-0.06712649
79	0xbd40cbf9	-0.047069523
80	0x3d58f618	0.05296907
81	0x3df02af1	0.117269404
82	0xbd615e50	-0.055021584
83	0xbd619296	-0.055071436
84	0xbe266874	-0.16250783
85	0xbdff522d	-0.12466846
86	0x3d37ac8e	0.044842295
87	0x3d89960f	0.067180745
88	0x3dc81542	0.097696796
89	0xbe09bb02	-0.13450244
90	0xbd0f93b7	-0.03505298
91	0x3d2cecaf	0.042217907
92	0xba6bbafa	-0.00089924
93	0x3d18be7c	0.037291035
94	0x3d472e5f	0.048628207
95	0xbd1459f2	-0.03621859
96	0xbc1b0fcf	-0.009464218
97	0xbdecb326	-0.11557607
98	0xbd8c0319	-0.06836528
99	0x3d8576d4	0.06516805
100	0x3dd90353	0.10596337
101	0x3e05f92e	0.13083336
102	0xbd7413cd	-0.059589196
103	0x3da2eb58	0.079550445
104	0x3d799e0d	0.060941745
105	0xbcf1a86e	-0.029499259
106	0xbc419023	-0.01181415
107	0x3dc451d9	0.09585924
108	0xbe12f9e0	-0.14353132
109	0xbc473600	-0.012158871
110	0xbd8749e9	-0.06605894
111	0x3d845f6c	0.06463513
112	0xbd091372	-0.03346581
113	0x3d3263dc	0.043552265
114	0x3d37fc23	0.04491819
115	0x3e0e6aef	0.1390798
116	0x3e24627b	0.16053192
117	0xbd99eaa5	-0.07515458
118	0x3db67155	0.08908335
119	0x3e23c4f2	0.15993097
120	0xbdc403d0	-0.0957104
121	0xbd076fc0	-0.033065557
122	0xbd2d9727	-0.04238048
123	0x3d823ea3	0.06359603
124	0x3da33c10	0.079704404
125	0xbdd4dc6f	-0.10393607
126	0xbdd2c0b8	-0.102906644
127	0x3da2b0ee	0.07943903
128	0xbe0d90f7	-0.13824831
129	0xbd5de945	-0.05417754
130	0x3da29f96	0.07940595
131	0xbd9949c3	-0.07484772
132	0x3d3d0599	0.046147916
133	0x3984b88b	0.00025314497
134	0xbce968a2	-0.028492276
135	0x3b405462	0.002934717
136	0x3de6232a	0.11237176
137	0xbb254d95	-0.0025223244
138	0x3d844aa0	0.06459546
139	0x3decf64f	0.11570417
140	0x3db4d2a5	0.0882924
141	0xbdf1a32d	-0.117987014
142	0xb6bce889	-5.6299073e-06
143	0xbd9f9f58	-0.07794064
144	0xbd3cdbd4	-0.046108082
145	0x3d5b14f6	0.053486787
146	0x3d7d2174	0.06179948
147	0x3d8f56a4	0.06998947
148	0x3dd6c2d0	0.10486376
149	0x3dbc3319	0.091894336
150	0x3d5759d8	0.052575916
151	0x3d2a64b9	0.041599963
152	0x3d3d69a6	0.046243332
153	0x3d1565f4	0.036474183
154	0xbdcdf70b	-0.10056885
155	0x3dd31f69	0.103087254
156	0x3d796230	0.060884655
157	0x3d293695	0.04131182
158	0x3c00fae4	0.007872317
159	0xbbd84317	-0.0065997946
160	0xbdbae250	-0.09125197
161	0x3d29d094	0.04145868
162	0x3d18d030	0.037307918
163	0x3dd9a3ca	0.106269434
164	0xbd93e512	-0.07221426
165	0x3d8fd92b	0.070238434
166	0xbdd4e63a	-0.10395475
167	0x3a7009f8	0.0009156759
168	0xbd69f79f	-0.057120916
169	0xbdc61ee5	-0.096738614
170	0xbcc3bf7a	-0.023895014
171	0xbc6252c6	-0.01381368
172	0xbe05b3fd	-0.13056941
173	0xbd970ddf	-0.073756926
174	0xbde07ab2	-0.10960902
175	0xbd4f2946	-0.05057647
176	0x3d9061d8	0.07049912
177	0xbd3a0abb	-0.04542039
178	0xbdc2fd76	-0.09521
179	0xbcc1aa76	-0.023640852
180	0xbd355729	-0.044272576
181	0xbc197f5b	-0.009368743
182	0x3d2933ee	0.04130929
183	0x3df8b2fc	0.121435136
184	0x3da730e4	0.08163622
185	0x3b2fbcd4	0.0026815431
186	0x3de61a3c	0.112354726
187	0xbd257b9d	-0.04040109
188	0x3dcb6dd9	0.09933061
189	0xbcaa41f7	-0.020783408
190	0xbdb16b9b	-0.08663102
191	0x3d474d92	0.04865796
192	0xbda170f4	-0.07882872
193	0x3dc82934	0.09773484
194	0x3ded477a	0.11585899
195	0x3e0b48aa	0.13601938
196	0x3c26e8e3	0.01018736
197	0x3c133b3e	0.008986292
198	0x3d7442c0	0.05963397
199	0x3ceebe30	0.029143423
200	0x3d7283ad	0.059207607
201	0x3df3954d	0.11893711
202	0xbcd8e893	-0.026478088
203	0x3de1a0f2	0.11017026
204	0x3d8acd4c	0.067774385
205	0x3be9f2a9	0.007139523
206	0x3dfd17d8	0.123580635
207	0x3dde4223	0.10852458
208	0x3cc39348	0.02387394
209	0xbdcfa08b	-0.10138043
210	0x3d93e590	0.0722152
211	0xbdcf3480	-0.101174355
212	0x3d98f530	0.07468641
213	0xbdd8df70	-0.10589492
214	0x3dee0779	0.11622519
215	0xbd04b41d	-0.032398332
216	0x3c4ff287	0.0126921
217	0xbdfb4eb3	-0.1227087
218	0xbc61b10c	-0.013775121
219	0x3b4a2cb1	0.0030849392
220	0xbd2cb05f	-0.042160388
221	0x3d93660a	0.07197197
222	0xbd4c463b	-0.049871664
223	0xbdc19416	-0.09452073
224	0xbd133c5a	-0.035946228
225	0xbc62de9b	-0.013847019
226	0xbc1e24bf	-0.009652316
227	0xbd0f9ae8	-0.03505984
228	0x3db39081	0.08767796
229	0xbd8a1f65	-0.06744269
230	0x3b3f9f89	0.0029239377
231	0x3d980ad9	0.07423944
232	0x3bff75c2	0.0077960202
233	0x3cc7010e	0.024292495
234	0xbd941f0f	-0.072324865
235	0xbde4d382	-0.111731544
236	0xbbc27ad3	-0.005935052
237	0x3db8e161	0.090273626
238	0xbdbc7f84	-0.09204009
239	0x3a42b833	0.00074279605
240	0xbdd288d8	-0.10280007
241	0x3dbf5c13	0.09343734
242	0x3d00bc64	0.031429663
243	0xbdb91559	-0.09037275
244	0xbcbc871b	-0.023013642
245	0xbd7e111a	-0.062028028
246	0x3bd1cfb9	0.0064029363
247	0xbd6d0c49	-0.057873044
248	0xbdd77129	-0.105196305
249	0x3d61d74e	0.05513697
250	0xbbaf10f1	-0.0053425957
251	0x3dcc82c3	0.09985878
252	0x3dd4f05e	0.10397409
253	0xbc2a8c61	-0.0104094455
254	0xbda588d9	-0.08082742
255	0xbd700a68	-0.058603674

lstm.bias_ih_l1 f4 [256]
0	0x3e1138a2	0.1418176
1	0x3e0414b5	0.12898524
2	0x3df49dc0	0.11944151
3	0x3de33bc5	0.110953845
4	0x3e035b44	0.12827784
5	0xbcabc278	-0.020966753
6	0xbd4d5881	-0.050133232
7	0x3b0699ae	0.0020538378
8	0x3d846e60	0.06466365
9	0xbcea7a61	-0.028622808
10	0x3d85c45e	0.06531595
11	0xbced7618	-0.028986976
12	0xbd88e2d0	-0.06683886
13	0x3da9b085	0.082856216
14	0xbc86cf33	-0.016456222
15	0x3d7a31a2	0.06108249
16	0xbdcbd48c	-0.099526495
17	0x3d443379	0.04790065
18	0xbdd2db51	-0.102957375
19	0x3cabd248	0.020974293
20	0xbd825d4b	-0.063654505
21	0x3db282ae	0.087163314
22	0x3d304967	0.043038752
23	0x3e0f2ae9	0.13981213
24	0xbdda4932	-0.10658492
25	0x3c1b8c85	0.009493952
26	0x3da2e2ce	0.07953416
27	0xbd73c774	-0.059516385
28	0x3cf956b7	0.030436857
29	0x3d53aea4	0.051680222
30	0xbd5fd4a6	-0.054646157
31	0x3d5c5848	0.05379513
32	0x3da74d86	0.08169083
33	0x3dc11004	0.09426883
34	0x3e05d9d5	0.13071378
35	0xbd9bcab4	-0.07607022
36	0x3dba8d50	0.091089845
37	0x3cfc3a6a	0.030789573
38	0xbc9267b9	-0.017871724
39	0x3d0370fb	0.03209017
40	0x3d9c497b	0.07631203
41	0x3d69b19a	0.05705414
42	0x3d64644d	0.055759717
43	0xbbdc641b	-0.0067258007
44	0x3d5430d0	0.051804364
45	0x3dfbd578	0.12296575
46	0xbd6f54f4	-0.058430627
47	0xbced41cb	-0.028962037
48	0x3e0df9cf	0.13864826
49	0x3de6b687	0.11265283
50	0xbda144e7	-0.0787447
51	0xbdaf8570	-0.08570373
52	0xbd515d19	-0.051114175
53	0x3c90822c	0.017640196
54	0x3bc0b992	0.0058814967
55	0x3e17e47d	0.14833255
56	0xbd58eeec	-0.05296223
57	0x3ddd1556	0.10795085
58	0x3e051a0f	0.12998222
59	0x3dca6334	0.09882203
60	0x3d3f6a42	0.046732195
61	0xbd9a6989	-0.075396605
62	0x3d3464a9	0.04404131
63	0xbdde4148	-0.10852295
64	0xbd54deee	-0.051970415
65	0xbc91fd9c	-0.017821126
66	0x3e0354f9	0.12825383
67	0xbde2b37d	-0.11069391
68	0x3d3f001c	0.046630964
69	0x3ded37d6	0.115829155
70	0xbd80a010	-0.062805295
71	0x3b8c8d8e	0.0042893356
72	0x3c457c0d	0.012053502
73	0xbd1b38d4	-0.037895992
74	0x3de0940a	0.10965736
75	0xbd84194b	-0.06450137
76	0x3e02cb93	0.1277297
77	0x3b80254a	0.003910695
78	0x3d242a30	0.040079296
79	0x3e17947c	0.14802736
80	0xbc186602	-0.009301664
81	0x3de3862e	0.11109577
82	0xbcec8ed0	-0.028876692
83	0x3c12b300	0.00895381
84	0xb9ac3c15	-0.0003285116
85	0x3da964f2	0.08271207
86	0x3dd4c34a	0.10388811
87	0x3e04031a	0.12891808
88	0xbbbbbb99	-0.0057291505
89	0x3d69d6f8	0.057089776
90	0x3ddf4ce7	0.1090334
91	0x3d255311	0.04036242
92	0x3d69f5ff	0.057119366
93	0x3d61ca5d	0.05512463
94	0x3dc5296f	0.096270435
95	0xbd847710	-0.06468022
96	0xbda922cf	-0.08258592
97	0x3d354fac	0.044265434
98	0x3d2c3f4b	0.04205255
99	0x3db4a1d3	0.08819928
100	0x3de0ba08	0.10972983
101	0x3d23ef40	0.04002309
102	0xbd1ad773	-0.037803125
103	0xbda434f8	-0.080179155
104	0x3dc67d8a	0.096919134
105	0x3dd1aab5	0.10237638
106	0x3d064e33	0.03278942
107	0x3d9283c3	0.07154038
108	0x3dfdd1fc	0.12393567
109	0x3d239ed2	0.039946385
110	0x3d8c1565	0.06840018
111	0x3d8cb288	0.0686999
112	0x3da464c7	0.08027034
113	0xbd9ff298	-0.07809943
114	0xbd9c70f0	-0.076387286
115	0xbcde8e0e	-0.027167346
116	0x3cc44bdd	0.023961956
117	0x3bda1cb0	0.006656252
118	0x3db8e56f	0.09028136
119	0xbcd64fcd	-0.026161099
120	0x3d0bb348	0.034106523
121	0x3db79c43	0.089653514
122	0xbb8f5f41	-0.004375369
123	0xbda3e155	-0.08001963
124	0x3e111186	0.14166841
125	0x3b756e22	0.0037449677
126	0xbd222eaa	-0.039595284
127	0x3c86516b	0.016396245
128	0xbc63d46e	-0.013905628
129	0x3d9852f3	0.07437696
130	0xbd148bb9	-0.036266062
131	0xbcc507bc	-0.02405154
132	0xbddb9299	-0.10721321
133	0x3d634856	0.055488907
134	0xbd9473b2	-0.0724863
135	0x3c1f6ff9	0.009731286
136	0x3bc99f38	0.0061530136
137	0x3dc5cd29	0.09658272
138	0x3de7a7ba	0.11311288
139	0x3deb0334	0.1147522
140	0xbce73180	-0.028221846
141	0x3d9d2c8a	0.07674511
142	0xbdab081d	-0.08351157
143	0xbd0c48c6	-0.03424909
144	0xbe060b47	-0.1309024
145	0x3e071bf3	0.13194256
146	0xbdb8c339	-0.09021611
147	0x3bae1c83	0.0053134575
148	0xbcfb01f3	-0.030640578
149	0xbd898596	-0.067149326
150	0xbdf87ea4	-0.1213353
151	0xbd3cbb53	-0.046077084
152	0xbd199643	-0.037496816
153	0xbc80a6bf	-0.01570451
154	0xbd8e5b02	-0.06950952
155	0x3db29094	0.08718982
156	0x3ccd0648	0.02502741
157	0xbc7c774d	-0.015409303
158	0xbdeb634d	-0.114935495
159	0xbc19d8a2	-0.009390028
160	0x3c8b17f7	0.0169792
161	0x3c32c9da	0.010912383
162	0xbd8f017c	-0.06982705
163	0xbd9daa65	-0.07698516
164	0xbd79e6a2	-0.061010964
165	0x3da371f6	0.07980721
166	0x3d71bacc	0.059016034
167	0xbd741077	-0.059586015
168	0x3de8e018	0.113708675
169	0x3d8164a9	0.063180275
170	0x3cbeca43	0.023289805
171	0x3d338ee5	0.043837447
172	0xbe0eddf6	-0.13951859
173	0x3df499e9	0.119434185
174	0x3cedca8c	0.029027246
175	0x3c8e9194	0.017403401
176	0xbdb0e832	-0.08638038
177	0xbd8113f1	-0.06302632
178	0x3d68a6c4	0.056799665
179	0x3b5bb492	0.0033524376
180	0x3ddd3906	0.10801892
181	0xbd3cde56	-0.046110474
182	0xbd84eeb5	-0.06490842
183	0x3e066cca	0.13127437
184	0xbde5f98a	-0.112292364
185	0xbdc3dcfa	-0.09563632
186	0xbd02af64	-0.031905547
187	0x3d783c46	0.060604356
188	0xbd9bf771	-0.07615555
189	0x3c1db987	0.009626753
190	0xbd952c6e	-0.07283865
191	0x3cdea922	0.027180258
192	0xbd2f0560	-0.042729735
193	0x3df829ff	0.12117385
194	0xbda60527	-0.081064515
195	0x3d751c7f	0.05984163
196	0x3e06ae0c	0.13152331
197	0xbdbcecd8	-0.09224862
198	0xbdc9d275	-0.098545946
199	0x3db5408f	0.08850204
200	0x3cc7e0b3	0.024399137
201	0x3d60eff1	0.054916326
202	0xbced41c5	-0.028962025
203	0x3d49771b	0.049185853
204	0x3d3a67d6	0.045509182
205	0x3e10ed7d	0.14153095
206	0x3d466680	0.048437595
207	0xbd4eea21	-0.05051625
208	0xbd77d671	-0.06050724
209	0xbd88a915	-0.06672875
210	0xbdd3cc26	-0.103416726
211	0x3d3c0d29	0.045910988
212	0x3d2f2cd8	0.042767376
213	0x3d1ed6ab	0.038778942
214	0x3cce850d	0.025209928
215	0x3d46edb3	0.04856653
216	0x3dc21b4f	0.09477865
217	0xbd99002a	-0.074707344
218	0xbda7ce55	-0.081936516
219	0x3c9b6749	0.018970149
220	0xbd6626d3	-0.05618937
221	0x3d9688d2	0.07350315
222	0x3cef6237	0.029221637
223	0x3d392a8b	0.045206588
224	0xbd9e51a8	-0.077304184
225	0xbdb7d5fb	-0.089763604
226	0x3e076a88	0.13224232
227	0x3d4a25f1	0.04935259
228	0x3dcda484	0.100411445
229	0x3d2dec4a	0.04246167
230	0x3d4a50bd	0.049393404
231	0x3e14db29	0.14536728
232	0xbc1474dc	-0.009061065
233	0x3c5237c4	0.012830678
234	0xbd258016	-0.040405355
235	0x3963d91f	0.00021729291
236	0x3c93a4d1	0.018022927
237	0x3d844da3	0.064601205
238	0x3db700ce	0.089357
239	0xbdc07410	-0.09397137
240	0x3e125ae8	0.1429249
241	0x3cdc6370	0.026902884
242	0x3c0a54db	0.008443083
243	0x3cdf42ea	0.027253587
244	0x3d5e9ec8	0.054350644
245	0xbcf32643	-0.02968133
246	0x3d862640	0.06550264
247	0x3df832ec	0.121190876
248	0x3dbe1e46	0.09283118
249	0x3dc23386	0.094824836
250	0x3d89b194	0.067233235
251	0x3c8ec5f2	0.017428372
252	0xbdad576f	-0.08463942
253	0x3d8d2084	0.068909675
254	0xbb8e9377	-0.0043510753
255	0xbd859d86	-0.06524186
