model/ver2_lstm_model.pth (torch, 228840 bytes, 10 tensors)

lstm.weight_ih_l0 f4 [256, 19]
-0.020299485 -0.05408025 -0.05418046 -0.12822872 0.090463616 0.09597408 -0.12822135 0.097124174
-0.01799493 0.07187316 -0.11619874 -0.13927552 0.04329381 0.027770815 0.10550979 0.029225158
-0.09077405 0.072930664 -0.07102688 -0.053741366 0.0029569822 -0.015383427 0.068818815 -0.0012511979
0.1342251 -0.055332143 -0.12990871 -0.009836479 0.014073669 0.06033722 -0.07570501 -0.068764366
0.115635 -0.12383962 -0.11901308 -0.102587014 0.026449353 0.0034764458 0.017135806 0.029381765
0.08715256 0.040322356 -0.049337212 0.08321196 -0.13904835 0.07049273 0.07103476 0.041845284
-0.07604761 0.030947434 -0.03405135 -0.0054079276 -0.0008621869 0.0957923 -0.103586085 0.048584428
-0.06019453 -0.0020426253 -0.110255726 -0.1300401 0.013005299 0.02256032 -0.07236364 -0.077592686
-0.13385752 0.05570227 0.11493445 0.0023176218 0.012970137 0.0040800367 -0.12067623 0.015103152
0.027661687 0.056334045 -0.050732728 -0.05681148 0.08098365 -0.01485858 -0.031583317 -0.07710902
0.08589197 0.037917916 -0.12089893 -0.08781464 -0.039991386 -0.07901667 0.062749885 -0.069200486
-0.024469186 0.082786836 0.021150526 -0.0031812426 -0.108063795 -0.10018512 -0.027689818 -0.09251716
0.005817411 0.08962864 0.11133494 0.056386773 -0.09709235 0.0053718793 0.116962604 -0.10233293
0.012207914 -0.05891377 -0.02387231 -0.05039938 0.019445218 -0.026161345 -0.023129214 -0.045702223
-0.006456685 0.040315863 -0.11131982 0.08790643 0.05124293 -0.06949283 -0.1116432 -0.06625342
-0.07931163 0.112442136 -0.07028853 -0.039617557 0.032890756 -0.030202653 -0.05059509 0.09588051
-0.10698427 0.08855936 0.078837015 0.13004981 0.014692333 0.025431689 -0.07352023 -0.00091164996
-0.141692 -0.0334616 -0.026061999 -0.029902766 0.04530901 0.07601647 0.041748893 0.043228544
-0.015204212 0.020140179 -0.103853606 -0.020305747 -0.09276471 -0.07955922 0.0790505 -0.0019497519
0.025689503 0.09443181 -0.12153821 -0.1206204 -0.010007587 0.065559246 -0.11915466 0.009247129
-0.091078214 -0.020259604 0.10963271 0.027360173 -0.028886078 0.009634236 -0.112784475 -0.059711497
0.10355541 0.05568262 -0.102312796 -0.081113175 -0.04249035 -0.03191739 0.035316717 0.08561907
0.09696999 0.0016676397 0.11074579 0.028023947 -0.13693443 -0.12909114 -0.00047143322 0.06020799
-0.065381855 -0.0992322 0.08046026 0.036427267 0.031210195 -0.10252092 -0.036031988 -0.105808854
-0.08146356 -0.12824744 0.05540942 0.01853235 -0.050680995 0.020345356 -0.031485274 0.041862603
-0.030643594 -0.08457214 0.095864795 0.08700273 -0.074295685 0.084050745 -0.09024179 -0.06305097
0.10486716 -0.020474706 -0.06439632 -0.036142405 0.104346655 -0.10312178 0.0108754095 0.044107273
-0.107929036 -0.1601943 -0.038536273 -0.087780565 0.0020133932 -0.024847263 -0.02374485 0.035970267
-0.107716896 0.04257569 -0.10764813 0.015434754 0.09675467 0.08449716 0.10448653 0.004465622
0.102602184 0.07259324 0.047709823 -0.08784818 -0.004018736 -0.086871706 -0.07017282 0.08334734
0.022313079 -0.020192092 0.06158325 -0.10589255 0.009497462 -0.12859696 0.018377058 0.11011284
-0.009140222 0.0680923 0.037206486 0.10994872 -0.112278745 0.06287554 -0.051037967 -0.025849225
00000000: 1b4b a6bc 4183 5dbd 54ec 5dbd 644e 03be
00000010: fd44 b93d 0f8e c43d 754c 03be 0ae9 c63d
00000020: 1a6a 93bc 3c32 933d 9bf9 edbd 3e9e 0ebe
00000030: da54 313d 9f7f e33c 8415 d83d 9969 ef3c
00000040: bfe7 b9bd ac5c 953d 8a76 91bd e81f 5cbd
00000050: eec9 413b c50a 7cbc e1f0 8c3d 3cff a3ba
00000060: 4e72 093e f5a3 62bd ca06 05be 2f29 21bc
00000070: 3f95 663c 2924 773d 3a0b 9bbd 55d4 8cbd
00000080: 0bd2 ec3d a09f fdbd 21bd f3bd 2419 d2bd
00000090: 50ac d83c 15d5 633b 6460 8c3c 07b2 f03c
000000a0: 0b7d b23d 0e29 253d d115 4abd 086b aa3d
000000b0: b162 0ebe 7e5e 903d ac7a 913d f665 2b3d
000000c0: d9be 9bbd 7985 fd3c 6e79 0bbd fc34 b1bb
000000d0: 6204 62ba c12e c43d f124 d4bd 7700 473d
000000e0: 8a8e 76bd 91dd 05bb c1cd e1bd 3b29 05be
000000f0: 2d14 553c 6cd0 b83c 6333 94bd eae8 9ebd
00000100: f211 09be 1028 643d c162 eb3d 3ee3 173b
00000110: b380 543c d4b1 853b 1925 f7bd 3673 773c
00000120: c39a e23c 87be 663d 1fcd 4fbd 28b3 68bd
00000130: c2da a53d 6771 73bc 825d 01bd 55eb 9dbd
00000140: 21e8 af3d d14f 1b3d dc99 f7bd 29d8 b3bd
00000150: 02ce 23bd 7ed3 a1bd 0383 803d fcb8 8dbd
00000160: 9a73 c8bc 258c a93d de43 ad3c 657c 50bb
00000170: 8d50 ddbd db2d cdbd c2d5 e2bc a379 bdbd
00000180: fb9f be3b 388f b73d 9303 e43d d1f5 663d
00000190: 5bd8 c6bd 9706 b03b 178a ef3d ed93 d1bd
000001a0: b403 483c 914f 71bd dd8f c3bc 956f 4ebd
000001b0: 944b 9f3c 5150 d6bc 7a79 bdbc 4132 3bbd
000001c0: 9992 d3bb 3f22 253d a5fb e3bd 4908 b43d
000001d0: 1be4 513d 4252 8ebd 31a5 e4bd e0af 87bd
000001e0: 236e a2bd 1048 e63d 6ff3 8fbd 0546 22bd
000001f0: 75b8 063d 8e6b f7bc cc3c 4fbd 005d c43d
00000200: 921a dbbd 9c5e b53d 4d75 a13d c72b 053e
00000210: 1cb8 703c 1e56 d03c c691 96bd cbfb 6eba
00000220: b517 11be 080f 09bd f97f d5bc a5f6 f4bc
00000230: f195 393d 86ae 9b3d e300 2b3d 6a10 313d
00000240: 161b 79bc 04fd a43c 33b1 d4bd 3d58 a6bc
00000250: 6dfb bdbd f2ef a2bd 3be5 a13d d18e ffba
00000260: cb72 d23c 7765 c13d 06e9 f8bd d407 f7bd
00000270: ddf6 23bc ed43 863d 5c07 f4bd 4581 173c
00000280: 3787 babd 78f7 a5bc 1d87 e03d 7122 e03c
00000290: 7fa2 ecbc ead8 1d3c 8cfb e6bd 0b94 74bd
000002a0: dc14 d43d 7513 643d 5f89 d1bd aa1e a6bd
000002b0: 5c0a 2ebd cfbb 02bd 43a8 103d 0d59 af3d
000002c0: 3498 c63d b494 da3a b0ce e23d 7a92 e53c
000002d0: 8a38 0cbe 7830 04be b22a f7b9 a79c 763d
000002e0: ece6 85bd 403a cbbd 59c8 a43d c234 153d
000002f0: 86ac ff3c 7df6 d1bd 4796 13bd 50b2 d8bd
00000300: 5ed6 a6bd 4c53 03be fdf4 623d 28d1 973c
00000310: e096 4fbd 4eab a63c b4f6 00bd 1f78 2b3d
00000320: 4608 fbbc 2834 adbd c354 c43d 7d2e b23d
00000330: 5628 98bd cc22 ac3d b0d0 b8bd de20 81bd
00000340: 98c4 d63d 92ba a7bc 38e2 83bd 0f0a 14bd
00000350: b3b3 d53d 8331 d3bd c62e 323c d4a9 343d
00000360: e609 ddbd f909 24be 36d8 1dbd 4cc6 b3bd
00000370: 22f3 033b 7d8c cbbc 8f84 c2bc 8f55 133d
00000380: ad9a dcbd d963 2e3d 9f76 dcbd 0de2 7c3c
00000390: 5027 c63d d90c ad3d 09fd d53d 5a54 923b
000003a0: 1821 d23d c4ab 943d 606b 433d bfe9 b3bd
000003b0: 9aaf 83bb cbe9 b1bd c4b6 8fbd 03b2 aa3d
000003c0: ebc9 b63c e369 a5bc b83e 7c3d 31de d8bd
000003d0: 3e9b 1b3c ecae 03be 7c8b 963c d782 e13d
000003e0: dfc0 15bc fa73 8b3d d465 183d cb2c e13d
000003f0: 66f2 e5bd e4c4 803d 300d 51bd c1c1 d3bc

lstm.weight_hh_l0 f4 [256, 64]
0.10802787 -0.05662627 -0.0044156224 0.009609906 -0.019848544 -0.059289973 0.01370421 0.03308547
-0.05673073 0.03964901 0.061108265 -0.02402805 0.00058117573 0.15060389 -0.041878294 -0.10134511
-0.06221703 -0.0037866433 0.02089375 -0.0960868 0.048214726 -0.007284841 -0.0061661266 0.13384451
0.04910968 -0.038677182 0.1546888 0.013347107 0.10027803 0.040799018 0.021929007 0.122922875
-0.13824333 0.0060044467 -0.004362731 -0.17507036 -0.053707138 0.0020184855 0.048279785 0.04049517
0.09717621 0.10351343 -0.05754756 0.05815071 0.06747396 -0.12831604 0.016827978 0.011926746
0.038840495 0.010798906 0.066620804 0.042934477 -0.08497055 0.009818329 -0.045075398 0.13167784
-0.062039662 -0.078818806 0.0061892644 -0.064648315 -0.062019117 0.035263944 -0.026472451 0.05211717
0.13824616 -0.1623311 -0.1262053 -0.028447703 0.060564816 0.06704266 0.030030806 0.07847808
0.03048195 -0.13967454 -0.09894538 -0.12936856 -0.10070003 -0.007821232 0.15765591 0.066714466
0.107520804 0.06748364 -0.13510083 -0.14628942 -0.020290492 0.11397016 -0.069152705 0.075084746
0.11962319 -0.1706855 -0.051837403 -0.09405922 -0.047695257 -0.119996615 -0.17020163 0.11235788
-0.06090206 -0.09931667 0.10910548 -0.11408514 -0.08331085 0.07389481 -0.019322807 0.12123907
-0.037626192 0.12945765 0.076709375 -0.01181968 0.007012907 0.049248092 0.0762761 -0.12388113
-0.13398862 0.062370308 -0.039025083 0.014195696 0.002243359 -0.0087960055 0.15330777 -0.06647914
0.0151382955 0.14921354 -0.02579855 -0.10318116 0.1287488 0.02554003 -0.018262457 0.026655847
0.07262542 0.05817559 0.020019896 -0.12216354 0.10228496 -0.019702623 -0.023483187 0.04294678
-0.11450635 -0.017877815 0.038679857 0.071736254 -0.04061767 -0.011510161 -0.06372455 0.043527406
0.10059461 -0.12665741 -0.050833683 -0.14120851 -0.035890985 -0.047110885 0.05636803 -0.018204322
0.086132735 0.03488489 0.04866102 -0.105895914 0.07802698 0.1067588 -0.15146519 -0.069498055
0.029286245 0.03559877 0.04425644 -0.012321036 -0.066046365 -0.034318656 -0.11699167 0.09258709
-0.0057544145 0.13395223 -0.043677226 0.08981411 -0.1370394 -0.08108509 0.012141246 -0.10108782
-0.06585365 0.09233949 0.078348994 -0.09016438 -0.14976205 -0.07799857 -0.073034644 0.078419544
0.07938488 0.014416191 0.013906488 -0.07312384 0.08330157 -0.15908372 0.023897823 0.01669647
-0.044726506 -0.1373934 -0.021475613 -0.17430706 0.091240376 0.04212049 0.15849453 -0.023989167
-0.050014142 -0.067985125 0.052879725 -0.09874675 -0.04005238 -0.0691157 -0.022508763 0.05199264
0.04516885 0.040426303 -0.02027493 -0.04320004 -0.019568428 0.15373369 -0.13126016 0.10971189
0.15295391 -0.11797085 0.04194092 -0.14714953 -0.12595825 0.106710754 -0.18115674 0.01734774
0.0343053 -0.14035006 0.009531846 0.022631891 0.049976066 0.013912887 0.06516025 -0.014780301
0.039174147 -0.04777554 0.10632268 -0.10259851 -0.07111289 0.013603128 0.039111536 -0.023379145
-0.16081877 0.15687841 -0.055613305 -0.16889483 0.03330239 -0.08254116 -0.055761263 0.058904815
-0.021347886 -0.019682119 -0.068093136 0.03950141 0.017262746 -0.107941605 -0.07462585 -0.06741068
00000000: b73d dd3d f3f0 67bd edb0 90bb de72 1d3c
00000010: 6a99 a2bc 0bda 72bd 9f87 603c a184 073d
00000020: 7b5e 68bd 0067 223d a94c 7a3d 79d6 c4bc
00000030: 0b5a 183a e837 1a3e 9388 2bbd 068e cfbd
00000040: 49d7 7ebd 5529 78bb 5f29 ab3c 28c9 c4bd
00000050: ce7c 453d adb5 eebb 380d cabb 890e 093e
00000060: 3b27 493d f76b 1ebd be66 1e3e d3ad 5a3c
00000070: 915e cd3d df1c 273d 76a4 b33c fdbe fb3d
00000080: a98f 0dbe f3c0 c43b 3df5 8ebb a545 33be
00000090: 04fc 5bbd 9148 043b 06c1 453d 43de 253d
000000a0: 5204 c73d d9fe d33d feb6 6bbd 702f 6e3d
000000b0: ca2f 8a3d 4865 03be d4da 893c 6668 433c
000000c0: 3617 1f3d e5ed 303c 7d70 883d 10dc 2f3d
000000d0: 0a05 aebd 0edd 203c fba0 38bd 8ed6 063e
000000e0: 4d1d 7ebd c16b a1bd 50cf ca3b 5666 84bd
000000f0: c207 7ebd ed70 103d c1dc d8bc d078 553d
00000100: 6790 0d3e 203a 26be f63b 01be 280b e9bc
00000110: d012 783d aa4d 893d 2a03 f63c 1eb9 a03d
00000120: 48b5 f93c d806 0fbe e0a3 cabd 3179 04be
00000130: d13b cebd a024 00bc 8d70 213e 98a1 883d
00000140: de33 dc3d dd34 8a3d df57 0abe e5cc 15be
00000150: 3f38 a6bc 3069 e93d ef9f 8dbd 08c6 993d
00000160: 01fd f43d 2ec8 2ebe 7553 54bd 1fa2 c0bd
00000170: 1a5c 43bd c9c0 f5bd 5649 2ebe e31b e63d
00000180: 7074 79bd 8a66 cbbd b272 df3d 78a5 e9bd
00000190: e19e aabd 2a56 973d dd4a 9ebc 314c f83d
000001a0: ec1d 1abd 8c90 043e ce19 9d3d 55a7 41bc
000001b0: 87cc e53b 5eb8 493d a536 9c3d 64b5 fdbd
000001c0: 5034 09be 0278 7f3d c4d8 1fbd 1195 683c
000001d0: 5205 133b 1f1d 10bc b6fc 1c3e 3726 88bd
000001e0: 9d06 783c 6fcb 183e 7b57 d3bc a550 d3bd
000001f0: bad6 033e 5339 d13c 269b 95bc 5d5d da3c
00000200: a3bc 943d 8749 6e3d c400 a43c e130 fabd
00000210: c77a d13d 6567 a1bc d05f c0bc f6e8 2f3d
00000220: 4e82 eabd 7f74 92bc c56e 1e3d 75ea 923d
00000230: b75e 26bd 1d95 3cbc 0482 82bd cb49 323d
00000240: 8c04 ce3d 7bb2 01be fb36 50bd f798 10be
00000250: 6d02 13bd 58f7 40bd 2ae2 663d 3b21 95bc
00000260: 5c66 b03d 75e3 0e3d c750 473d f5df d8bd
00000270: 9ccc 9f3d 5ca4 da3d b119 1bbe ff54 8ebd
00000280: b5e9 ef3c 04d0 113d 3e46 353d 2cde 49bc
00000290: 5143 87bd b891 0cbd 5499 efbd 4d9e bd3d
000002a0: 878f bcbb c62a 093e e4e6 32bd 76f0 b73d
000002b0: 0e54 0cbe f10f a6bd 14ec 463c 2207 cfbd
000002c0: 47de 86bd 7d1c bd3d 7075 a03d 1aa8 b8bd
000002d0: 395b 19be b7bd 9fbd 3093 95bd 6d9a a03d
000002e0: 8a94 a23d e331 6c3c 0ad8 633c f4c1 95bd
000002f0: 039a aa3d d8e6 22be 5ec5 c33c 09c7 883c
00000300: 2433 37bd dbb0 0cbe a0ed afbc 8d7d 32be
00000310: 3cdc ba3d 8986 2c3d 644c 223e ee84 c4bc
00000320: a1db 4cbd c93b 8bbd 6998 583d bc3b cabd
00000330: f70d 24bd 888c 8dbd 4c64 b8bc 3cf6 543d
00000340: f902 393d 0d96 253d 9c17 a6bc 86f2 30bd
00000350: f84d a0bc 5d6c 1d3e 1069 06be a1b0 e03d
00000360: f39f 1c3e b39a f1bd 3eca 2b3d 5eae 16be
00000370: 33fb 00be 2b8b da3d 2781 39be d91c 8e3c
00000380: b783 0c3d edb7 0fbe 762b 1c3c 8466 b93c
00000390: b4b3 4c3d e1f2 633c bd72 853d 1329 72bc
000003a0: 1275 203d 49b0 43bd b5bf d93d 2b1f d2bd
000003b0: a3a3 91bd a7df 5e3c 6b33 203d 9f85 bfbc
000003c0: adad 24be bca4 203e c7ca 63bd c4f2 2cbe
000003d0: 1668 083d 570b a9bd ec65 64bd 2d46 713d
000003e0: c3e1 aebc 653c a1bc 6a74 8bbd 3bcc 213d
000003f0: 9a6a 8d3c 7d10 ddbd 70d5 98bd 9c0e 8abd

lstm.bias_ih_l0 f4 [256]
-0.006728682 -0.010132046 0.06297506 -0.033302806 -0.04054116 0.09859993 0.12344295 0.021975312
-0.0067626843 0.1413197 0.03831862 -0.0499529 0.06573621 0.17729625 -0.008460669 0.15970531
0.01725638 0.0950937 0.06488449 0.17859499 0.119830325 0.07730796 0.045308933 0.034220446
0.13852802 0.07549832 0.108282536 0.15325335 0.031406444 0.08916119 -0.062008757 0.008930317
0.04472264 -0.01067896 0.1269991 0.088121586 -0.044465207 0.124450356 0.14223473 -0.0016677029
0.006918216 0.042212576 0.17990147 0.08232768 0.15133971 -0.043088622 0.043709606 0.08577548
0.16276887 0.08192397 0.08504753 0.009740807 0.10116126 0.16527346 0.033852745 0.13362269
0.1294657 0.15645625 0.020778533 -0.07013047 0.12762704 -0.07212586 0.08833582 0.03440477
0.10027219 0.06193535 0.06609224 0.10370634 0.11272305 0.04704069 0.12912251 0.06368079
-0.026293755 0.04554442 -0.030509917 0.03601374 -0.07425663 -0.1028605 0.0027777334 -0.0128706265
0.06949117 0.13527791 0.06526028 -0.048592996 -0.09430247 0.07690756 0.12917587 -0.04419796
-0.009810595 0.005731415 -0.043174833 0.026921323 -0.120476976 -0.12442955 0.044460617 0.089564934
-0.08702617 0.11299971 0.016209131 -0.05414677 -0.10985729 0.022303523 -0.032061487 0.024236485
0.020252177 -0.032832947 -0.048789706 0.082954064 -0.028942905 0.11063811 0.10277403 -0.022333937
-0.08860205 -0.053511724 -0.090011396 0.09785865 0.110940255 -0.094937995 0.02785568 -0.09561361
0.13205244 -0.058219146 0.12781554 -0.026021723 0.06628284 0.1337123 0.035232726 -0.06634407
-0.091587365 -0.13848822 -0.0993381 -0.122110315 -0.13107647 -0.0031252601 0.082328 0.038471486
0.045425765 -0.12895276 0.0147469845 -0.118267044 0.08748331 0.13813864 0.06568157 -0.02183849
0.10568017 -0.1385886 0.043659434 -0.12965377 -0.020357527 0.05427145 -0.11835982 0.00837603
0.13763233 -0.12493539 0.14027761 0.008788388 -0.028160928 -0.0057003135 -0.14506057 0.07859055
-0.07512283 -0.10039114 -0.021864543 -0.15683378 0.031572115 -0.05029788 -0.09869655 0.009531193
0.06930231 0.031674147 -0.0025813647 -0.08426579 -0.12789346 0.10673709 -0.054169964 0.066597305
-0.08191313 0.12542501 0.028187094 -0.08640365 -0.1265707 -0.13775432 0.07820428 0.12900399
-0.035208464 0.05986357 -0.037659295 -0.14262524 0.1539632 -0.044850744 0.019498473 -0.009249813
-0.009059064 -0.05333805 0.0024864613 -0.008784083 0.0038327556 0.11748389 -0.06318686 0.15482323
0.040393513 0.124766245 0.15310153 0.045009237 0.038646415 0.047813352 -0.05002108 0.13876222
0.115102924 -0.009658645 -0.009567558 -0.01162145 0.14264305 0.14591677 0.17888059 -0.006797076
0.019046742 -0.018113669 -0.039137598 -0.054799695 0.10821068 0.15317364 0.09202514 0.07296781
-0.0012850999 -0.08319262 -0.0210452 0.10832851 -0.072806634 0.043216314 0.12799 0.06120529
0.038178943 -0.053851325 0.018773045 0.0039694463 -0.07613807 -0.021858193 0.06899817 -0.025231548
-0.018269598 0.036730062 0.0027789047 -0.043827374 -0.04844767 0.05277972 0.16168329 0.05474889
0.04348065 -0.016939383 0.12341 -0.008243733 -0.0018072786 -0.0060160453 -0.0538846 0.14472343
00000000: 477c dcbb e200 26bc 11f9 803d 8668 08bd
00000010: 7d0e 26bd c3ee c93d a8cf fc3d 9205 b43c
00000020: 8299 ddbb 1db6 103e fcf3 1c3d 699b 4cbd
00000030: b5a0 863d 268d 353e 9e9e 0abc ca89 233e
00000040: 405d 8d3c 7cc0 c23d 29e2 843d 9be1 363e
00000050: 9a69 f53d a353 9e3d dc95 393d bd2a 0c3d
00000060: 4ada 0d3e dd9e 9a3d 3cc3 dd3d 72ee 1c3e
00000070: 0ba4 003d 249a b63d e5fc 7dbd 7750 123c
00000080: 162f 373d cef6 2ebc 0d0c 023e 1779 b43d
00000090: 2621 36bd d4df fe3d fba5 113e d396 daba
000000a0: 34b2 e23b 18e7 2c3d 1738 383e 6a9b a83d
000000b0: ccf8 1a3e b27d 30bd d808 333d 0eab af3d
000000c0: e2ac 263e c1c7 a73d 662d ae3d e897 1f3c
000000d0: a22d cf3d 723d 293e 2da9 0a3d 63d4 083e
000000e0: a892 043e 1136 203e be37 aa3c 90a0 8fbd
000000f0: aab0 023e b9b6 93bd 69e9 b43d 04ec 0c3d
00000100: 825b cd3d ecaf 7d3d 5e5b 873d fd63 d43d
00000110: 58db e63d bdad 403d b138 043e 136b 823d
00000120: 0066 d7bc c98c 3a3d efef f9bc 2583 133d
00000130: dc13 98bd 87a8 d2bd a20a 363b 52df 52bc
00000140: 6351 8e3d 4b86 0a3e 2fa7 853d 7309 47bd
00000150: a721 c1bd b681 9d3d ae46 043e ec08 35bd
00000160: 9ebc 20bc 98ce bb3b 18d8 30bd 1b8a dc3c
00000170: a2bc f6bd ebd4 febd 561c 363d d26d b73d
00000180: c73a b2bd 646c e73d 03c9 843c 01c9 5dbd
00000190: dcfc e0bd e1b5 b63c e852 03bd 988b c63c
000001a0: e5e7 a53c d77b 06bd b7d7 47bd d2e3 a93d
000001b0: ac19 edbc 3c96 e23d 317b d23d a9f5 b6bc
000001c0: fe74 b5bd 1c2f 5bbd e557 b8bd 1e6a c83d
000001d0: a534 e33d da6e c2bd 9831 e43c 12d1 c3bd
000001e0: c138 073e 3377 6ebd 14e2 023e 822b d5bc
000001f0: 4cbf 873d e1eb 083e 3150 103d 66df 87bd
00000200: 2892 bbbd dbcf 0dbe c671 cbbd f914 fabd
00000210: e938 06be 2ad1 4cbb 959b a83d 4794 1d3d
00000220: 5e10 3a3d 310c 04be 569d 713c fe35 f2bd
00000230: 732a b33d 3774 0d3e 0f84 863d a2e6 b2bc
00000240: d86e d83d 2cea 0dbe 3cd4 323d f5c3 04be
00000250: d4c4 a6bc bd4b 5e3d a266 f2bd 9e3b 093c
00000260: 7def 0c3e 20de ffbd efa4 0f3e 2cfd 0f3c
00000270: bfb1 e6bc b2c9 babb c28a 14be 15f4 a03d
00000280: 00da 99bd df99 cdbd 451d b3bc 0999 20be
00000290: c351 013d 2605 4ebd 6b21 cabd b928 1c3c
000002a0: 5fee 8d3d c0bc 013d 1d2c 29bb 8b93 acbd
000002b0: 81f6 02be fa98 da3d 53e1 5dbd 2b64 883d
000002c0: 12c2 a7bd 6a6f 003e 9fe8 e63c 66f4 b0bd
000002d0: c09b 01be 780f 0dbe 9129 a03d 9f19 043e
000002e0: c036 10bd 8133 753d a240 1abd 5a0c 12be
000002f0: 87a8 1d3e 6ab5 37bd 43bb 9f3c 878c 17bc
00000300: 786c 14bc 0079 5abd e6f3 223b 1deb 0fbc
00000310: f82e 7b3b 659b f03d 1d68 81bd fb89 1e3e
00000320: ab73 253d 7285 ff3d a6c6 1c3e 9b5b 383d
00000330: b44b 1e3d efd7 433d e7e2 4cbd af17 0e3e
00000340: 15bb eb3d 4b3f 1ebc 3fc1 1cbc e567 3ebc
00000350: 0511 123e 356b 153e 792c 373e 02ba debb
00000360: ea07 9c3c 1e63 94bc bf4e 20bd a575 60bd
00000370: 909d dd3d 8dd9 1c3e ad77 bc3d 2670 953d
00000380: cc70 a8ba e460 aabd fc66 acbc 56db dd3d
00000390: a51b 95bd 9703 313d d00f 033e 66b2 7a3d
000003a0: 8661 1c3d 3593 5cbd eec9 993c 2112 823b
000003b0: 47ee 9bbd f40f b3bc ea4e 8d3d 64b2 cebc
000003c0: 20aa 95bc 4372 163d 491e 363b 5584 33bd
000003d0: 1071 46bd 8c2f 583d 4e90 253e 5f40 603d
000003e0: c418 323d 76c4 8abc 62be fc3d b910 07bc
000003f0: 35e2 ecba 3f22 c5bb 19b6 5cbd 6132 143e

lstm.bias_hh_l0 f4 [256]
0.15675774 0.02082813 -0.00038135692 -0.059806168 0.061280433 -0.026410012 0.021542229 0.12740584
-0.046344142 0.015944332 -0.008159903 0.11191016 0.15535553 0.17161933 0.109464064 0.09492162
0.09254212 0.03257587 0.11376642 -0.05517018 -0.08076076 -0.04001106 0.10147398 0.17483883
0.053282242 -0.056514185 0.041291695 -0.024048664 0.12579402 0.11671808 -0.03456384 -0.023982782
0.041492656 0.0078342715 0.07524681 0.15862454 0.089169204 0.038285647 -0.031247279 0.01741069
-0.04438549 0.05113301 -0.02806643 0.14531973 -0.07542901 0.13197657 0.072677575 -0.026298326
0.050603025 0.06295524 0.11569002 -0.0020571183 0.035363823 0.05657677 -0.05252376 -0.003850733
0.06217731 0.07837418 -0.014649552 -0.023183266 0.006528493 0.14459577 0.10797501 0.07569616
-0.01884419 0.12125403 -0.033643734 -0.11488385 -0.039186213 -0.013669241 0.047506332 0.118942566
-0.052770466 -0.0018562475 0.014648895 -0.060435493 -0.07542904 -0.09308875 0.046537586 -0.09756016
0.012719846 0.0038838147 -0.096251436 0.06649878 0.075362414 0.093072645 0.14377336 0.008871001
0.022923756 -0.08101815 0.087162256 0.068408206 0.012711725 0.11118203 -0.038677104 -0.048700172
0.0644463 0.102713004 -0.085147224 -0.07576617 -0.012290561 0.030093012 -0.096843295 -0.018232875
-0.04597588 0.016283303 -0.12730724 0.0824776 0.11323386 0.025912318 0.043307677 -0.030261332
0.03070196 -0.024624655 -0.03009985 -0.057626624 -0.119587086 0.07113016 0.105817586 -0.0752849
0.056364477 -0.060664926 -0.07675268 0.032529037 0.01218176 -0.06945275 -0.083180554 -0.036920384
0.1097928 -0.08596409 -0.10677658 0.04809092 0.021962633 -0.11559825 -0.059740435 0.02882959
0.08929382 0.032148067 0.05857484 -0.1349452 -0.10097987 0.044029977 0.15896918 0.111197606
0.081512615 -0.12444529 -0.0681963 0.067384996 0.022229373 0.05928195 0.020121077 0.056810685
0.11268149 -0.14148122 0.088627934 -0.11752699 -0.050927866 0.026683828 -0.04424143 -0.09341677
-0.11766347 -0.083344154 0.004022317 -0.12934183 -0.13893108 -0.09770503 -0.11830559 0.004280295
0.07453295 0.03031482 0.01737331 -0.117549285 -0.043916784 -0.037743196 -0.09862066 -0.1351096
0.038869128 0.0060816035 0.1203699 -0.12740077 -0.008926002 -0.024350638 0.117089905 0.14754955
0.11148051 -0.025601773 -0.09745649 -0.1264619 -0.085480124 -0.15147933 -0.06772269 0.039953686
0.030961743 0.049120717 -0.059719067 0.15152836 -0.048342407 -0.010544586 0.096749954 0.10191075
-0.039963238 -0.059501424 -0.08152168 0.008699811 0.12694976 0.15583988 -0.008831846 0.16193655
0.05705175 0.02959205 0.100417845 0.15160504 0.089631744 0.109794155 0.043501962 0.11938542
0.16385551 0.15373269 -0.049939677 -0.069040075 0.11196391 0.1498465 -0.033031803 0.046848845
0.12666102 -0.026254902 0.0604708 -0.05814612 0.091251135 0.075722866 -0.06791632 0.17679264
0.069881305 0.03768516 0.122486554 0.06921093 -0.045439705 0.10563976 -0.032562606 0.053429164
-0.030271992 0.17497079 0.00055215706 -0.04098707 -0.027196152 0.14872849 0.123310104 -0.013134804
-0.018183686 -0.01725898 0.14454687 0.052649092 -0.07454302 0.15249887 0.036652446 0.12023327
00000000: 1a85 203e c19f aa3c dcf0 c7b9 50f7 74bd
00000010: 3101 7b3d cf59 d8bc 5479 b03c ad76 023e
00000020: 5bd3 3dbd b09d 823c 1db1 05bc 2731 e53d
00000030: 8515 1f3e fabc 2f3e b22e e03d 4466 c23d
00000040: b986 bd3d 476e 053d 5efe e83d 20fa 61bd
00000050: e665 a5bd a3e2 23bd 97d1 cf3d f308 333e
00000060: 7b3e 5a3d 6b7b 67bd 7b21 293d b401 c5bc
00000070: 26d0 003e e409 ef3d d092 0dbd 8a77 c4bc
00000080: 34f4 293d 515b 003c 001b 9a3d 796e 223e
00000090: 589e b63d 69d1 1c3d 4bfa ffbc dda0 8e3c
000000a0: 8fcd 35bd d970 513d 92eb e5bc b2ce 143e
000000b0: 867a 9abd de24 073e fbd7 943d 966f d7bc
000000c0: 1e45 4f3d adee 803d e4ee ec3d b8d0 06bb
000000d0: a8d9 103d 0bbd 673d 2723 57bd 945c 7cbb
000000e0: a3ad 7e3d a482 a03d ad04 70bc d5ea bdbc
000000f0: f8ec d53b ea10 143e 0122 dd3d 9706 9b3d
00000100: 215f 9abc 0854 f83d 03ce 09bd 3948 ebbd
00000110: b981 20bd f4f4 5fbc 0096 423d 2998 f33d
00000120: d825 58bd 554d f3ba eb01 703c 358b 77bd
00000130: 8a7a 9abd 51a5 bebd 329e 3e3d 9fcd c7bd
00000140: e766 503c 9987 7e3b 791f c5bd 8330 883d
00000150: 9c57 9a3d df9c be3d 5339 133e ad57 113c
00000160: 9aca bb3c d8ec a5bd 2082 b23d 9a19 8c3d
00000170: d744 503c 67b3 e33d e26b 1ebd d579 47bd
00000180: 6cfc 833d 325b d23d ab61 aebd 4b2b 9bbd
00000190: 595e 49bc 9f85 f63c c755 c6bd 1c5d 95bc
000001a0: 3451 3cbd 9064 853c d45c 02be 04ea a83d
000001b0: 27e7 e73d 1246 d43c 6463 313d 9de6 f7bc
000001c0: ad82 fb3c a5b9 c9bc f693 f6bc e509 6cbd
000001d0: 13ea f4bd b0ac 913d e4b6 d83d f82e 9abd
000001e0: 70de 663d c97b 78bd 8230 9dbd 2b3d 053d
000001f0: 0196 473c 3e3d 8ebd 915a aabd d439 17bd
00000200: 0cdb e03d f10d b0bd aead dabd fcfa 443d
00000210: fbea b33c c6be ecbd 63b2 74bd 082c ec3c
00000220: aedf b63d b1ad 033d 2cec 6f3d 132f 0abe
00000230: 89ce cebd c758 343d d1c8 223e 92bb e33d
00000240: 16f0 a63d 2cdd febd 80aa 8bbd 2501 8a3d
00000250: 601a b63c a1d1 723d f5d4 a43c 52b2 683d
00000260: 8ec5 e63d 74e0 10be 9082 b53d feb1 f0bd
00000270: bd99 50bd 0b98 da3c 8036 35bd 4b51 bfbd
00000280: 8cf9 f0bd 57b0 aabd a4cd 833b 2f72 04be
00000290: f343 0ebe 9319 c8bd 334a f2bd b841 8c3b
000002a0: bba4 983d c956 f83c 7952 8e3c aebd f0bd
000002b0: 16e2 33bd 9c98 1abd a1f9 c9bd 2c5a 0abe
000002c0: 3c35 1f3d 3048 c73b 7e84 f63d 5975 02be
000002d0: 5e3e 12bc fd7a c7bc d5cc ef3d 3b17 173e
000002e0: e54f e43d cfba d1bc 4597 c7bd 3a7f 01be
000002f0: 3410 afbd 661d 1bbe 32b2 8abd 7aa6 233d
00000300: 7ba3 fd3c ce32 493d fb9b 74bd 402a 1b3e
00000310: b002 46bd 33c3 2cbc d724 c63d 95b6 d03d
00000320: 7eb0 23bd c4b7 73bd d7f4 a6bd a789 0e3c
00000330: 1eff 013e 7d94 1f3e 72b3 10bc b2d2 253e
00000340: 19af 693d 076b f23c dfa7 cd3d 5a3e 1b3e
00000350: d990 b73d c2db e03d 1d2f 323d 5880 f43d
00000360: bdc9 273e 1a6c 1d3e 8c8d 4cbd e264 8dbd
00000370: 564d e53d 5c71 193e 5b4c 07bd 93e4 3f3d
00000380: 6db3 013e 8514 d7bc 3bb0 773d a02a 6ebd
00000390: e0e1 ba3d 9714 9b3d b617 8bbd 2109 353e
000003a0: ee1d 8f3d c15b 1a3d 3bda fa3d 76be 8d3d
000003b0: fc1e 3abd a959 d83d 5e60 05bd 8ad8 5a3d
000003c0: f8fc f7bc 8b2b 333e a2be 103a 0fe2 27bd
000003d0: 77ca debc 484c 183e 028a fc3d 5c33 57bc
000003e0: f4f5 94bc b462 8dbc 1804 143e 93a6 573d
000003f0: 03aa 98bd aa28 1c3e e020 163d dc3c f63d

lstm.weight_ih_l1 f4 [256, 64]
0.014228938 0.021356625 0.007511024 -0.12597056 -0.007018983 -0.03472355 0.05565034 0.15060732
-0.038617454 -0.055360366 0.030550255 -0.14225152 -0.07635336 0.10129328 -0.03819618 -0.090404294
-0.025859378 0.038525663 -0.14199342 0.08059243 -0.054395415 0.04458687 -0.1788521 -0.0005847441
-0.05885322 0.035382956 -0.0131657645 -0.061962694 -0.039857697 0.08497493 0.034091435 -0.072270624
-0.07700373 -0.16991289 0.08886224 -0.110806435 -0.004960009 -0.09436293 -0.13416517 -0.052218426
0.1164936 0.045830242 -0.05161933 -0.1302662 -0.019512767 0.033730146 -0.09843907 -0.04008538
0.036472704 0.030162025 0.024947083 -0.08928443 -0.124537 -0.090459295 -0.013419822 0.0468018
-0.06310482 0.14674845 -0.06965166 -0.13838466 0.10526611 0.036246147 0.070082486 0.010585773
-0.024296688 -0.07024377 0.026542796 -0.09842412 0.050379686 0.099563144 -0.12034753 -0.08080539
-0.044797514 -0.09322754 -0.08612168 -0.014535801 -0.058820836 -0.011041151 0.13777408 -0.117142946
0.023683343 0.12191661 -0.06935697 0.034224167 -0.088256665 0.11751101 -0.04050602 -0.065665364
-0.06662434 0.054861404 0.14856948 -0.08076433 0.0029635243 -0.018401809 0.102610365 0.07429244
0.08906603 0.09908839 0.107586175 -0.082591236 0.005903212 -0.09187815 -0.082708895 0.13553272
0.11134504 0.021958802 0.10136143 0.09805446 0.045482356 0.078884 -0.09200446 -0.10807999
-0.04246522 0.12004338 0.016393075 -0.018370243 0.058842726 -0.057402447 -0.089394756 -0.10218875
0.09827143 0.07605508 -0.058530193 0.04927397 0.07445865 0.09011394 0.021610297 -0.055381358
0.04627688 0.0888526 -0.104717046 0.11334358 -0.06378419 0.09598797 -0.070191175 -0.008180834
-0.051688924 -0.05165722 0.08112383 -0.13605285 -0.067717776 0.12116729 0.07361106 0.03421258
-0.092640005 0.02294337 -0.12645225 -0.10137879 0.08781737 -0.0085431775 -0.07663728 -0.07467598
-0.088794194 0.048993837 -0.08492073 -0.088637084 -0.04093806 -0.011269177 -0.1417345 0.08105433
0.00010217471 0.04011035 -0.046060886 -0.060254812 -0.015532693 0.040844273 -0.037317883 -0.025582002
-0.06977715 0.04450461 -0.058104046 -0.079843186 -0.13736124 -0.14716847 -0.028320912 -0.07564642
-0.05010831 -0.06332682 -0.01967302 0.049786173 -0.010212982 -0.09518693 0.12761705 -0.0091761
0.10413812 0.02670524 -0.03988866 -0.08652017 -0.044809945 0.061373528 -0.03804543 0.08931195
-0.035164673 0.015168365 -0.0045878696 -0.094756365 -0.026706723 0.016757732 0.10923093 -0.021052772
0.11877359 0.023827858 0.037024554 0.051048577 -0.061751556 0.0013179617 0.007387961 0.028015131
0.063759945 -0.098238416 0.1147605 0.1247634 0.040655375 0.0055910293 0.06554386 0.09408011
0.07042807 0.022934167 -0.03909098 -0.07762985 0.11305824 0.07803907 -0.0017505867 -0.07257346
0.11053584 0.048874788 0.074951135 -0.13798974 -0.08963764 -0.017079074 -0.08125261 -0.09105577
0.13152348 0.008936107 0.024509914 0.009767064 -0.11156513 0.05888072 -0.023191959 -0.070336744
0.053136423 0.04132528 0.10544886 -0.11557276 0.024177093 -0.019703843 -0.017926913 0.11690509
-0.058111984 0.061398435 -0.0059598484 -0.050187822 -0.018510576 -0.13481462 -0.10347875 0.056793146
00000000: 7e20 693c 17f4 ae3c 091f f63b 6dfe 00be
00000010: 7fff e5bb 483a 0ebd 9cf1 633d ce38 1a3e
00000020: 562d 1ebd 8dc1 62bd 8744 fa3c 62aa 11be
00000030: 275f 9cbd da72 cf3d 9973 1cbd e325 b9bd
00000040: 0cd7 d3bc 16cd 1d3d b966 11be a50d a53d
00000050: bacd 5ebd b9a0 363d 0125 37be 8349 19ba
00000060: 1310 71bd b8ed 103d 38b5 57bc 98cc 7dbd
00000070: d341 23bd 5607 ae3d 76a3 0b3d 9f02 94bd
00000080: 22b4 9dbd a5fd 2dbe 68fd b53d 7cee e2bd
00000090: 9287 a2bb 5a41 c1bd 9862 09be fde2 55bd
000000a0: 3294 ee3d 7eb8 3b3d ca6e 53bd 8164 05be
000000b0: 3dd9 9fbc 9f28 0a3d 6c9a c9bd 9130 24bd
000000c0: 6764 153d 5a16 f73c d35d cc3c c1da b6bd
000000d0: 410d ffbd b942 b9bd d0de 5bbc 3fb3 3f3d
000000e0: 1a3d 81bd 3a45 163e 88a5 8ebd b5b4 0dbe
000000f0: c295 d73d d776 143d 6887 8f3d f36f 2d3c
00000100: d909 c7bc f7db 8fbd 4770 d93c 9692 c9bd
00000110: ee5a 4e3d c3e7 cb3d c478 f6bd 4c7d a5bd
00000120: 997d 37bd 15ee bebd 9060 b0bd 9127 6ebc
00000130: 1eee 70bd f2e5 34bc a614 0d3e a4e8 efbd
00000140: 9203 c23c 6aaf f93d 070b 8ebd a42e 0c3d
00000150: e9bf b4bd 9da9 f03d a4e9 25bd 907b 86bd
00000160: 5872 88bd 5ab6 603d 9922 183e c567 a5bd
00000170: b037 423b 64bf 96bc 6225 d23d a326 983d
00000180: 4068 b63d dbee ca3d 2456 dc3d 9825 a9bd
00000190: bb6f c13b 9d2a bcbd 4863 a9bd 17c9 0a3e
000001a0: de08 e43d f2e2 b33c 9596 cf3d c7d0 c83d
000001b0: b54b 3a3d ef8d a13d d66c bcbd 0b59 ddbd
000001c0: 03f0 2dbd 4ed9 f53d c54a 863c 317d 96bc
000001d0: 1205 713d d41e 6bbd 9914 b7bd 5648 d1bd
000001e0: 8842 c93d c4c2 9b3d 5bbd 6fbd 81d3 493d
000001f0: c77d 983d a88d b83d 1408 b13c 90d7 62bd
00000200: d38c 3d3d 5af8 b53d e475 d6bd ae20 e83d
00000210: 49a1 82bd 5795 c43d 64c0 8fbd e808 06bc
00000220: c4b7 53bd 8596 53bd 4024 a63d 7051 0bbe
00000230: 9eaf 8abd 8e26 f83d 65c1 963d 7e22 0c3d
00000240: 0bba bdbd bcf3 bb3c b37c 01be af9f cfbd
00000250: 98d9 b33d aff8 0bbc 02f4 9cbd b8ef 98bd
00000260: bbd9 b5bd c3ad 483d ebea adbd 5c87 b5bd
00000270: abae 27bd 5ba2 38bc d922 11be d0ff a53d
00000280: a146 d638 c04a 243d 57aa 3cbd c0cd 76bd
00000290: d67c 7ebc 534c 273d a3da 18bd 5991 d1bc
000002a0: 53e7 8ebd 774a 363d 82fe 6dbd d384 a3bd
000002b0: 6da8 0cbe 55b3 16be 4201 e8bc 83ec 9abd
000002c0: 5f3e 4dbd 7eb1 81bd 5029 a1bc 96ec 4b3d
000002d0: 5a54 27bc 5df1 c2bd 0bae 023e 5a57 16bc
000002e0: 5e46 d53d f3c4 da3c 4b62 23bd 7d31 b1bd
000002f0: a28a 37bd cf62 7b3d 86d5 1bbd 2fe9 b63d
00000300: d508 10bd bc84 783c d755 96bb a00f c2bd
00000310: 0fc8 dabc 8347 893c 77b4 df3d dd76 acbc
00000320: 913f f33d a432 c33c 0fa7 173d 5018 513d
00000330: 33ef 7cbd 75bf ac3a b516 f23b fd7f e53c
00000340: 9394 823d 3931 c9bd 8e07 eb3d f483 ff3d
00000350: 4086 263d f434 b73b dc3b 863d 13ad c03d
00000360: 983c 903d 6fe0 bb3c dd1d 20bd 66fc 9ebd
00000370: 148b e73d f3d2 9f3d f173 e5ba 65a1 94bd
00000380: 9d60 e23d ee30 483d fb7f 993d 2f4d 0dbe
00000390: f093 b7bd 6ae9 8bbc c567 a6bd 737b babd
000003a0: 17ae 063e c068 123c 04c9 c83c 0906 203c
000003b0: 427c e4bd e92c 713d 10fd bdbc b60c 90bd
000003c0: 94a5 593d b244 293d 92f5 d73d 69b1 ecbd
000003d0: 0a0f c63c f469 a1bc 76db 92bc f06b ef3d
000003e0: d506 6ebd ed7c 7b3d d54a c3bb bf91 4dbd
000003f0: 7ea3 97bc d80c 0abe abec d3bd ee9f 683d

lstm.weight_hh_l1 f4 [256, 64]
0.1052714 0.06468789 -0.0680538 -0.03372779 0.09733807 -0.13522296 0.184446 -0.100963585
0.058996398 0.109700024 0.12535945 -0.032944195 0.16039251 -0.05072646 -0.14320062 -0.008019374
0.018643657 0.02580391 -0.001514262 0.07109097 0.104131676 -0.06615335 -0.02741912 -0.13935798
-0.02967749 -0.15272193 -0.06690718 0.021672029 0.11038851 0.030884264 -0.03399683 -0.09367877
-0.00454943 0.15092488 0.015002414 -0.00047809773 -0.054319825 0.1064456 -0.14831829 0.029819122
0.038360905 0.052155823 -0.1633064 0.1344825 -0.12129452 0.028726663 0.07451239 -0.03574022
0.09804666 0.048303884 -0.09307408 -0.030216975 -0.1653703 0.03860839 0.074065566 -0.003938496
-0.09808048 -0.18082547 0.01783723 0.032284006 0.13399896 0.18692935 -0.043297548 0.098595865
-0.0350637 0.043547027 0.0687469 -0.00089788315 -0.07553307 -0.054982487 -0.09604966 -0.017840216
0.09478243 0.14294858 0.09695701 0.006489531 -0.03623885 -0.03540588 -0.013423837 -0.0016676774
-0.01162144 -0.069575705 0.06411923 -0.12414984 0.020932239 -0.08776827 -0.052983627 -0.12691827
0.09066398 0.048497856 0.053263295 0.08390108 0.07794234 -0.049627583 -0.0872089 0.065275736
-0.08394562 0.04991836 0.0024927668 0.08730418 0.07905057 0.06359301 -0.115807414 -0.078433745
-0.041912373 -0.08781393 -0.11906771 -0.03701436 -0.07647735 -0.07524011 -0.0069156145 0.069162115
0.07013688 -0.028781353 0.06763962 -0.076804474 -0.10272461 0.090477765 0.005654621 0.057207055
-0.008419253 -0.103345074 -0.06923693 -0.005297556 -0.052941356 0.11917711 0.09266254 -0.098835155
0.035305794 -0.02854542 -0.057778846 0.017833779 0.16012411 0.037825134 -0.008347307 0.035644546
0.16070339 -0.025757695 0.007830708 -0.07051167 -0.0068985405 0.01619132 0.03692554 -0.07456516
-0.07226777 -0.09127614 0.102861024 -0.08650402 -0.02920226 -0.14770882 -0.03210088 -0.014852525
0.021689666 0.039532635 -0.021135561 0.112052806 0.11145866 -0.022289502 0.05418215 -0.03222092
0.07467014 -0.0001023228 0.11229264 -0.06065289 -0.029712634 -0.01737238 0.04562569 0.07565245
0.12709796 -0.008483061 -0.037557315 -0.011127501 -0.1237408 -0.10446924 -0.03361543 0.11124898
0.023201982 -0.013874352 -0.15742537 0.0341226 -0.03827118 -0.017409647 -0.07598446 0.056162104
0.014654873 -0.0026444064 0.078826085 0.08141349 -0.03433507 -0.014452733 -0.08580676 0.11197719
0.04755784 -0.066013016 -0.08526052 -0.09179821 -0.072064504 -0.10650889 -0.068978675 0.06997322
-0.04758985 -0.095299184 -0.05409998 0.15995994 0.0956667 0.018380169 -0.08411227 0.008413814
0.11909815 0.0610809 0.14623044 0.08718626 -0.07415782 -0.00036466177 -0.10924355 0.0029064945
-0.05353369 0.037632357 -0.07225327 -0.05622788 0.041430272 0.15432818 -0.12547141 0.02257766
0.058863647 0.0821003 0.058747265 0.038726036 0.020468328 0.1392499 -0.07635933 -0.004638798
0.10728304 0.05966999 0.019063614 -0.09304032 -0.04833648 0.0043290285 -0.069546744 -0.05504083
0.016879322 0.015141153 -0.06540131 -0.019082332 -0.14812592 0.05195106 -0.033758026 -0.05676624
-0.11980625 -0.13254681 0.062087685 0.008063479 0.036506556 -0.027708255 -0.002615798 -0.009063292
00000000: 8898 d73d 167b 843d ca5f 8bbd 2726 0abd
00000010: 2f59 c73d e377 0abe 6adf 3c3e ffc5 cebd
00000020: 35a6 713d 68aa e03d 3a5e 003e 7ef0 06bd
00000030: ef3d 243e 8cc6 4fbd 2fa3 12be b163 03bc
00000040: 95ba 983c b962 d33c 347a c6ba 2498 913d
00000050: fd42 d53d 687b 87bd 109e e0bc dcb3 0ebe
00000060: 351e f3bc 2363 1cbe a206 89bd 8a89 b13c
00000070: 5f13 e23d ff00 fd3c 4340 0bbd a8da bfbd
00000080: 6313 95bb 0d8c 1a3e afcc 753c 31a9 fab9
00000090: 777e 5ebd 2700 da3d c0e0 17be 3b47 f43c
000000a0: 5320 1d3d 58a1 553d cb39 27be c8b5 093e
000000b0: 4369 f8bd 2e54 eb3c f499 983d 5664 12bd
000000c0: b0cc c83d 4bda 453d a09d bebd 9789 f7bc
000000d0: d556 29be d523 1e3d b0af 973d 800e 81bb
000000e0: 6bde c8bd 502a 39be 621f 923c 3c3c 043d
000000f0: 0637 093e 686a 3f3e c558 31bd a1ec c93d
00000100: f49e 0fbd 5e5e 323d 2dcb 8c3d eb5f 6bba
00000110: 15b1 9abd 5135 61bd afb5 c4bd a525 92bc
00000120: 4a1d c23d 1d61 123e 6691 c63d 22a6 d43b
00000130: 306f 14bd c205 11bd a7ef 5bbc f895 daba
00000140: da67 3ebc b57d 8ebd f150 833d 4542 febd
00000150: 167a ab3c dabf b3bd 5c05 59bd ddf6 01be
00000160: 09ae b93d b0a5 463d 9d2a 5a3d 54d4 ab3d
00000170: 3ca0 9f3d 4b46 4bbd 949a b2bd 49af 853d
00000180: aeeb abbd 3277 4c3d b05d 233b 89cc b23d
00000190: 44e5 a13d 0d3d 823d 702c edbd dfa1 a0bd
000001a0: 4fac 2bbd cad7 b3bd c6d9 f3bd 5f9c 17bd
000001b0: 28a0 9cbd 7d17 9abd 619c e2bb dea4 8d3d
000001c0: eda3 8f3d dfc6 ebbc a486 8a3d aa4b 9dbd
000001d0: 4861 d2bd 684c b93d 664a b93b f251 6a3d
000001e0: e8f0 09bc 95a6 d3bd 17cc 8dbd 1f97 adbb
000001f0: 09d9 58bd 2113 f43d dcc5 bd3d 166a cabd
00000200: cf9c 103d 16d8 e9bc 83a9 6cbd 2518 923c
00000210: 93f7 233e 87ee 1a3d 25c3 08bc 0400 123d
00000220: 6e8f 243e cd01 d3bc 5f4c 003c 6c68 90bd
00000230: 270d e2bb a9a3 843c 3c3f 173d 9eb5 98bd
00000240: 2001 94bd fcee babd cda8 d23d 0529 b1bd
00000250: 9439 efbc fb40 17be 367c 03bd 0158 73bc
00000260: 87ae b13c f9ec 213d 7c24 adbc f17b e53d
00000270: 7044 e43d 7998 b6bc 1aee 5d3d 15fa 03bd
00000280: a9ec 983d 2396 d6b8 aff9 e53d 2a6f 78bd
00000290: e967 f3bc 8550 8ebc 01e2 3a3d acef 9a3d
000002a0: f825 023e 89fc 0abc b3d5 19bd 1f50 36bc
000002b0: d16b fdbd f8f3 d5bd 55b0 09bd 81d6 e33d
000002c0: 1512 be3c 4051 63bc 1e34 21be 24c4 0b3d
000002d0: 3ec2 1cbd ad9e 8ebc be9d 9bbd 3c0a 663d
000002e0: fe1a 703c c74d 2dbb 926f a13d 1ebc a63d
000002f0: eea2 0cbd 28cb 6cbc 74bb afbd 4c54 e53d
00000300: 02cc 423d d531 87bd 119d aebd b300 bcbd
00000310: 8e96 93bd 5521 dabd b144 8dbd 1f4e 8f3d
00000320: 93ed 42bd 382c c3bd f197 5dbd 8acc 233e
00000330: e7ec c33d 0292 963c 0e43 acbd 18da 093c
00000340: bbe9 f33d f72f 7a3d 6fbd 153e b68e b23d
00000350: 0ee0 97bd 1330 bfb9 15bb dfbd e37a 3e3b
00000360: 2446 5bbd 6324 1a3d 86f9 93bd 354f 66bd
00000370: cab2 293d 3508 1e3e 947b 00be c9f4 b83c
00000380: 021b 713d 3424 a83d f9a0 703d 319f 1e3d
00000390: 32ad a73c 8797 0e3e 4862 9cbd 0f01 98bb
000003a0: 36b7 db3d 8568 743d 4c2b 9c3c ec8b bebd
000003b0: 79fc 45bd 86da 8d3b 866e 8ebd 7e72 61bd
000003c0: 8146 8a3c 9912 783c 1ff1 85bd 8d52 9cbc
000003d0: 52ae 17be a2ca 543d db45 0abd b883 68bd
000003e0: fb5c f5bd 5aba 07be a84f 7e3d af1c 043c
000003f0: e687 153d 6cfc e2bc cf6d 2bbb 347e 14bc

lstm.bias_ih_l1 f4 [256]
0.112696275 -0.07809535 -0.04058033 0.14128034 -0.005802184 0.11129947 0.022616277 -0.08202281
0.08527081 0.12704359 -0.09197473 0.16347697 -0.045039922 0.050230213 0.018557074 0.103630655
-0.062771454 0.017300185 0.123673715 0.04296314 0.10210514 0.14683478 -0.017174296 -0.03809205
0.1372291 0.08416562 -0.08991285 0.067411855 0.13564223 0.048917167 -0.0654524 0.0070228986
-0.09032713 0.12049954 0.010984995 0.07155502 0.105570376 0.05870578 0.004981635 -0.073115766
-0.0023040134 -0.015775772 0.027308518 -0.07370772 0.119646154 0.10877171 -0.006314938 0.14671728
-0.054826733 0.030551879 -0.022980455 0.00978913 0.115675636 0.1066166 -0.042706747 0.00015536882
0.06259822 -0.005563836 0.159957 0.10365236 0.031140175 -0.07241986 -0.00230604 -0.03938854
-0.007258882 0.1314843 -0.04278196 -0.062036395 -0.08706077 -0.045073852 0.00961956 0.10322599
-0.102625586 -0.054265838 -0.051457915 0.016774476 0.03179096 -0.03917713 0.0051613897 -0.022290528
0.058347274 -0.03445634 0.07964588 -0.0018495558 0.0037734346 0.027758276 -0.027416801 0.045119945
-0.045689076 0.08692222 -0.014619602 -0.0856876 0.100969434 0.025898755 0.006780689 -0.027360562
-0.096774235 0.051929902 -0.060470425 -0.04645847 -0.06548897 -0.11734517 0.044493712 -0.009023738
0.034486707 -0.11419345 0.021445813 -0.0046486394 0.013421833 0.06972687 -0.023206389 -0.02760128
0.05602024 -0.04009953 -0.071031585 0.116472185 -0.08936111 0.10805681 0.0037490935 0.04385421
0.061828565 0.053191602 0.072637804 -0.08560878 0.12653206 -0.011677213 0.028228296 0.045968432
-0.007422032 0.054829523 0.071567565 -0.1108804 0.008123733 -0.014201534 0.07888749 0.016122634
-0.024653452 -0.0026487194 0.09180995 0.052545175 0.07737839 0.014169446 -0.09565474 0.071156956
0.07864648 -0.020960063 -0.08144465 0.048263144 -0.049574453 -0.019573173 -0.08587844 0.057054743
0.058976498 0.019388713 -0.053894762 0.036826793 0.07597238 -0.02279589 -0.094745204 -0.079157256
0.06906044 0.08789625 0.09558576 -0.08943307 0.104100965 -0.1126128 -0.080268785 0.06412387
0.07264544 -0.10964093 -0.13001177 0.06699106 -0.0825684 0.009574089 -0.07270854 0.10304947
0.11872962 -0.05398047 0.021284876 -0.043116823 -0.08094839 0.050123658 -0.109129444 -0.027369712
0.081747875 -0.11494378 0.044518914 0.12653027 0.123686016 0.06832079 0.049706522 0.05080678
0.1214042 0.06662026 0.089835905 0.015437545 -0.01701814 -0.020237757 0.13537174 -0.071692675
-0.032810267 -0.051758993 0.041467875 -0.043744545 -0.053072453 0.03379675 -0.017615668 0.017779281
0.041316923 0.08429326 0.12379033 -0.068571575 0.09126441 0.114441454 -0.08237331 -0.05850565
-0.022157444 0.022066621 0.030392718 0.0976796 0.13033307 0.018568594 -0.016120708 0.047869027
-0.03999719 -0.080055594 -0.06131906 0.14554502 0.108874485 0.115499124 -0.048227295 -0.029849894
0.097151056 0.07573328 0.03469588 -0.05526005 0.15379375 0.081244685 0.15072347 -0.024064384
0.04370284 0.040443648 -0.059379205 -0.043245148 0.09000936 0.044412896 -0.024039786 0.11449493
0.11394224 -0.008210215 0.12837642 0.09067416 0.038825464 -0.06815615 -0.002903935 -0.014171482
00000000: 4ecd e63d 74f0 9fbd 8f37 26bd cbab 103e
00000010: 3f20 bebb faf0 e33d c545 b93c 93fb a7bd
00000020: 76a2 ae3d b717 023e 3f5d bcbd 8266 273e
00000030: c87b 38bd 32be 4d3d 0105 983c 4f3c d43d
00000040: 528e 80bd 1eb9 8d3c a548 fd3d 1efa 2f3d
00000050: 801c d13d db5b 163e 1cb1 8cbc 6906 1cbd
00000060: c985 0c3e 065f ac3d 3a24 b8bd 3a0f 8a3d
00000070: cce5 0a3e 5e5d 483d e80b 86bd 5820 e63b
00000080: 6efd b8bd 76c8 f63d 69fa 333c 708b 923d
00000090: 4835 d83d 7975 703d fc3c a33b b8bd 95bd
000000a0: eefe 16bb 313c 81bc 1db6 df3c 13f4 96bd
000000b0: 0b09 f53d b4c3 de3d 8aed cebb 0e3d 163e
000000c0: ff91 60bd ef47 fa3c 8241 bcbc 9662 203c
000000d0: 59e7 ec3d ce59 da3d 45ed 2ebd 80ea 2239
000000e0: 7f33 803d d750 b6bb c5cb 233e b047 d43d
000000f0: ae19 ff3c dd50 94bd ee20 17bb e155 21bd
00000100: eadb edbb d2a3 063e 233c 2fbd e019 7ebd
00000110: eb4c b2bd 5c9f 38bd 5c9b 1d3c 2668 d33d
00000120: 5d2d d2bd db45 5ebd 89c5 52bd a06a 893c
00000130: 3d37 023d 3378 20bd e020 a93b a09a b6bc
00000140: 8dfd 6e3d 1722 0dbd 611d a33d cb6c f2ba
00000150: ba4b 773b 5365 e33c 3399 e0bc b1cf 383d
00000160: 7824 3bbd 4704 b23d 0e87 6fbc fb7c afbd
00000170: 10c9 ce3d a029 d43c 8b30 de3b 4223 e0bc
00000180: 9231 c6bd 73b4 543d d6af 77bd 3d4b 3ebd
00000190: 151f 86bd aa52 f0bd 0a3f 363d 4dd8 13bc
000001a0: ef41 0d3d 41de e9bd 21af af3c 9d53 98bb
000001b0: 3fe7 5b3c f6cc 8e3d 531b bebc 141c e2bc
000001c0: 7b75 653d 683f 24bd 0279 91bd f888 ee3d
000001d0: f502 b7bd e44c dd3d 5ab3 753b 79a0 333d
000001e0: f33f 7d3d 70df 593d 21c3 943d a853 afbd
000001f0: 9f91 013e c851 3fbc 073f e73c 6549 3c3d
00000200: 8434 f3bb ec94 603d 0492 923d 4315 e3bd
00000210: 6819 053c 8dad 68bc c48f a13d 9d13 843c
00000220: 09f6 c9bc 2396 2dbb db06 bc3d 9c39 573d
00000230: 9078 9e3d f726 683c a2e6 c3bd bdba 913d
00000240: 6811 a13d 70b4 abbc 74cc a6bd 93af 453d
00000250: 950e 4bbd eb57 a0bc 09e1 afbd 3cb2 693d
00000260: 5791 713d 14d5 9e3c c1c0 5cbd b1d7 163d
00000270: 6897 9b3d 72be babc c609 c2bd 331d a2bd
00000280: 8f6f 8d3d f302 b43d 78c2 c33d af28 b7bd
00000290: e332 d53d 8aa1 e6bd f663 a4bd 6053 833d
000002a0: 22c7 943d 6d8b e0bd ce21 05be 9c32 893d
000002b0: 9f19 a9bd a4dc 1c3c 37e8 94bd 9a0b d33d
000002c0: 8428 f33d a01a 5dbd 9f5d ae3c 449b 30bd
000002d0: 45c8 a5bd 774e 4d3d 427f dfbd 7236 e0bc
000002e0: 6e6b a73d a567 ebbd 7759 363d 2791 013e
000002f0: 184f fd3d c5eb 8b3d 1199 4b3d c51a 503d
00000300: c4a2 f83d 3470 883d e3fb b73d c2ed 7c3c
00000310: a069 8bbc a7c9 a5bc e49e 0a3e 9cd3 92bd
00000320: 0f64 06bd 3d01 54bd 38da 293d 7b2d 33bd
00000330: 8062 59bd 766e 0a3d bc4e 90bc dba5 913c
00000340: ef3b 293d f2a1 ac3d c985 fd3d 416f 8cbd
00000350: d6e8 ba3d 4860 ea3d 57b3 a8bd 9fa3 6fbd
00000360: 8783 b5bc 0fc5 b43c 26fa f83c 3e0c c83d
00000370: 0876 053e 2a1d 983c 930f 84bc 5012 443d
00000380: 18d4 23bd 30f4 a3bd b229 7bbd c109 153e
00000390: 96f9 de3d ce8a ec3d fc89 45bd c487 f4bc
000003a0: 22f7 c63d 0d1a 9b3d 441d 0e3d 5d58 62bd
000003b0: 1c7c 1d3e 9d63 a63d 4157 1a3e ac22 c5bc
000003c0: c001 333d 3da8 253d 9c37 73bd d321 31bd
000003d0: d456 b83d 4cea 353d 16ef c4bc 517c ea3d
000003e0: 8d5a e93d 2384 06bc 1c75 033e 60b3 b93d
000003f0: 7307 1f3d 7495 8bbd f24f 3ebb 812f 68bc
